node {
  name: "labels_cast"
  op: "Const"
  device: "/job:localhost/replica:0/task:0/device:GPU:0"
  attr {
    key: "_output_shapes"
    value {
      list {
        shape {
          dim {
            size: 32
          }
        }
      }
    }
  }
  attr {
    key: "dtype"
    value {
      type: DT_INT64
    }
  }
  attr {
    key: "value"
    value {
      tensor {
        dtype: DT_INT64
        tensor_shape {
          dim {
            size: 32
          }
        }
        int64_val: 0
      }
    }
  }
  experimental_debug_info {
    original_node_names: "labels_cast"
  }
}
node {
  name: "Const"
  op: "Const"
  device: "/job:localhost/replica:0/task:0/device:GPU:0"
  attr {
    key: "_output_shapes"
    value {
      list {
        shape {
          dim {
            size: 4
          }
          dim {
            size: 2
          }
        }
      }
    }
  }
  attr {
    key: "dtype"
    value {
      type: DT_INT32
    }
  }
  attr {
    key: "value"
    value {
      tensor {
        dtype: DT_INT32
        tensor_shape {
          dim {
            size: 4
          }
          dim {
            size: 2
          }
        }
        tensor_content: "…"
      }
    }
  }
  experimental_debug_info {
    original_node_names: "Const"
  }
}
node {
  name: "conv0/conv2d/kernel"
  op: "VariableV2"
  device: "/job:localhost/replica:0/task:0/device:GPU:0"
  attr {
    key: "_class"
    value {
      list {
        s: "loc:@GradientDescent/update_conv0/conv2d/kernel/ApplyGradientDescent"
      }
    }
  }
  attr {
    key: "_output_shapes"
    value {
      list {
        shape {
          dim {
            size: 7
          }
          dim {
            size: 7
          }
          dim {
            size: 3
          }
          dim {
            size: 64
          }
        }
      }
    }
  }
  attr {
    key: "container"
    value {
      s: ""
    }
  }
  attr {
    key: "dtype"
    value {
      type: DT_FLOAT
    }
  }
  attr {
    key: "shape"
    value {
      shape {
        dim {
          size: 7
        }
        dim {
          size: 7
        }
        dim {
          size: 3
        }
        dim {
          size: 64
        }
      }
    }
  }
  attr {
    key: "shared_name"
    value {
      s: ""
    }
  }
  experimental_debug_info {
    original_node_names: "conv0/conv2d/kernel"
  }
}
node {
  name: "conv0/batchnorm0/gamma"
  op: "VariableV2"
  device: "/job:localhost/replica:0/task:0/device:GPU:0"
  attr {
    key: "_class"
    value {
      list {
        s: "loc:@GradientDescent/update_conv0/batchnorm0/gamma/ApplyGradientDescent"
      }
    }
  }
  attr {
    key: "_output_shapes"
    value {
      list {
        shape {
          dim {
            size: 64
          }
        }
      }
    }
  }
  attr {
    key: "container"
    value {
      s: ""
    }
  }
  attr {
    key: "dtype"
    value {
      type: DT_FLOAT
    }
  }
  attr {
    key: "shape"
    value {
      shape {
        dim {
          size: 64
        }
      }
    }
  }
  attr {
    key: "shared_name"
    value {
      s: ""
    }
  }
  experimental_debug_info {
    original_node_names: "conv0/batchnorm0/gamma"
  }
}
node {
  name: "DistributedGradientDescentOptimizer_Allreduce/Const_74"
  op: "Const"
  device: "/job:localhost/replica:0/task:0/device:GPU:0"
  attr {
    key: "_output_shapes"
    value {
      list {
        shape {
        }
      }
    }
  }
  attr {
    key: "dtype"
    value {
      type: DT_BOOL
    }
  }
  attr {
    key: "value"
    value {
      tensor {
        dtype: DT_BOOL
        tensor_shape {
        }
        bool_val: true
      }
    }
  }
  experimental_debug_info {
    original_node_names: "DistributedGradientDescentOptimizer_Allreduce/Const_74"
  }
}
node {
  name: "conv0/batchnorm0/beta"
  op: "VariableV2"
  device: "/job:localhost/replica:0/task:0/device:GPU:0"
  attr {
    key: "_class"
    value {
      list {
        s: "loc:@GradientDescent/update_conv0/batchnorm0/beta/ApplyGradientDescent"
      }
    }
  }
  attr {
    key: "_output_shapes"
    value {
      list {
        shape {
          dim {
            size: 64
          }
        }
      }
    }
  }
  attr {
    key: "container"
    value {
      s: ""
    }
  }
  attr {
    key: "dtype"
    value {
      type: DT_FLOAT
    }
  }
  attr {
    key: "shape"
    value {
      shape {
        dim {
          size: 64
        }
      }
    }
  }
  attr {
    key: "shared_name"
    value {
      s: ""
    }
  }
  experimental_debug_info {
    original_node_names: "conv0/batchnorm0/beta"
  }
}
node {
  name: "conv0/batchnorm0/Const"
  op: "Const"
  device: "/job:localhost/replica:0/task:0/device:GPU:0"
  attr {
    key: "_output_shapes"
    value {
      list {
        shape {
          dim {
          }
        }
      }
    }
  }
  attr {
    key: "dtype"
    value {
      type: DT_FLOAT
    }
  }
  attr {
    key: "value"
    value {
      tensor {
        dtype: DT_FLOAT
        tensor_shape {
          dim {
          }
        }
      }
    }
  }
  experimental_debug_info {
    original_node_names: "conv0/batchnorm0/Const"
  }
}
node {
  name: "gradients/Pad_14_grad/Slice_1-2-DataFormatVecPermuteNHWCToNCHW-LayoutOptimizer"
  op: "Const"
  device: "/job:localhost/replica:0/task:0/device:GPU:0"
  attr {
    key: "_output_shapes"
    value {
      list {
        shape {
          dim {
            size: 4
          }
        }
      }
    }
  }
  attr {
    key: "dtype"
    value {
      type: DT_INT32
    }
  }
  attr {
    key: "value"
    value {
      tensor {
        dtype: DT_INT32
        tensor_shape {
          dim {
            size: 4
          }
        }
        tensor_content: " \000\000\000\000\002\000\000\016\000\000\000\016\000\000\000"
      }
    }
  }
  experimental_debug_info {
    original_node_names: "gradients/Pad_14_grad/Slice_1-2-DataFormatVecPermuteNHWCToNCHW-LayoutOptimizer"
  }
}
node {
  name: "conv1/conv2d/kernel"
  op: "VariableV2"
  device: "/job:localhost/replica:0/task:0/device:GPU:0"
  attr {
    key: "_class"
    value {
      list {
        s: "loc:@GradientDescent/update_conv1/conv2d/kernel/ApplyGradientDescent"
      }
    }
  }
  attr {
    key: "_output_shapes"
    value {
      list {
        shape {
          dim {
            size: 1
          }
          dim {
            size: 1
          }
          dim {
            size: 64
          }
          dim {
            size: 256
          }
        }
      }
    }
  }
  attr {
    key: "container"
    value {
      s: ""
    }
  }
  attr {
    key: "dtype"
    value {
      type: DT_FLOAT
    }
  }
  attr {
    key: "shape"
    value {
      shape {
        dim {
          size: 1
        }
        dim {
          size: 1
        }
        dim {
          size: 64
        }
        dim {
          size: 256
        }
      }
    }
  }
  attr {
    key: "shared_name"
    value {
      s: ""
    }
  }
  experimental_debug_info {
    original_node_names: "conv1/conv2d/kernel"
  }
}
node {
  name: "conv1/batchnorm1/gamma"
  op: "VariableV2"
  device: "/job:localhost/replica:0/task:0/device:GPU:0"
  attr {
    key: "_class"
    value {
      list {
        s: "loc:@GradientDescent/update_conv1/batchnorm1/gamma/ApplyGradientDescent"
      }
    }
  }
  attr {
    key: "_output_shapes"
    value {
      list {
        shape {
          dim {
            size: 256
          }
        }
      }
    }
  }
  attr {
    key: "container"
    value {
      s: ""
    }
  }
  attr {
    key: "dtype"
    value {
      type: DT_FLOAT
    }
  }
  attr {
    key: "shape"
    value {
      shape {
        dim {
          size: 256
        }
      }
    }
  }
  attr {
    key: "shared_name"
    value {
      s: ""
    }
  }
  experimental_debug_info {
    original_node_names: "conv1/batchnorm1/gamma"
  }
}
node {
  name: "conv1/batchnorm1/beta"
  op: "VariableV2"
  device: "/job:localhost/replica:0/task:0/device:GPU:0"
  attr {
    key: "_class"
    value {
      list {
        s: "loc:@GradientDescent/update_conv1/batchnorm1/beta/ApplyGradientDescent"
      }
    }
  }
  attr {
    key: "_output_shapes"
    value {
      list {
        shape {
          dim {
            size: 256
          }
        }
      }
    }
  }
  attr {
    key: "container"
    value {
      s: ""
    }
  }
  attr {
    key: "dtype"
    value {
      type: DT_FLOAT
    }
  }
  attr {
    key: "shape"
    value {
      shape {
        dim {
          size: 256
        }
      }
    }
  }
  attr {
    key: "shared_name"
    value {
      s: ""
    }
  }
  experimental_debug_info {
    original_node_names: "conv1/batchnorm1/beta"
  }
}
node {
  name: "conv2/conv2d/kernel"
  op: "VariableV2"
  device: "/job:localhost/replica:0/task:0/device:GPU:0"
  attr {
    key: "_class"
    value {
      list {
        s: "loc:@GradientDescent/update_conv2/conv2d/kernel/ApplyGradientDescent"
      }
    }
  }
  attr {
    key: "_output_shapes"
    value {
      list {
        shape {
          dim {
            size: 1
          }
          dim {
            size: 1
          }
          dim {
            size: 64
          }
          dim {
            size: 64
          }
        }
      }
    }
  }
  attr {
    key: "container"
    value {
      s: ""
    }
  }
  attr {
    key: "dtype"
    value {
      type: DT_FLOAT
    }
  }
  attr {
    key: "shape"
    value {
      shape {
        dim {
          size: 1
        }
        dim {
          size: 1
        }
        dim {
          size: 64
        }
        dim {
          size: 64
        }
      }
    }
  }
  attr {
    key: "shared_name"
    value {
      s: ""
    }
  }
  experimental_debug_info {
    original_node_names: "conv2/conv2d/kernel"
  }
}
node {
  name: "conv2/batchnorm2/gamma"
  op: "VariableV2"
  device: "/job:localhost/replica:0/task:0/device:GPU:0"
  attr {
    key: "_class"
    value {
      list {
        s: "loc:@GradientDescent/update_conv2/batchnorm2/gamma/ApplyGradientDescent"
      }
    }
  }
  attr {
    key: "_output_shapes"
    value {
      list {
        shape {
          dim {
            size: 64
          }
        }
      }
    }
  }
  attr {
    key: "container"
    value {
      s: ""
    }
  }
  attr {
    key: "dtype"
    value {
      type: DT_FLOAT
    }
  }
  attr {
    key: "shape"
    value {
      shape {
        dim {
          size: 64
        }
      }
    }
  }
  attr {
    key: "shared_name"
    value {
      s: ""
    }
  }
  experimental_debug_info {
    original_node_names: "conv2/batchnorm2/gamma"
  }
}
node {
  name: "conv2/batchnorm2/beta"
  op: "VariableV2"
  device: "/job:localhost/replica:0/task:0/device:GPU:0"
  attr {
    key: "_class"
    value {
      list {
        s: "loc:@GradientDescent/update_conv2/batchnorm2/beta/ApplyGradientDescent"
      }
    }
  }
  attr {
    key: "_output_shapes"
    value {
      list {
        shape {
          dim {
            size: 64
          }
        }
      }
    }
  }
  attr {
    key: "container"
    value {
      s: ""
    }
  }
  attr {
    key: "dtype"
    value {
      type: DT_FLOAT
    }
  }
  attr {
    key: "shape"
    value {
      shape {
        dim {
          size: 64
        }
      }
    }
  }
  attr {
    key: "shared_name"
    value {
      s: ""
    }
  }
  experimental_debug_info {
    original_node_names: "conv2/batchnorm2/beta"
  }
}
node {
  name: "Pad_15-1-DataFormatVecPermuteNHWCToNCHW-LayoutOptimizer"
  op: "Const"
  device: "/job:localhost/replica:0/task:0/device:GPU:0"
  attr {
    key: "_output_shapes"
    value {
      list {
        shape {
          dim {
            size: 4
          }
          dim {
            size: 2
          }
        }
      }
    }
  }
  attr {
    key: "dtype"
    value {
      type: DT_INT32
    }
  }
  attr {
    key: "value"
    value {
      tensor {
        dtype: DT_INT32
        tensor_shape {
          dim {
            size: 4
          }
          dim {
            size: 2
          }
        }
        int_val: 0
        int_val: 0
        int_val: 0
        int_val: 0
        int_val: 1
      }
    }
  }
  experimental_debug_info {
    original_node_names: "Pad_15-1-DataFormatVecPermuteNHWCToNCHW-LayoutOptimizer"
  }
}
node {
  name: "conv3/conv2d/kernel"
  op: "VariableV2"
  device: "/job:localhost/replica:0/task:0/device:GPU:0"
  attr {
    key: "_class"
    value {
      list {
        s: "loc:@GradientDescent/update_conv3/conv2d/kernel/ApplyGradientDescent"
      }
    }
  }
  attr {
    key: "_output_shapes"
    value {
      list {
        shape {
          dim {
            size: 3
          }
          dim {
            size: 3
          }
          dim {
            size: 64
          }
          dim {
            size: 64
          }
        }
      }
    }
  }
  attr {
    key: "container"
    value {
      s: ""
    }
  }
  attr {
    key: "dtype"
    value {
      type: DT_FLOAT
    }
  }
  attr {
    key: "shape"
    value {
      shape {
        dim {
          size: 3
        }
        dim {
          size: 3
        }
        dim {
          size: 64
        }
        dim {
          size: 64
        }
      }
    }
  }
  attr {
    key: "shared_name"
    value {
      s: ""
    }
  }
  experimental_debug_info {
    original_node_names: "conv3/conv2d/kernel"
  }
}
node {
  name: "gradients/Pad_10_grad/Slice_1-2-DataFormatVecPermuteNHWCToNCHW-LayoutOptimizer"
  op: "Const"
  device: "/job:localhost/replica:0/task:0/device:GPU:0"
  attr {
    key: "_output_shapes"
    value {
      list {
        shape {
          dim {
            size: 4
          }
        }
      }
    }
  }
  attr {
    key: "dtype"
    value {
      type: DT_INT32
    }
  }
  attr {
    key: "value"
    value {
      tensor {
        dtype: DT_INT32
        tensor_shape {
          dim {
            size: 4
          }
        }
        tensor_content: " \000\000\000\000\001\000\000\016\000\000\000\016\000\000\000"
      }
    }
  }
  experimental_debug_info {
    original_node_names: "gradients/Pad_10_grad/Slice_1-2-DataFormatVecPermuteNHWCToNCHW-LayoutOptimizer"
  }
}
node {
  name: "conv3/batchnorm3/gamma"
  op: "VariableV2"
  device: "/job:localhost/replica:0/task:0/device:GPU:0"
  attr {
    key: "_class"
    value {
      list {
        s: "loc:@GradientDescent/update_conv3/batchnorm3/gamma/ApplyGradientDescent"
      }
    }
  }
  attr {
    key: "_output_shapes"
    value {
      list {
        shape {
          dim {
            size: 64
          }
        }
      }
    }
  }
  attr {
    key: "container"
    value {
      s: ""
    }
  }
  attr {
    key: "dtype"
    value {
      type: DT_FLOAT
    }
  }
  attr {
    key: "shape"
    value {
      shape {
        dim {
          size: 64
        }
      }
    }
  }
  attr {
    key: "shared_name"
    value {
      s: ""
    }
  }
  experimental_debug_info {
    original_node_names: "conv3/batchnorm3/gamma"
  }
}
node {
  name: "conv3/batchnorm3/beta"
  op: "VariableV2"
  device: "/job:localhost/replica:0/task:0/device:GPU:0"
  attr {
    key: "_class"
    value {
      list {
        s: "loc:@GradientDescent/update_conv3/batchnorm3/beta/ApplyGradientDescent"
      }
    }
  }
  attr {
    key: "_output_shapes"
    value {
      list {
        shape {
          dim {
            size: 64
          }
        }
      }
    }
  }
  attr {
    key: "container"
    value {
      s: ""
    }
  }
  attr {
    key: "dtype"
    value {
      type: DT_FLOAT
    }
  }
  attr {
    key: "shape"
    value {
      shape {
        dim {
          size: 64
        }
      }
    }
  }
  attr {
    key: "shared_name"
    value {
      s: ""
    }
  }
  experimental_debug_info {
    original_node_names: "conv3/batchnorm3/beta"
  }
}
node {
  name: "conv4/conv2d/kernel"
  op: "VariableV2"
  device: "/job:localhost/replica:0/task:0/device:GPU:0"
  attr {
    key: "_class"
    value {
      list {
        s: "loc:@GradientDescent/update_conv4/conv2d/kernel/ApplyGradientDescent"
      }
    }
  }
  attr {
    key: "_output_shapes"
    value {
      list {
        shape {
          dim {
            size: 1
          }
          dim {
            size: 1
          }
          dim {
            size: 64
          }
          dim {
            size: 256
          }
        }
      }
    }
  }
  attr {
    key: "container"
    value {
      s: ""
    }
  }
  attr {
    key: "dtype"
    value {
      type: DT_FLOAT
    }
  }
  attr {
    key: "shape"
    value {
      shape {
        dim {
          size: 1
        }
        dim {
          size: 1
        }
        dim {
          size: 64
        }
        dim {
          size: 256
        }
      }
    }
  }
  attr {
    key: "shared_name"
    value {
      s: ""
    }
  }
  experimental_debug_info {
    original_node_names: "conv4/conv2d/kernel"
  }
}
node {
  name: "conv4/batchnorm4/gamma"
  op: "VariableV2"
  device: "/job:localhost/replica:0/task:0/device:GPU:0"
  attr {
    key: "_class"
    value {
      list {
        s: "loc:@GradientDescent/update_conv4/batchnorm4/gamma/ApplyGradientDescent"
      }
    }
  }
  attr {
    key: "_output_shapes"
    value {
      list {
        shape {
          dim {
            size: 256
          }
        }
      }
    }
  }
  attr {
    key: "container"
    value {
      s: ""
    }
  }
  attr {
    key: "dtype"
    value {
      type: DT_FLOAT
    }
  }
  attr {
    key: "shape"
    value {
      shape {
        dim {
          size: 256
        }
      }
    }
  }
  attr {
    key: "shared_name"
    value {
      s: ""
    }
  }
  experimental_debug_info {
    original_node_names: "conv4/batchnorm4/gamma"
  }
}
node {
  name: "conv4/batchnorm4/beta"
  op: "VariableV2"
  device: "/job:localhost/replica:0/task:0/device:GPU:0"
  attr {
    key: "_class"
    value {
      list {
        s: "loc:@GradientDescent/update_conv4/batchnorm4/beta/ApplyGradientDescent"
      }
    }
  }
  attr {
    key: "_output_shapes"
    value {
      list {
        shape {
          dim {
            size: 256
          }
        }
      }
    }
  }
  attr {
    key: "container"
    value {
      s: ""
    }
  }
  attr {
    key: "dtype"
    value {
      type: DT_FLOAT
    }
  }
  attr {
    key: "shape"
    value {
      shape {
        dim {
          size: 256
        }
      }
    }
  }
  attr {
    key: "shared_name"
    value {
      s: ""
    }
  }
  experimental_debug_info {
    original_node_names: "conv4/batchnorm4/beta"
  }
}
node {
  name: "conv5/conv2d/kernel"
  op: "VariableV2"
  device: "/job:localhost/replica:0/task:0/device:GPU:0"
  attr {
    key: "_class"
    value {
      list {
        s: "loc:@GradientDescent/update_conv5/conv2d/kernel/ApplyGradientDescent"
      }
    }
  }
  attr {
    key: "_output_shapes"
    value {
      list {
        shape {
          dim {
            size: 1
          }
          dim {
            size: 1
          }
          dim {
            size: 256
          }
          dim {
            size: 64
          }
        }
      }
    }
  }
  attr {
    key: "container"
    value {
      s: ""
    }
  }
  attr {
    key: "dtype"
    value {
      type: DT_FLOAT
    }
  }
  attr {
    key: "shape"
    value {
      shape {
        dim {
          size: 1
        }
        dim {
          size: 1
        }
        dim {
          size: 256
        }
        dim {
          size: 64
        }
      }
    }
  }
  attr {
    key: "shared_name"
    value {
      s: ""
    }
  }
  experimental_debug_info {
    original_node_names: "conv5/conv2d/kernel"
  }
}
node {
  name: "conv5/batchnorm5/gamma"
  op: "VariableV2"
  device: "/job:localhost/replica:0/task:0/device:GPU:0"
  attr {
    key: "_class"
    value {
      list {
        s: "loc:@GradientDescent/update_conv5/batchnorm5/gamma/ApplyGradientDescent"
      }
    }
  }
  attr {
    key: "_output_shapes"
    value {
      list {
        shape {
          dim {
            size: 64
          }
        }
      }
    }
  }
  attr {
    key: "container"
    value {
      s: ""
    }
  }
  attr {
    key: "dtype"
    value {
      type: DT_FLOAT
    }
  }
  attr {
    key: "shape"
    value {
      shape {
        dim {
          size: 64
        }
      }
    }
  }
  attr {
    key: "shared_name"
    value {
      s: ""
    }
  }
  experimental_debug_info {
    original_node_names: "conv5/batchnorm5/gamma"
  }
}
node {
  name: "conv5/batchnorm5/beta"
  op: "VariableV2"
  device: "/job:localhost/replica:0/task:0/device:GPU:0"
  attr {
    key: "_class"
    value {
      list {
        s: "loc:@GradientDescent/update_conv5/batchnorm5/beta/ApplyGradientDescent"
      }
    }
  }
  attr {
    key: "_output_shapes"
    value {
      list {
        shape {
          dim {
            size: 64
          }
        }
      }
    }
  }
  attr {
    key: "container"
    value {
      s: ""
    }
  }
  attr {
    key: "dtype"
    value {
      type: DT_FLOAT
    }
  }
  attr {
    key: "shape"
    value {
      shape {
        dim {
          size: 64
        }
      }
    }
  }
  attr {
    key: "shared_name"
    value {
      s: ""
    }
  }
  experimental_debug_info {
    original_node_names: "conv5/batchnorm5/beta"
  }
}
node {
  name: "conv6/conv2d/kernel"
  op: "VariableV2"
  device: "/job:localhost/replica:0/task:0/device:GPU:0"
  attr {
    key: "_class"
    value {
      list {
        s: "loc:@GradientDescent/update_conv6/conv2d/kernel/ApplyGradientDescent"
      }
    }
  }
  attr {
    key: "_output_shapes"
    value {
      list {
        shape {
          dim {
            size: 3
          }
          dim {
            size: 3
          }
          dim {
            size: 64
          }
          dim {
            size: 64
          }
        }
      }
    }
  }
  attr {
    key: "container"
    value {
      s: ""
    }
  }
  attr {
    key: "dtype"
    value {
      type: DT_FLOAT
    }
  }
  attr {
    key: "shape"
    value {
      shape {
        dim {
          size: 3
        }
        dim {
          size: 3
        }
        dim {
          size: 64
        }
        dim {
          size: 64
        }
      }
    }
  }
  attr {
    key: "shared_name"
    value {
      s: ""
    }
  }
  experimental_debug_info {
    original_node_names: "conv6/conv2d/kernel"
  }
}
node {
  name: "conv6/batchnorm6/gamma"
  op: "VariableV2"
  device: "/job:localhost/replica:0/task:0/device:GPU:0"
  attr {
    key: "_class"
    value {
      list {
        s: "loc:@GradientDescent/update_conv6/batchnorm6/gamma/ApplyGradientDescent"
      }
    }
  }
  attr {
    key: "_output_shapes"
    value {
      list {
        shape {
          dim {
            size: 64
          }
        }
      }
    }
  }
  attr {
    key: "container"
    value {
      s: ""
    }
  }
  attr {
    key: "dtype"
    value {
      type: DT_FLOAT
    }
  }
  attr {
    key: "shape"
    value {
      shape {
        dim {
          size: 64
        }
      }
    }
  }
  attr {
    key: "shared_name"
    value {
      s: ""
    }
  }
  experimental_debug_info {
    original_node_names: "conv6/batchnorm6/gamma"
  }
}
node {
  name: "conv6/batchnorm6/beta"
  op: "VariableV2"
  device: "/job:localhost/replica:0/task:0/device:GPU:0"
  attr {
    key: "_class"
    value {
      list {
        s: "loc:@GradientDescent/update_conv6/batchnorm6/beta/ApplyGradientDescent"
      }
    }
  }
  attr {
    key: "_output_shapes"
    value {
      list {
        shape {
          dim {
            size: 64
          }
        }
      }
    }
  }
  attr {
    key: "container"
    value {
      s: ""
    }
  }
  attr {
    key: "dtype"
    value {
      type: DT_FLOAT
    }
  }
  attr {
    key: "shape"
    value {
      shape {
        dim {
          size: 64
        }
      }
    }
  }
  attr {
    key: "shared_name"
    value {
      s: ""
    }
  }
  experimental_debug_info {
    original_node_names: "conv6/batchnorm6/beta"
  }
}
node {
  name: "conv7/conv2d/kernel"
  op: "VariableV2"
  device: "/job:localhost/replica:0/task:0/device:GPU:0"
  attr {
    key: "_class"
    value {
      list {
        s: "loc:@GradientDescent/update_conv7/conv2d/kernel/ApplyGradientDescent"
      }
    }
  }
  attr {
    key: "_output_shapes"
    value {
      list {
        shape {
          dim {
            size: 1
          }
          dim {
            size: 1
          }
          dim {
            size: 64
          }
          dim {
            size: 256
          }
        }
      }
    }
  }
  attr {
    key: "container"
    value {
      s: ""
    }
  }
  attr {
    key: "dtype"
    value {
      type: DT_FLOAT
    }
  }
  attr {
    key: "shape"
    value {
      shape {
        dim {
          size: 1
        }
        dim {
          size: 1
        }
        dim {
          size: 64
        }
        dim {
          size: 256
        }
      }
    }
  }
  attr {
    key: "shared_name"
    value {
      s: ""
    }
  }
  experimental_debug_info {
    original_node_names: "conv7/conv2d/kernel"
  }
}
node {
  name: "conv7/batchnorm7/gamma"
  op: "VariableV2"
  device: "/job:localhost/replica:0/task:0/device:GPU:0"
  attr {
    key: "_class"
    value {
      list {
        s: "loc:@GradientDescent/update_conv7/batchnorm7/gamma/ApplyGradientDescent"
      }
    }
  }
  attr {
    key: "_output_shapes"
    value {
      list {
        shape {
          dim {
            size: 256
          }
        }
      }
    }
  }
  attr {
    key: "container"
    value {
      s: ""
    }
  }
  attr {
    key: "dtype"
    value {
      type: DT_FLOAT
    }
  }
  attr {
    key: "shape"
    value {
      shape {
        dim {
          size: 256
        }
      }
    }
  }
  attr {
    key: "shared_name"
    value {
      s: ""
    }
  }
  experimental_debug_info {
    original_node_names: "conv7/batchnorm7/gamma"
  }
}
node {
  name: "conv7/batchnorm7/beta"
  op: "VariableV2"
  device: "/job:localhost/replica:0/task:0/device:GPU:0"
  attr {
    key: "_class"
    value {
      list {
        s: "loc:@GradientDescent/update_conv7/batchnorm7/beta/ApplyGradientDescent"
      }
    }
  }
  attr {
    key: "_output_shapes"
    value {
      list {
        shape {
          dim {
            size: 256
          }
        }
      }
    }
  }
  attr {
    key: "container"
    value {
      s: ""
    }
  }
  attr {
    key: "dtype"
    value {
      type: DT_FLOAT
    }
  }
  attr {
    key: "shape"
    value {
      shape {
        dim {
          size: 256
        }
      }
    }
  }
  attr {
    key: "shared_name"
    value {
      s: ""
    }
  }
  experimental_debug_info {
    original_node_names: "conv7/batchnorm7/beta"
  }
}
node {
  name: "conv8/conv2d/kernel"
  op: "VariableV2"
  device: "/job:localhost/replica:0/task:0/device:GPU:0"
  attr {
    key: "_class"
    value {
      list {
        s: "loc:@GradientDescent/update_conv8/conv2d/kernel/ApplyGradientDescent"
      }
    }
  }
  attr {
    key: "_output_shapes"
    value {
      list {
        shape {
          dim {
            size: 1
          }
          dim {
            size: 1
          }
          dim {
            size: 256
          }
          dim {
            size: 64
          }
        }
      }
    }
  }
  attr {
    key: "container"
    value {
      s: ""
    }
  }
  attr {
    key: "dtype"
    value {
      type: DT_FLOAT
    }
  }
  attr {
    key: "shape"
    value {
      shape {
        dim {
          size: 1
        }
        dim {
          size: 1
        }
        dim {
          size: 256
        }
        dim {
          size: 64
        }
      }
    }
  }
  attr {
    key: "shared_name"
    value {
      s: ""
    }
  }
  experimental_debug_info {
    original_node_names: "conv8/conv2d/kernel"
  }
}
node {
  name: "conv8/batchnorm8/gamma"
  op: "VariableV2"
  device: "/job:localhost/replica:0/task:0/device:GPU:0"
  attr {
    key: "_class"
    value {
      list {
        s: "loc:@GradientDescent/update_conv8/batchnorm8/gamma/ApplyGradientDescent"
      }
    }
  }
  attr {
    key: "_output_shapes"
    value {
      list {
        shape {
          dim {
            size: 64
          }
        }
      }
    }
  }
  attr {
    key: "container"
    value {
      s: ""
    }
  }
  attr {
    key: "dtype"
    value {
      type: DT_FLOAT
    }
  }
  attr {
    key: "shape"
    value {
      shape {
        dim {
          size: 64
        }
      }
    }
  }
  attr {
    key: "shared_name"
    value {
      s: ""
    }
  }
  experimental_debug_info {
    original_node_names: "conv8/batchnorm8/gamma"
  }
}
node {
  name: "conv8/batchnorm8/beta"
  op: "VariableV2"
  device: "/job:localhost/replica:0/task:0/device:GPU:0"
  attr {
    key: "_class"
    value {
      list {
        s: "loc:@GradientDescent/update_conv8/batchnorm8/beta/ApplyGradientDescent"
      }
    }
  }
  attr {
    key: "_output_shapes"
    value {
      list {
        shape {
          dim {
            size: 64
          }
        }
      }
    }
  }
  attr {
    key: "container"
    value {
      s: ""
    }
  }
  attr {
    key: "dtype"
    value {
      type: DT_FLOAT
    }
  }
  attr {
    key: "shape"
    value {
      shape {
        dim {
          size: 64
        }
      }
    }
  }
  attr {
    key: "shared_name"
    value {
      s: ""
    }
  }
  experimental_debug_info {
    original_node_names: "conv8/batchnorm8/beta"
  }
}
node {
  name: "conv9/conv2d/kernel"
  op: "VariableV2"
  device: "/job:localhost/replica:0/task:0/device:GPU:0"
  attr {
    key: "_class"
    value {
      list {
        s: "loc:@GradientDescent/update_conv9/conv2d/kernel/ApplyGradientDescent"
      }
    }
  }
  attr {
    key: "_output_shapes"
    value {
      list {
        shape {
          dim {
            size: 3
          }
          dim {
            size: 3
          }
          dim {
            size: 64
          }
          dim {
            size: 64
          }
        }
      }
    }
  }
  attr {
    key: "container"
    value {
      s: ""
    }
  }
  attr {
    key: "dtype"
    value {
      type: DT_FLOAT
    }
  }
  attr {
    key: "shape"
    value {
      shape {
        dim {
          size: 3
        }
        dim {
          size: 3
        }
        dim {
          size: 64
        }
        dim {
          size: 64
        }
      }
    }
  }
  attr {
    key: "shared_name"
    value {
      s: ""
    }
  }
  experimental_debug_info {
    original_node_names: "conv9/conv2d/kernel"
  }
}
node {
  name: "conv9/batchnorm9/gamma"
  op: "VariableV2"
  device: "/job:localhost/replica:0/task:0/device:GPU:0"
  attr {
    key: "_class"
    value {
      list {
        s: "loc:@GradientDescent/update_conv9/batchnorm9/gamma/ApplyGradientDescent"
      }
    }
  }
  attr {
    key: "_output_shapes"
    value {
      list {
        shape {
          dim {
            size: 64
          }
        }
      }
    }
  }
  attr {
    key: "container"
    value {
      s: ""
    }
  }
  attr {
    key: "dtype"
    value {
      type: DT_FLOAT
    }
  }
  attr {
    key: "shape"
    value {
      shape {
        dim {
          size: 64
        }
      }
    }
  }
  attr {
    key: "shared_name"
    value {
      s: ""
    }
  }
  experimental_debug_info {
    original_node_names: "conv9/batchnorm9/gamma"
  }
}
node {
  name: "conv9/batchnorm9/beta"
  op: "VariableV2"
  device: "/job:localhost/replica:0/task:0/device:GPU:0"
  attr {
    key: "_class"
    value {
      list {
        s: "loc:@GradientDescent/update_conv9/batchnorm9/beta/ApplyGradientDescent"
      }
    }
  }
  attr {
    key: "_output_shapes"
    value {
      list {
        shape {
          dim {
            size: 64
          }
        }
      }
    }
  }
  attr {
    key: "container"
    value {
      s: ""
    }
  }
  attr {
    key: "dtype"
    value {
      type: DT_FLOAT
    }
  }
  attr {
    key: "shape"
    value {
      shape {
        dim {
          size: 64
        }
      }
    }
  }
  attr {
    key: "shared_name"
    value {
      s: ""
    }
  }
  experimental_debug_info {
    original_node_names: "conv9/batchnorm9/beta"
  }
}
node {
  name: "conv10/conv2d/kernel"
  op: "VariableV2"
  device: "/job:localhost/replica:0/task:0/device:GPU:0"
  attr {
    key: "_class"
    value {
      list {
        s: "loc:@GradientDescent/update_conv10/conv2d/kernel/ApplyGradientDescent"
      }
    }
  }
  attr {
    key: "_output_shapes"
    value {
      list {
        shape {
          dim {
            size: 1
          }
          dim {
            size: 1
          }
          dim {
            size: 64
          }
          dim {
            size: 256
          }
        }
      }
    }
  }
  attr {
    key: "container"
    value {
      s: ""
    }
  }
  attr {
    key: "dtype"
    value {
      type: DT_FLOAT
    }
  }
  attr {
    key: "shape"
    value {
      shape {
        dim {
          size: 1
        }
        dim {
          size: 1
        }
        dim {
          size: 64
        }
        dim {
          size: 256
        }
      }
    }
  }
  attr {
    key: "shared_name"
    value {
      s: ""
    }
  }
  experimental_debug_info {
    original_node_names: "conv10/conv2d/kernel"
  }
}
node {
  name: "conv10/batchnorm10/gamma"
  op: "VariableV2"
  device: "/job:localhost/replica:0/task:0/device:GPU:0"
  attr {
    key: "_class"
    value {
      list {
        s: "loc:@GradientDescent/update_conv10/batchnorm10/gamma/ApplyGradientDescent"
      }
    }
  }
  attr {
    key: "_output_shapes"
    value {
      list {
        shape {
          dim {
            size: 256
          }
        }
      }
    }
  }
  attr {
    key: "container"
    value {
      s: ""
    }
  }
  attr {
    key: "dtype"
    value {
      type: DT_FLOAT
    }
  }
  attr {
    key: "shape"
    value {
      shape {
        dim {
          size: 256
        }
      }
    }
  }
  attr {
    key: "shared_name"
    value {
      s: ""
    }
  }
  experimental_debug_info {
    original_node_names: "conv10/batchnorm10/gamma"
  }
}
node {
  name: "conv10/batchnorm10/beta"
  op: "VariableV2"
  device: "/job:localhost/replica:0/task:0/device:GPU:0"
  attr {
    key: "_class"
    value {
      list {
        s: "loc:@GradientDescent/update_conv10/batchnorm10/beta/ApplyGradientDescent"
      }
    }
  }
  attr {
    key: "_output_shapes"
    value {
      list {
        shape {
          dim {
            size: 256
          }
        }
      }
    }
  }
  attr {
    key: "container"
    value {
      s: ""
    }
  }
  attr {
    key: "dtype"
    value {
      type: DT_FLOAT
    }
  }
  attr {
    key: "shape"
    value {
      shape {
        dim {
          size: 256
        }
      }
    }
  }
  attr {
    key: "shared_name"
    value {
      s: ""
    }
  }
  experimental_debug_info {
    original_node_names: "conv10/batchnorm10/beta"
  }
}
node {
  name: "conv11/conv2d/kernel"
  op: "VariableV2"
  device: "/job:localhost/replica:0/task:0/device:GPU:0"
  attr {
    key: "_class"
    value {
      list {
        s: "loc:@GradientDescent/update_conv11/conv2d/kernel/ApplyGradientDescent"
      }
    }
  }
  attr {
    key: "_output_shapes"
    value {
      list {
        shape {
          dim {
            size: 1
          }
          dim {
            size: 1
          }
          dim {
            size: 256
          }
          dim {
            size: 512
          }
        }
      }
    }
  }
  attr {
    key: "container"
    value {
      s: ""
    }
  }
  attr {
    key: "dtype"
    value {
      type: DT_FLOAT
    }
  }
  attr {
    key: "shape"
    value {
      shape {
        dim {
          size: 1
        }
        dim {
          size: 1
        }
        dim {
          size: 256
        }
        dim {
          size: 512
        }
      }
    }
  }
  attr {
    key: "shared_name"
    value {
      s: ""
    }
  }
  experimental_debug_info {
    original_node_names: "conv11/conv2d/kernel"
  }
}
node {
  name: "conv11/batchnorm11/gamma"
  op: "VariableV2"
  device: "/job:localhost/replica:0/task:0/device:GPU:0"
  attr {
    key: "_class"
    value {
      list {
        s: "loc:@GradientDescent/update_conv11/batchnorm11/gamma/ApplyGradientDescent"
      }
    }
  }
  attr {
    key: "_output_shapes"
    value {
      list {
        shape {
          dim {
            size: 512
          }
        }
      }
    }
  }
  attr {
    key: "container"
    value {
      s: ""
    }
  }
  attr {
    key: "dtype"
    value {
      type: DT_FLOAT
    }
  }
  attr {
    key: "shape"
    value {
      shape {
        dim {
          size: 512
        }
      }
    }
  }
  attr {
    key: "shared_name"
    value {
      s: ""
    }
  }
  experimental_debug_info {
    original_node_names: "conv11/batchnorm11/gamma"
  }
}
node {
  name: "conv11/batchnorm11/beta"
  op: "VariableV2"
  device: "/job:localhost/replica:0/task:0/device:GPU:0"
  attr {
    key: "_class"
    value {
      list {
        s: "loc:@GradientDescent/update_conv11/batchnorm11/beta/ApplyGradientDescent"
      }
    }
  }
  attr {
    key: "_output_shapes"
    value {
      list {
        shape {
          dim {
            size: 512
          }
        }
      }
    }
  }
  attr {
    key: "container"
    value {
      s: ""
    }
  }
  attr {
    key: "dtype"
    value {
      type: DT_FLOAT
    }
  }
  attr {
    key: "shape"
    value {
      shape {
        dim {
          size: 512
        }
      }
    }
  }
  attr {
    key: "shared_name"
    value {
      s: ""
    }
  }
  experimental_debug_info {
    original_node_names: "conv11/batchnorm11/beta"
  }
}
node {
  name: "conv12/conv2d/kernel"
  op: "VariableV2"
  device: "/job:localhost/replica:0/task:0/device:GPU:0"
  attr {
    key: "_class"
    value {
      list {
        s: "loc:@GradientDescent/update_conv12/conv2d/kernel/ApplyGradientDescent"
      }
    }
  }
  attr {
    key: "_output_shapes"
    value {
      list {
        shape {
          dim {
            size: 1
          }
          dim {
            size: 1
          }
          dim {
            size: 256
          }
          dim {
            size: 128
          }
        }
      }
    }
  }
  attr {
    key: "container"
    value {
      s: ""
    }
  }
  attr {
    key: "dtype"
    value {
      type: DT_FLOAT
    }
  }
  attr {
    key: "shape"
    value {
      shape {
        dim {
          size: 1
        }
        dim {
          size: 1
        }
        dim {
          size: 256
        }
        dim {
          size: 128
        }
      }
    }
  }
  attr {
    key: "shared_name"
    value {
      s: ""
    }
  }
  experimental_debug_info {
    original_node_names: "conv12/conv2d/kernel"
  }
}
node {
  name: "conv12/batchnorm12/gamma"
  op: "VariableV2"
  device: "/job:localhost/replica:0/task:0/device:GPU:0"
  attr {
    key: "_class"
    value {
      list {
        s: "loc:@GradientDescent/update_conv12/batchnorm12/gamma/ApplyGradientDescent"
      }
    }
  }
  attr {
    key: "_output_shapes"
    value {
      list {
        shape {
          dim {
            size: 128
          }
        }
      }
    }
  }
  attr {
    key: "container"
    value {
      s: ""
    }
  }
  attr {
    key: "dtype"
    value {
      type: DT_FLOAT
    }
  }
  attr {
    key: "shape"
    value {
      shape {
        dim {
          size: 128
        }
      }
    }
  }
  attr {
    key: "shared_name"
    value {
      s: ""
    }
  }
  experimental_debug_info {
    original_node_names: "conv12/batchnorm12/gamma"
  }
}
node {
  name: "conv12/batchnorm12/beta"
  op: "VariableV2"
  device: "/job:localhost/replica:0/task:0/device:GPU:0"
  attr {
    key: "_class"
    value {
      list {
        s: "loc:@GradientDescent/update_conv12/batchnorm12/beta/ApplyGradientDescent"
      }
    }
  }
  attr {
    key: "_output_shapes"
    value {
      list {
        shape {
          dim {
            size: 128
          }
        }
      }
    }
  }
  attr {
    key: "container"
    value {
      s: ""
    }
  }
  attr {
    key: "dtype"
    value {
      type: DT_FLOAT
    }
  }
  attr {
    key: "shape"
    value {
      shape {
        dim {
          size: 128
        }
      }
    }
  }
  attr {
    key: "shared_name"
    value {
      s: ""
    }
  }
  experimental_debug_info {
    original_node_names: "conv12/batchnorm12/beta"
  }
}
node {
  name: "conv13/conv2d/kernel"
  op: "VariableV2"
  device: "/job:localhost/replica:0/task:0/device:GPU:0"
  attr {
    key: "_class"
    value {
      list {
        s: "loc:@GradientDescent/update_conv13/conv2d/kernel/ApplyGradientDescent"
      }
    }
  }
  attr {
    key: "_output_shapes"
    value {
      list {
        shape {
          dim {
            size: 3
          }
          dim {
            size: 3
          }
          dim {
            size: 128
          }
          dim {
            size: 128
          }
        }
      }
    }
  }
  attr {
    key: "container"
    value {
      s: ""
    }
  }
  attr {
    key: "dtype"
    value {
      type: DT_FLOAT
    }
  }
  attr {
    key: "shape"
    value {
      shape {
        dim {
          size: 3
        }
        dim {
          size: 3
        }
        dim {
          size: 128
        }
        dim {
          size: 128
        }
      }
    }
  }
  attr {
    key: "shared_name"
    value {
      s: ""
    }
  }
  experimental_debug_info {
    original_node_names: "conv13/conv2d/kernel"
  }
}
node {
  name: "conv13/batchnorm13/gamma"
  op: "VariableV2"
  device: "/job:localhost/replica:0/task:0/device:GPU:0"
  attr {
    key: "_class"
    value {
      list {
        s: "loc:@GradientDescent/update_conv13/batchnorm13/gamma/ApplyGradientDescent"
      }
    }
  }
  attr {
    key: "_output_shapes"
    value {
      list {
        shape {
          dim {
            size: 128
          }
        }
      }
    }
  }
  attr {
    key: "container"
    value {
      s: ""
    }
  }
  attr {
    key: "dtype"
    value {
      type: DT_FLOAT
    }
  }
  attr {
    key: "shape"
    value {
      shape {
        dim {
          size: 128
        }
      }
    }
  }
  attr {
    key: "shared_name"
    value {
      s: ""
    }
  }
  experimental_debug_info {
    original_node_names: "conv13/batchnorm13/gamma"
  }
}
node {
  name: "conv13/batchnorm13/beta"
  op: "VariableV2"
  device: "/job:localhost/replica:0/task:0/device:GPU:0"
  attr {
    key: "_class"
    value {
      list {
        s: "loc:@GradientDescent/update_conv13/batchnorm13/beta/ApplyGradientDescent"
      }
    }
  }
  attr {
    key: "_output_shapes"
    value {
      list {
        shape {
          dim {
            size: 128
          }
        }
      }
    }
  }
  attr {
    key: "container"
    value {
      s: ""
    }
  }
  attr {
    key: "dtype"
    value {
      type: DT_FLOAT
    }
  }
  attr {
    key: "shape"
    value {
      shape {
        dim {
          size: 128
        }
      }
    }
  }
  attr {
    key: "shared_name"
    value {
      s: ""
    }
  }
  experimental_debug_info {
    original_node_names: "conv13/batchnorm13/beta"
  }
}
node {
  name: "conv14/conv2d/kernel"
  op: "VariableV2"
  device: "/job:localhost/replica:0/task:0/device:GPU:0"
  attr {
    key: "_class"
    value {
      list {
        s: "loc:@GradientDescent/update_conv14/conv2d/kernel/ApplyGradientDescent"
      }
    }
  }
  attr {
    key: "_output_shapes"
    value {
      list {
        shape {
          dim {
            size: 1
          }
          dim {
            size: 1
          }
          dim {
            size: 128
          }
          dim {
            size: 512
          }
        }
      }
    }
  }
  attr {
    key: "container"
    value {
      s: ""
    }
  }
  attr {
    key: "dtype"
    value {
      type: DT_FLOAT
    }
  }
  attr {
    key: "shape"
    value {
      shape {
        dim {
          size: 1
        }
        dim {
          size: 1
        }
        dim {
          size: 128
        }
        dim {
          size: 512
        }
      }
    }
  }
  attr {
    key: "shared_name"
    value {
      s: ""
    }
  }
  experimental_debug_info {
    original_node_names: "conv14/conv2d/kernel"
  }
}
node {
  name: "conv14/batchnorm14/gamma"
  op: "VariableV2"
  device: "/job:localhost/replica:0/task:0/device:GPU:0"
  attr {
    key: "_class"
    value {
      list {
        s: "loc:@GradientDescent/update_conv14/batchnorm14/gamma/ApplyGradientDescent"
      }
    }
  }
  attr {
    key: "_output_shapes"
    value {
      list {
        shape {
          dim {
            size: 512
          }
        }
      }
    }
  }
  attr {
    key: "container"
    value {
      s: ""
    }
  }
  attr {
    key: "dtype"
    value {
      type: DT_FLOAT
    }
  }
  attr {
    key: "shape"
    value {
      shape {
        dim {
          size: 512
        }
      }
    }
  }
  attr {
    key: "shared_name"
    value {
      s: ""
    }
  }
  experimental_debug_info {
    original_node_names: "conv14/batchnorm14/gamma"
  }
}
node {
  name: "conv14/batchnorm14/beta"
  op: "VariableV2"
  device: "/job:localhost/replica:0/task:0/device:GPU:0"
  attr {
    key: "_class"
    value {
      list {
        s: "loc:@GradientDescent/update_conv14/batchnorm14/beta/ApplyGradientDescent"
      }
    }
  }
  attr {
    key: "_output_shapes"
    value {
      list {
        shape {
          dim {
            size: 512
          }
        }
      }
    }
  }
  attr {
    key: "container"
    value {
      s: ""
    }
  }
  attr {
    key: "dtype"
    value {
      type: DT_FLOAT
    }
  }
  attr {
    key: "shape"
    value {
      shape {
        dim {
          size: 512
        }
      }
    }
  }
  attr {
    key: "shared_name"
    value {
      s: ""
    }
  }
  experimental_debug_info {
    original_node_names: "conv14/batchnorm14/beta"
  }
}
node {
  name: "gradients/Pad_8_grad/Slice_1-2-DataFormatVecPermuteNHWCToNCHW-LayoutOptimizer"
  op: "Const"
  device: "/job:localhost/replica:0/task:0/device:GPU:0"
  attr {
    key: "_output_shapes"
    value {
      list {
        shape {
          dim {
            size: 4
          }
        }
      }
    }
  }
  attr {
    key: "dtype"
    value {
      type: DT_INT32
    }
  }
  attr {
    key: "value"
    value {
      tensor {
        dtype: DT_INT32
        tensor_shape {
          dim {
            size: 4
          }
        }
        tensor_content: " \000\000\000\000\001\000\000\034\000\000\000\034\000\000\000"
      }
    }
  }
  experimental_debug_info {
    original_node_names: "gradients/Pad_8_grad/Slice_1-2-DataFormatVecPermuteNHWCToNCHW-LayoutOptimizer"
  }
}
node {
  name: "conv15/conv2d/kernel"
  op: "VariableV2"
  device: "/job:localhost/replica:0/task:0/device:GPU:0"
  attr {
    key: "_class"
    value {
      list {
        s: "loc:@GradientDescent/update_conv15/conv2d/kernel/ApplyGradientDescent"
      }
    }
  }
  attr {
    key: "_output_shapes"
    value {
      list {
        shape {
          dim {
            size: 1
          }
          dim {
            size: 1
          }
          dim {
            size: 512
          }
          dim {
            size: 128
          }
        }
      }
    }
  }
  attr {
    key: "container"
    value {
      s: ""
    }
  }
  attr {
    key: "dtype"
    value {
      type: DT_FLOAT
    }
  }
  attr {
    key: "shape"
    value {
      shape {
        dim {
          size: 1
        }
        dim {
          size: 1
        }
        dim {
          size: 512
        }
        dim {
          size: 128
        }
      }
    }
  }
  attr {
    key: "shared_name"
    value {
      s: ""
    }
  }
  experimental_debug_info {
    original_node_names: "conv15/conv2d/kernel"
  }
}
node {
  name: "conv15/batchnorm15/gamma"
  op: "VariableV2"
  device: "/job:localhost/replica:0/task:0/device:GPU:0"
  attr {
    key: "_class"
    value {
      list {
        s: "loc:@GradientDescent/update_conv15/batchnorm15/gamma/ApplyGradientDescent"
      }
    }
  }
  attr {
    key: "_output_shapes"
    value {
      list {
        shape {
          dim {
            size: 128
          }
        }
      }
    }
  }
  attr {
    key: "container"
    value {
      s: ""
    }
  }
  attr {
    key: "dtype"
    value {
      type: DT_FLOAT
    }
  }
  attr {
    key: "shape"
    value {
      shape {
        dim {
          size: 128
        }
      }
    }
  }
  attr {
    key: "shared_name"
    value {
      s: ""
    }
  }
  experimental_debug_info {
    original_node_names: "conv15/batchnorm15/gamma"
  }
}
node {
  name: "conv15/batchnorm15/beta"
  op: "VariableV2"
  device: "/job:localhost/replica:0/task:0/device:GPU:0"
  attr {
    key: "_class"
    value {
      list {
        s: "loc:@GradientDescent/update_conv15/batchnorm15/beta/ApplyGradientDescent"
      }
    }
  }
  attr {
    key: "_output_shapes"
    value {
      list {
        shape {
          dim {
            size: 128
          }
        }
      }
    }
  }
  attr {
    key: "container"
    value {
      s: ""
    }
  }
  attr {
    key: "dtype"
    value {
      type: DT_FLOAT
    }
  }
  attr {
    key: "shape"
    value {
      shape {
        dim {
          size: 128
        }
      }
    }
  }
  attr {
    key: "shared_name"
    value {
      s: ""
    }
  }
  experimental_debug_info {
    original_node_names: "conv15/batchnorm15/beta"
  }
}
node {
  name: "conv16/conv2d/kernel"
  op: "VariableV2"
  device: "/job:localhost/replica:0/task:0/device:GPU:0"
  attr {
    key: "_class"
    value {
      list {
        s: "loc:@GradientDescent/update_conv16/conv2d/kernel/ApplyGradientDescent"
      }
    }
  }
  attr {
    key: "_output_shapes"
    value {
      list {
        shape {
          dim {
            size: 3
          }
          dim {
            size: 3
          }
          dim {
            size: 128
          }
          dim {
            size: 128
          }
        }
      }
    }
  }
  attr {
    key: "container"
    value {
      s: ""
    }
  }
  attr {
    key: "dtype"
    value {
      type: DT_FLOAT
    }
  }
  attr {
    key: "shape"
    value {
      shape {
        dim {
          size: 3
        }
        dim {
          size: 3
        }
        dim {
          size: 128
        }
        dim {
          size: 128
        }
      }
    }
  }
  attr {
    key: "shared_name"
    value {
      s: ""
    }
  }
  experimental_debug_info {
    original_node_names: "conv16/conv2d/kernel"
  }
}
node {
  name: "conv16/batchnorm16/gamma"
  op: "VariableV2"
  device: "/job:localhost/replica:0/task:0/device:GPU:0"
  attr {
    key: "_class"
    value {
      list {
        s: "loc:@GradientDescent/update_conv16/batchnorm16/gamma/ApplyGradientDescent"
      }
    }
  }
  attr {
    key: "_output_shapes"
    value {
      list {
        shape {
          dim {
            size: 128
          }
        }
      }
    }
  }
  attr {
    key: "container"
    value {
      s: ""
    }
  }
  attr {
    key: "dtype"
    value {
      type: DT_FLOAT
    }
  }
  attr {
    key: "shape"
    value {
      shape {
        dim {
          size: 128
        }
      }
    }
  }
  attr {
    key: "shared_name"
    value {
      s: ""
    }
  }
  experimental_debug_info {
    original_node_names: "conv16/batchnorm16/gamma"
  }
}
node {
  name: "conv16/batchnorm16/beta"
  op: "VariableV2"
  device: "/job:localhost/replica:0/task:0/device:GPU:0"
  attr {
    key: "_class"
    value {
      list {
        s: "loc:@GradientDescent/update_conv16/batchnorm16/beta/ApplyGradientDescent"
      }
    }
  }
  attr {
    key: "_output_shapes"
    value {
      list {
        shape {
          dim {
            size: 128
          }
        }
      }
    }
  }
  attr {
    key: "container"
    value {
      s: ""
    }
  }
  attr {
    key: "dtype"
    value {
      type: DT_FLOAT
    }
  }
  attr {
    key: "shape"
    value {
      shape {
        dim {
          size: 128
        }
      }
    }
  }
  attr {
    key: "shared_name"
    value {
      s: ""
    }
  }
  experimental_debug_info {
    original_node_names: "conv16/batchnorm16/beta"
  }
}
node {
  name: "gradients/Pad_6_grad/Slice_1-2-DataFormatVecPermuteNHWCToNCHW-LayoutOptimizer"
  op: "Const"
  device: "/job:localhost/replica:0/task:0/device:GPU:0"
  attr {
    key: "_output_shapes"
    value {
      list {
        shape {
          dim {
            size: 4
          }
        }
      }
    }
  }
  attr {
    key: "dtype"
    value {
      type: DT_INT32
    }
  }
  attr {
    key: "value"
    value {
      tensor {
        dtype: DT_INT32
        tensor_shape {
          dim {
            size: 4
          }
        }
        tensor_content: " \000\000\000\200\000\000\000\034\000\000\000\034\000\000\000"
      }
    }
  }
  experimental_debug_info {
    original_node_names: "gradients/Pad_6_grad/Slice_1-2-DataFormatVecPermuteNHWCToNCHW-LayoutOptimizer"
  }
}
node {
  name: "conv17/conv2d/kernel"
  op: "VariableV2"
  device: "/job:localhost/replica:0/task:0/device:GPU:0"
  attr {
    key: "_class"
    value {
      list {
        s: "loc:@GradientDescent/update_conv17/conv2d/kernel/ApplyGradientDescent"
      }
    }
  }
  attr {
    key: "_output_shapes"
    value {
      list {
        shape {
          dim {
            size: 1
          }
          dim {
            size: 1
          }
          dim {
            size: 128
          }
          dim {
            size: 512
          }
        }
      }
    }
  }
  attr {
    key: "container"
    value {
      s: ""
    }
  }
  attr {
    key: "dtype"
    value {
      type: DT_FLOAT
    }
  }
  attr {
    key: "shape"
    value {
      shape {
        dim {
          size: 1
        }
        dim {
          size: 1
        }
        dim {
          size: 128
        }
        dim {
          size: 512
        }
      }
    }
  }
  attr {
    key: "shared_name"
    value {
      s: ""
    }
  }
  experimental_debug_info {
    original_node_names: "conv17/conv2d/kernel"
  }
}
node {
  name: "conv17/batchnorm17/gamma"
  op: "VariableV2"
  device: "/job:localhost/replica:0/task:0/device:GPU:0"
  attr {
    key: "_class"
    value {
      list {
        s: "loc:@GradientDescent/update_conv17/batchnorm17/gamma/ApplyGradientDescent"
      }
    }
  }
  attr {
    key: "_output_shapes"
    value {
      list {
        shape {
          dim {
            size: 512
          }
        }
      }
    }
  }
  attr {
    key: "container"
    value {
      s: ""
    }
  }
  attr {
    key: "dtype"
    value {
      type: DT_FLOAT
    }
  }
  attr {
    key: "shape"
    value {
      shape {
        dim {
          size: 512
        }
      }
    }
  }
  attr {
    key: "shared_name"
    value {
      s: ""
    }
  }
  experimental_debug_info {
    original_node_names: "conv17/batchnorm17/gamma"
  }
}
node {
  name: "conv17/batchnorm17/beta"
  op: "VariableV2"
  device: "/job:localhost/replica:0/task:0/device:GPU:0"
  attr {
    key: "_class"
    value {
      list {
        s: "loc:@GradientDescent/update_conv17/batchnorm17/beta/ApplyGradientDescent"
      }
    }
  }
  attr {
    key: "_output_shapes"
    value {
      list {
        shape {
          dim {
            size: 512
          }
        }
      }
    }
  }
  attr {
    key: "container"
    value {
      s: ""
    }
  }
  attr {
    key: "dtype"
    value {
      type: DT_FLOAT
    }
  }
  attr {
    key: "shape"
    value {
      shape {
        dim {
          size: 512
        }
      }
    }
  }
  attr {
    key: "shared_name"
    value {
      s: ""
    }
  }
  experimental_debug_info {
    original_node_names: "conv17/batchnorm17/beta"
  }
}
node {
  name: "conv18/conv2d/kernel"
  op: "VariableV2"
  device: "/job:localhost/replica:0/task:0/device:GPU:0"
  attr {
    key: "_class"
    value {
      list {
        s: "loc:@GradientDescent/update_conv18/conv2d/kernel/ApplyGradientDescent"
      }
    }
  }
  attr {
    key: "_output_shapes"
    value {
      list {
        shape {
          dim {
            size: 1
          }
          dim {
            size: 1
          }
          dim {
            size: 512
          }
          dim {
            size: 128
          }
        }
      }
    }
  }
  attr {
    key: "container"
    value {
      s: ""
    }
  }
  attr {
    key: "dtype"
    value {
      type: DT_FLOAT
    }
  }
  attr {
    key: "shape"
    value {
      shape {
        dim {
          size: 1
        }
        dim {
          size: 1
        }
        dim {
          size: 512
        }
        dim {
          size: 128
        }
      }
    }
  }
  attr {
    key: "shared_name"
    value {
      s: ""
    }
  }
  experimental_debug_info {
    original_node_names: "conv18/conv2d/kernel"
  }
}
node {
  name: "conv18/batchnorm18/gamma"
  op: "VariableV2"
  device: "/job:localhost/replica:0/task:0/device:GPU:0"
  attr {
    key: "_class"
    value {
      list {
        s: "loc:@GradientDescent/update_conv18/batchnorm18/gamma/ApplyGradientDescent"
      }
    }
  }
  attr {
    key: "_output_shapes"
    value {
      list {
        shape {
          dim {
            size: 128
          }
        }
      }
    }
  }
  attr {
    key: "container"
    value {
      s: ""
    }
  }
  attr {
    key: "dtype"
    value {
      type: DT_FLOAT
    }
  }
  attr {
    key: "shape"
    value {
      shape {
        dim {
          size: 128
        }
      }
    }
  }
  attr {
    key: "shared_name"
    value {
      s: ""
    }
  }
  experimental_debug_info {
    original_node_names: "conv18/batchnorm18/gamma"
  }
}
node {
  name: "conv18/batchnorm18/beta"
  op: "VariableV2"
  device: "/job:localhost/replica:0/task:0/device:GPU:0"
  attr {
    key: "_class"
    value {
      list {
        s: "loc:@GradientDescent/update_conv18/batchnorm18/beta/ApplyGradientDescent"
      }
    }
  }
  attr {
    key: "_output_shapes"
    value {
      list {
        shape {
          dim {
            size: 128
          }
        }
      }
    }
  }
  attr {
    key: "container"
    value {
      s: ""
    }
  }
  attr {
    key: "dtype"
    value {
      type: DT_FLOAT
    }
  }
  attr {
    key: "shape"
    value {
      shape {
        dim {
          size: 128
        }
      }
    }
  }
  attr {
    key: "shared_name"
    value {
      s: ""
    }
  }
  experimental_debug_info {
    original_node_names: "conv18/batchnorm18/beta"
  }
}
node {
  name: "conv19/conv2d/kernel"
  op: "VariableV2"
  device: "/job:localhost/replica:0/task:0/device:GPU:0"
  attr {
    key: "_class"
    value {
      list {
        s: "loc:@GradientDescent/update_conv19/conv2d/kernel/ApplyGradientDescent"
      }
    }
  }
  attr {
    key: "_output_shapes"
    value {
      list {
        shape {
          dim {
            size: 3
          }
          dim {
            size: 3
          }
          dim {
            size: 128
          }
          dim {
            size: 128
          }
        }
      }
    }
  }
  attr {
    key: "container"
    value {
      s: ""
    }
  }
  attr {
    key: "dtype"
    value {
      type: DT_FLOAT
    }
  }
  attr {
    key: "shape"
    value {
      shape {
        dim {
          size: 3
        }
        dim {
          size: 3
        }
        dim {
          size: 128
        }
        dim {
          size: 128
        }
      }
    }
  }
  attr {
    key: "shared_name"
    value {
      s: ""
    }
  }
  experimental_debug_info {
    original_node_names: "conv19/conv2d/kernel"
  }
}
node {
  name: "conv19/batchnorm19/gamma"
  op: "VariableV2"
  device: "/job:localhost/replica:0/task:0/device:GPU:0"
  attr {
    key: "_class"
    value {
      list {
        s: "loc:@GradientDescent/update_conv19/batchnorm19/gamma/ApplyGradientDescent"
      }
    }
  }
  attr {
    key: "_output_shapes"
    value {
      list {
        shape {
          dim {
            size: 128
          }
        }
      }
    }
  }
  attr {
    key: "container"
    value {
      s: ""
    }
  }
  attr {
    key: "dtype"
    value {
      type: DT_FLOAT
    }
  }
  attr {
    key: "shape"
    value {
      shape {
        dim {
          size: 128
        }
      }
    }
  }
  attr {
    key: "shared_name"
    value {
      s: ""
    }
  }
  experimental_debug_info {
    original_node_names: "conv19/batchnorm19/gamma"
  }
}
node {
  name: "conv19/batchnorm19/beta"
  op: "VariableV2"
  device: "/job:localhost/replica:0/task:0/device:GPU:0"
  attr {
    key: "_class"
    value {
      list {
        s: "loc:@GradientDescent/update_conv19/batchnorm19/beta/ApplyGradientDescent"
      }
    }
  }
  attr {
    key: "_output_shapes"
    value {
      list {
        shape {
          dim {
            size: 128
          }
        }
      }
    }
  }
  attr {
    key: "container"
    value {
      s: ""
    }
  }
  attr {
    key: "dtype"
    value {
      type: DT_FLOAT
    }
  }
  attr {
    key: "shape"
    value {
      shape {
        dim {
          size: 128
        }
      }
    }
  }
  attr {
    key: "shared_name"
    value {
      s: ""
    }
  }
  experimental_debug_info {
    original_node_names: "conv19/batchnorm19/beta"
  }
}
node {
  name: "conv20/conv2d/kernel"
  op: "VariableV2"
  device: "/job:localhost/replica:0/task:0/device:GPU:0"
  attr {
    key: "_class"
    value {
      list {
        s: "loc:@GradientDescent/update_conv20/conv2d/kernel/ApplyGradientDescent"
      }
    }
  }
  attr {
    key: "_output_shapes"
    value {
      list {
        shape {
          dim {
            size: 1
          }
          dim {
            size: 1
          }
          dim {
            size: 128
          }
          dim {
            size: 512
          }
        }
      }
    }
  }
  attr {
    key: "container"
    value {
      s: ""
    }
  }
  attr {
    key: "dtype"
    value {
      type: DT_FLOAT
    }
  }
  attr {
    key: "shape"
    value {
      shape {
        dim {
          size: 1
        }
        dim {
          size: 1
        }
        dim {
          size: 128
        }
        dim {
          size: 512
        }
      }
    }
  }
  attr {
    key: "shared_name"
    value {
      s: ""
    }
  }
  experimental_debug_info {
    original_node_names: "conv20/conv2d/kernel"
  }
}
node {
  name: "conv20/batchnorm20/gamma"
  op: "VariableV2"
  device: "/job:localhost/replica:0/task:0/device:GPU:0"
  attr {
    key: "_class"
    value {
      list {
        s: "loc:@GradientDescent/update_conv20/batchnorm20/gamma/ApplyGradientDescent"
      }
    }
  }
  attr {
    key: "_output_shapes"
    value {
      list {
        shape {
          dim {
            size: 512
          }
        }
      }
    }
  }
  attr {
    key: "container"
    value {
      s: ""
    }
  }
  attr {
    key: "dtype"
    value {
      type: DT_FLOAT
    }
  }
  attr {
    key: "shape"
    value {
      shape {
        dim {
          size: 512
        }
      }
    }
  }
  attr {
    key: "shared_name"
    value {
      s: ""
    }
  }
  experimental_debug_info {
    original_node_names: "conv20/batchnorm20/gamma"
  }
}
node {
  name: "conv20/batchnorm20/beta"
  op: "VariableV2"
  device: "/job:localhost/replica:0/task:0/device:GPU:0"
  attr {
    key: "_class"
    value {
      list {
        s: "loc:@GradientDescent/update_conv20/batchnorm20/beta/ApplyGradientDescent"
      }
    }
  }
  attr {
    key: "_output_shapes"
    value {
      list {
        shape {
          dim {
            size: 512
          }
        }
      }
    }
  }
  attr {
    key: "container"
    value {
      s: ""
    }
  }
  attr {
    key: "dtype"
    value {
      type: DT_FLOAT
    }
  }
  attr {
    key: "shape"
    value {
      shape {
        dim {
          size: 512
        }
      }
    }
  }
  attr {
    key: "shared_name"
    value {
      s: ""
    }
  }
  experimental_debug_info {
    original_node_names: "conv20/batchnorm20/beta"
  }
}
node {
  name: "conv21/conv2d/kernel"
  op: "VariableV2"
  device: "/job:localhost/replica:0/task:0/device:GPU:0"
  attr {
    key: "_class"
    value {
      list {
        s: "loc:@GradientDescent/update_conv21/conv2d/kernel/ApplyGradientDescent"
      }
    }
  }
  attr {
    key: "_output_shapes"
    value {
      list {
        shape {
          dim {
            size: 1
          }
          dim {
            size: 1
          }
          dim {
            size: 512
          }
          dim {
            size: 128
          }
        }
      }
    }
  }
  attr {
    key: "container"
    value {
      s: ""
    }
  }
  attr {
    key: "dtype"
    value {
      type: DT_FLOAT
    }
  }
  attr {
    key: "shape"
    value {
      shape {
        dim {
          size: 1
        }
        dim {
          size: 1
        }
        dim {
          size: 512
        }
        dim {
          size: 128
        }
      }
    }
  }
  attr {
    key: "shared_name"
    value {
      s: ""
    }
  }
  experimental_debug_info {
    original_node_names: "conv21/conv2d/kernel"
  }
}
node {
  name: "conv21/batchnorm21/gamma"
  op: "VariableV2"
  device: "/job:localhost/replica:0/task:0/device:GPU:0"
  attr {
    key: "_class"
    value {
      list {
        s: "loc:@GradientDescent/update_conv21/batchnorm21/gamma/ApplyGradientDescent"
      }
    }
  }
  attr {
    key: "_output_shapes"
    value {
      list {
        shape {
          dim {
            size: 128
          }
        }
      }
    }
  }
  attr {
    key: "container"
    value {
      s: ""
    }
  }
  attr {
    key: "dtype"
    value {
      type: DT_FLOAT
    }
  }
  attr {
    key: "shape"
    value {
      shape {
        dim {
          size: 128
        }
      }
    }
  }
  attr {
    key: "shared_name"
    value {
      s: ""
    }
  }
  experimental_debug_info {
    original_node_names: "conv21/batchnorm21/gamma"
  }
}
node {
  name: "conv21/batchnorm21/beta"
  op: "VariableV2"
  device: "/job:localhost/replica:0/task:0/device:GPU:0"
  attr {
    key: "_class"
    value {
      list {
        s: "loc:@GradientDescent/update_conv21/batchnorm21/beta/ApplyGradientDescent"
      }
    }
  }
  attr {
    key: "_output_shapes"
    value {
      list {
        shape {
          dim {
            size: 128
          }
        }
      }
    }
  }
  attr {
    key: "container"
    value {
      s: ""
    }
  }
  attr {
    key: "dtype"
    value {
      type: DT_FLOAT
    }
  }
  attr {
    key: "shape"
    value {
      shape {
        dim {
          size: 128
        }
      }
    }
  }
  attr {
    key: "shared_name"
    value {
      s: ""
    }
  }
  experimental_debug_info {
    original_node_names: "conv21/batchnorm21/beta"
  }
}
node {
  name: "conv22/conv2d/kernel"
  op: "VariableV2"
  device: "/job:localhost/replica:0/task:0/device:GPU:0"
  attr {
    key: "_class"
    value {
      list {
        s: "loc:@GradientDescent/update_conv22/conv2d/kernel/ApplyGradientDescent"
      }
    }
  }
  attr {
    key: "_output_shapes"
    value {
      list {
        shape {
          dim {
            size: 3
          }
          dim {
            size: 3
          }
          dim {
            size: 128
          }
          dim {
            size: 128
          }
        }
      }
    }
  }
  attr {
    key: "container"
    value {
      s: ""
    }
  }
  attr {
    key: "dtype"
    value {
      type: DT_FLOAT
    }
  }
  attr {
    key: "shape"
    value {
      shape {
        dim {
          size: 3
        }
        dim {
          size: 3
        }
        dim {
          size: 128
        }
        dim {
          size: 128
        }
      }
    }
  }
  attr {
    key: "shared_name"
    value {
      s: ""
    }
  }
  experimental_debug_info {
    original_node_names: "conv22/conv2d/kernel"
  }
}
node {
  name: "conv22/batchnorm22/gamma"
  op: "VariableV2"
  device: "/job:localhost/replica:0/task:0/device:GPU:0"
  attr {
    key: "_class"
    value {
      list {
        s: "loc:@GradientDescent/update_conv22/batchnorm22/gamma/ApplyGradientDescent"
      }
    }
  }
  attr {
    key: "_output_shapes"
    value {
      list {
        shape {
          dim {
            size: 128
          }
        }
      }
    }
  }
  attr {
    key: "container"
    value {
      s: ""
    }
  }
  attr {
    key: "dtype"
    value {
      type: DT_FLOAT
    }
  }
  attr {
    key: "shape"
    value {
      shape {
        dim {
          size: 128
        }
      }
    }
  }
  attr {
    key: "shared_name"
    value {
      s: ""
    }
  }
  experimental_debug_info {
    original_node_names: "conv22/batchnorm22/gamma"
  }
}
node {
  name: "conv22/batchnorm22/beta"
  op: "VariableV2"
  device: "/job:localhost/replica:0/task:0/device:GPU:0"
  attr {
    key: "_class"
    value {
      list {
        s: "loc:@GradientDescent/update_conv22/batchnorm22/beta/ApplyGradientDescent"
      }
    }
  }
  attr {
    key: "_output_shapes"
    value {
      list {
        shape {
          dim {
            size: 128
          }
        }
      }
    }
  }
  attr {
    key: "container"
    value {
      s: ""
    }
  }
  attr {
    key: "dtype"
    value {
      type: DT_FLOAT
    }
  }
  attr {
    key: "shape"
    value {
      shape {
        dim {
          size: 128
        }
      }
    }
  }
  attr {
    key: "shared_name"
    value {
      s: ""
    }
  }
  experimental_debug_info {
    original_node_names: "conv22/batchnorm22/beta"
  }
}
node {
  name: "conv23/conv2d/kernel"
  op: "VariableV2"
  device: "/job:localhost/replica:0/task:0/device:GPU:0"
  attr {
    key: "_class"
    value {
      list {
        s: "loc:@GradientDescent/update_conv23/conv2d/kernel/ApplyGradientDescent"
      }
    }
  }
  attr {
    key: "_output_shapes"
    value {
      list {
        shape {
          dim {
            size: 1
          }
          dim {
            size: 1
          }
          dim {
            size: 128
          }
          dim {
            size: 512
          }
        }
      }
    }
  }
  attr {
    key: "container"
    value {
      s: ""
    }
  }
  attr {
    key: "dtype"
    value {
      type: DT_FLOAT
    }
  }
  attr {
    key: "shape"
    value {
      shape {
        dim {
          size: 1
        }
        dim {
          size: 1
        }
        dim {
          size: 128
        }
        dim {
          size: 512
        }
      }
    }
  }
  attr {
    key: "shared_name"
    value {
      s: ""
    }
  }
  experimental_debug_info {
    original_node_names: "conv23/conv2d/kernel"
  }
}
node {
  name: "conv23/batchnorm23/gamma"
  op: "VariableV2"
  device: "/job:localhost/replica:0/task:0/device:GPU:0"
  attr {
    key: "_class"
    value {
      list {
        s: "loc:@GradientDescent/update_conv23/batchnorm23/gamma/ApplyGradientDescent"
      }
    }
  }
  attr {
    key: "_output_shapes"
    value {
      list {
        shape {
          dim {
            size: 512
          }
        }
      }
    }
  }
  attr {
    key: "container"
    value {
      s: ""
    }
  }
  attr {
    key: "dtype"
    value {
      type: DT_FLOAT
    }
  }
  attr {
    key: "shape"
    value {
      shape {
        dim {
          size: 512
        }
      }
    }
  }
  attr {
    key: "shared_name"
    value {
      s: ""
    }
  }
  experimental_debug_info {
    original_node_names: "conv23/batchnorm23/gamma"
  }
}
node {
  name: "conv23/batchnorm23/beta"
  op: "VariableV2"
  device: "/job:localhost/replica:0/task:0/device:GPU:0"
  attr {
    key: "_class"
    value {
      list {
        s: "loc:@GradientDescent/update_conv23/batchnorm23/beta/ApplyGradientDescent"
      }
    }
  }
  attr {
    key: "_output_shapes"
    value {
      list {
        shape {
          dim {
            size: 512
          }
        }
      }
    }
  }
  attr {
    key: "container"
    value {
      s: ""
    }
  }
  attr {
    key: "dtype"
    value {
      type: DT_FLOAT
    }
  }
  attr {
    key: "shape"
    value {
      shape {
        dim {
          size: 512
        }
      }
    }
  }
  attr {
    key: "shared_name"
    value {
      s: ""
    }
  }
  experimental_debug_info {
    original_node_names: "conv23/batchnorm23/beta"
  }
}
node {
  name: "gradients/Pad_4_grad/Slice_1-2-DataFormatVecPermuteNHWCToNCHW-LayoutOptimizer"
  op: "Const"
  device: "/job:localhost/replica:0/task:0/device:GPU:0"
  attr {
    key: "_output_shapes"
    value {
      list {
        shape {
          dim {
            size: 4
          }
        }
      }
    }
  }
  attr {
    key: "dtype"
    value {
      type: DT_INT32
    }
  }
  attr {
    key: "value"
    value {
      tensor {
        dtype: DT_INT32
        tensor_shape {
          dim {
            size: 4
          }
        }
        tensor_content: " \000\000\000\200\000\000\0007\000\000\0007\000\000\000"
      }
    }
  }
  experimental_debug_info {
    original_node_names: "gradients/Pad_4_grad/Slice_1-2-DataFormatVecPermuteNHWCToNCHW-LayoutOptimizer"
  }
}
node {
  name: "conv24/conv2d/kernel"
  op: "VariableV2"
  device: "/job:localhost/replica:0/task:0/device:GPU:0"
  attr {
    key: "_class"
    value {
      list {
        s: "loc:@GradientDescent/update_conv24/conv2d/kernel/ApplyGradientDescent"
      }
    }
  }
  attr {
    key: "_output_shapes"
    value {
      list {
        shape {
          dim {
            size: 1
          }
          dim {
            size: 1
          }
          dim {
            size: 512
          }
          dim {
            size: 1024
          }
        }
      }
    }
  }
  attr {
    key: "container"
    value {
      s: ""
    }
  }
  attr {
    key: "dtype"
    value {
      type: DT_FLOAT
    }
  }
  attr {
    key: "shape"
    value {
      shape {
        dim {
          size: 1
        }
        dim {
          size: 1
        }
        dim {
          size: 512
        }
        dim {
          size: 1024
        }
      }
    }
  }
  attr {
    key: "shared_name"
    value {
      s: ""
    }
  }
  experimental_debug_info {
    original_node_names: "conv24/conv2d/kernel"
  }
}
node {
  name: "conv24/batchnorm24/gamma"
  op: "VariableV2"
  device: "/job:localhost/replica:0/task:0/device:GPU:0"
  attr {
    key: "_class"
    value {
      list {
        s: "loc:@GradientDescent/update_conv24/batchnorm24/gamma/ApplyGradientDescent"
      }
    }
  }
  attr {
    key: "_output_shapes"
    value {
      list {
        shape {
          dim {
            size: 1024
          }
        }
      }
    }
  }
  attr {
    key: "container"
    value {
      s: ""
    }
  }
  attr {
    key: "dtype"
    value {
      type: DT_FLOAT
    }
  }
  attr {
    key: "shape"
    value {
      shape {
        dim {
          size: 1024
        }
      }
    }
  }
  attr {
    key: "shared_name"
    value {
      s: ""
    }
  }
  experimental_debug_info {
    original_node_names: "conv24/batchnorm24/gamma"
  }
}
node {
  name: "conv24/batchnorm24/beta"
  op: "VariableV2"
  device: "/job:localhost/replica:0/task:0/device:GPU:0"
  attr {
    key: "_class"
    value {
      list {
        s: "loc:@GradientDescent/update_conv24/batchnorm24/beta/ApplyGradientDescent"
      }
    }
  }
  attr {
    key: "_output_shapes"
    value {
      list {
        shape {
          dim {
            size: 1024
          }
        }
      }
    }
  }
  attr {
    key: "container"
    value {
      s: ""
    }
  }
  attr {
    key: "dtype"
    value {
      type: DT_FLOAT
    }
  }
  attr {
    key: "shape"
    value {
      shape {
        dim {
          size: 1024
        }
      }
    }
  }
  attr {
    key: "shared_name"
    value {
      s: ""
    }
  }
  experimental_debug_info {
    original_node_names: "conv24/batchnorm24/beta"
  }
}
node {
  name: "conv25/conv2d/kernel"
  op: "VariableV2"
  device: "/job:localhost/replica:0/task:0/device:GPU:0"
  attr {
    key: "_class"
    value {
      list {
        s: "loc:@GradientDescent/update_conv25/conv2d/kernel/ApplyGradientDescent"
      }
    }
  }
  attr {
    key: "_output_shapes"
    value {
      list {
        shape {
          dim {
            size: 1
          }
          dim {
            size: 1
          }
          dim {
            size: 512
          }
          dim {
            size: 256
          }
        }
      }
    }
  }
  attr {
    key: "container"
    value {
      s: ""
    }
  }
  attr {
    key: "dtype"
    value {
      type: DT_FLOAT
    }
  }
  attr {
    key: "shape"
    value {
      shape {
        dim {
          size: 1
        }
        dim {
          size: 1
        }
        dim {
          size: 512
        }
        dim {
          size: 256
        }
      }
    }
  }
  attr {
    key: "shared_name"
    value {
      s: ""
    }
  }
  experimental_debug_info {
    original_node_names: "conv25/conv2d/kernel"
  }
}
node {
  name: "conv25/batchnorm25/gamma"
  op: "VariableV2"
  device: "/job:localhost/replica:0/task:0/device:GPU:0"
  attr {
    key: "_class"
    value {
      list {
        s: "loc:@GradientDescent/update_conv25/batchnorm25/gamma/ApplyGradientDescent"
      }
    }
  }
  attr {
    key: "_output_shapes"
    value {
      list {
        shape {
          dim {
            size: 256
          }
        }
      }
    }
  }
  attr {
    key: "container"
    value {
      s: ""
    }
  }
  attr {
    key: "dtype"
    value {
      type: DT_FLOAT
    }
  }
  attr {
    key: "shape"
    value {
      shape {
        dim {
          size: 256
        }
      }
    }
  }
  attr {
    key: "shared_name"
    value {
      s: ""
    }
  }
  experimental_debug_info {
    original_node_names: "conv25/batchnorm25/gamma"
  }
}
node {
  name: "conv25/batchnorm25/beta"
  op: "VariableV2"
  device: "/job:localhost/replica:0/task:0/device:GPU:0"
  attr {
    key: "_class"
    value {
      list {
        s: "loc:@GradientDescent/update_conv25/batchnorm25/beta/ApplyGradientDescent"
      }
    }
  }
  attr {
    key: "_output_shapes"
    value {
      list {
        shape {
          dim {
            size: 256
          }
        }
      }
    }
  }
  attr {
    key: "container"
    value {
      s: ""
    }
  }
  attr {
    key: "dtype"
    value {
      type: DT_FLOAT
    }
  }
  attr {
    key: "shape"
    value {
      shape {
        dim {
          size: 256
        }
      }
    }
  }
  attr {
    key: "shared_name"
    value {
      s: ""
    }
  }
  experimental_debug_info {
    original_node_names: "conv25/batchnorm25/beta"
  }
}
node {
  name: "gradients/Pad_2_grad/Slice_1-2-DataFormatVecPermuteNHWCToNCHW-LayoutOptimizer"
  op: "Const"
  device: "/job:localhost/replica:0/task:0/device:GPU:0"
  attr {
    key: "_output_shapes"
    value {
      list {
        shape {
          dim {
            size: 4
          }
        }
      }
    }
  }
  attr {
    key: "dtype"
    value {
      type: DT_INT32
    }
  }
  attr {
    key: "value"
    value {
      tensor {
        dtype: DT_INT32
        tensor_shape {
          dim {
            size: 4
          }
        }
        tensor_content: " \000\000\000@\000\000\0007\000\000\0007\000\000\000"
      }
    }
  }
  experimental_debug_info {
    original_node_names: "gradients/Pad_2_grad/Slice_1-2-DataFormatVecPermuteNHWCToNCHW-LayoutOptimizer"
  }
}
node {
  name: "conv26/conv2d/kernel"
  op: "VariableV2"
  device: "/job:localhost/replica:0/task:0/device:GPU:0"
  attr {
    key: "_class"
    value {
      list {
        s: "loc:@GradientDescent/update_conv26/conv2d/kernel/ApplyGradientDescent"
      }
    }
  }
  attr {
    key: "_output_shapes"
    value {
      list {
        shape {
          dim {
            size: 3
          }
          dim {
            size: 3
          }
          dim {
            size: 256
          }
          dim {
            size: 256
          }
        }
      }
    }
  }
  attr {
    key: "container"
    value {
      s: ""
    }
  }
  attr {
    key: "dtype"
    value {
      type: DT_FLOAT
    }
  }
  attr {
    key: "shape"
    value {
      shape {
        dim {
          size: 3
        }
        dim {
          size: 3
        }
        dim {
          size: 256
        }
        dim {
          size: 256
        }
      }
    }
  }
  attr {
    key: "shared_name"
    value {
      s: ""
    }
  }
  experimental_debug_info {
    original_node_names: "conv26/conv2d/kernel"
  }
}
node {
  name: "conv26/batchnorm26/gamma"
  op: "VariableV2"
  device: "/job:localhost/replica:0/task:0/device:GPU:0"
  attr {
    key: "_class"
    value {
      list {
        s: "loc:@GradientDescent/update_conv26/batchnorm26/gamma/ApplyGradientDescent"
      }
    }
  }
  attr {
    key: "_output_shapes"
    value {
      list {
        shape {
          dim {
            size: 256
          }
        }
      }
    }
  }
  attr {
    key: "container"
    value {
      s: ""
    }
  }
  attr {
    key: "dtype"
    value {
      type: DT_FLOAT
    }
  }
  attr {
    key: "shape"
    value {
      shape {
        dim {
          size: 256
        }
      }
    }
  }
  attr {
    key: "shared_name"
    value {
      s: ""
    }
  }
  experimental_debug_info {
    original_node_names: "conv26/batchnorm26/gamma"
  }
}
node {
  name: "conv26/batchnorm26/beta"
  op: "VariableV2"
  device: "/job:localhost/replica:0/task:0/device:GPU:0"
  attr {
    key: "_class"
    value {
      list {
        s: "loc:@GradientDescent/update_conv26/batchnorm26/beta/ApplyGradientDescent"
      }
    }
  }
  attr {
    key: "_output_shapes"
    value {
      list {
        shape {
          dim {
            size: 256
          }
        }
      }
    }
  }
  attr {
    key: "container"
    value {
      s: ""
    }
  }
  attr {
    key: "dtype"
    value {
      type: DT_FLOAT
    }
  }
  attr {
    key: "shape"
    value {
      shape {
        dim {
          size: 256
        }
      }
    }
  }
  attr {
    key: "shared_name"
    value {
      s: ""
    }
  }
  experimental_debug_info {
    original_node_names: "conv26/batchnorm26/beta"
  }
}
node {
  name: "conv27/conv2d/kernel"
  op: "VariableV2"
  device: "/job:localhost/replica:0/task:0/device:GPU:0"
  attr {
    key: "_class"
    value {
      list {
        s: "loc:@GradientDescent/update_conv27/conv2d/kernel/ApplyGradientDescent"
      }
    }
  }
  attr {
    key: "_output_shapes"
    value {
      list {
        shape {
          dim {
            size: 1
          }
          dim {
            size: 1
          }
          dim {
            size: 256
          }
          dim {
            size: 1024
          }
        }
      }
    }
  }
  attr {
    key: "container"
    value {
      s: ""
    }
  }
  attr {
    key: "dtype"
    value {
      type: DT_FLOAT
    }
  }
  attr {
    key: "shape"
    value {
      shape {
        dim {
          size: 1
        }
        dim {
          size: 1
        }
        dim {
          size: 256
        }
        dim {
          size: 1024
        }
      }
    }
  }
  attr {
    key: "shared_name"
    value {
      s: ""
    }
  }
  experimental_debug_info {
    original_node_names: "conv27/conv2d/kernel"
  }
}
node {
  name: "conv27/batchnorm27/gamma"
  op: "VariableV2"
  device: "/job:localhost/replica:0/task:0/device:GPU:0"
  attr {
    key: "_class"
    value {
      list {
        s: "loc:@GradientDescent/update_conv27/batchnorm27/gamma/ApplyGradientDescent"
      }
    }
  }
  attr {
    key: "_output_shapes"
    value {
      list {
        shape {
          dim {
            size: 1024
          }
        }
      }
    }
  }
  attr {
    key: "container"
    value {
      s: ""
    }
  }
  attr {
    key: "dtype"
    value {
      type: DT_FLOAT
    }
  }
  attr {
    key: "shape"
    value {
      shape {
        dim {
          size: 1024
        }
      }
    }
  }
  attr {
    key: "shared_name"
    value {
      s: ""
    }
  }
  experimental_debug_info {
    original_node_names: "conv27/batchnorm27/gamma"
  }
}
node {
  name: "conv27/batchnorm27/beta"
  op: "VariableV2"
  device: "/job:localhost/replica:0/task:0/device:GPU:0"
  attr {
    key: "_class"
    value {
      list {
        s: "loc:@GradientDescent/update_conv27/batchnorm27/beta/ApplyGradientDescent"
      }
    }
  }
  attr {
    key: "_output_shapes"
    value {
      list {
        shape {
          dim {
            size: 1024
          }
        }
      }
    }
  }
  attr {
    key: "container"
    value {
      s: ""
    }
  }
  attr {
    key: "dtype"
    value {
      type: DT_FLOAT
    }
  }
  attr {
    key: "shape"
    value {
      shape {
        dim {
          size: 1024
        }
      }
    }
  }
  attr {
    key: "shared_name"
    value {
      s: ""
    }
  }
  experimental_debug_info {
    original_node_names: "conv27/batchnorm27/beta"
  }
}
node {
  name: "conv28/conv2d/kernel"
  op: "VariableV2"
  device: "/job:localhost/replica:0/task:0/device:GPU:0"
  attr {
    key: "_class"
    value {
      list {
        s: "loc:@GradientDescent/update_conv28/conv2d/kernel/ApplyGradientDescent"
      }
    }
  }
  attr {
    key: "_output_shapes"
    value {
      list {
        shape {
          dim {
            size: 1
          }
          dim {
            size: 1
          }
          dim {
            size: 1024
          }
          dim {
            size: 256
          }
        }
      }
    }
  }
  attr {
    key: "container"
    value {
      s: ""
    }
  }
  attr {
    key: "dtype"
    value {
      type: DT_FLOAT
    }
  }
  attr {
    key: "shape"
    value {
      shape {
        dim {
          size: 1
        }
        dim {
          size: 1
        }
        dim {
          size: 1024
        }
        dim {
          size: 256
        }
      }
    }
  }
  attr {
    key: "shared_name"
    value {
      s: ""
    }
  }
  experimental_debug_info {
    original_node_names: "conv28/conv2d/kernel"
  }
}
node {
  name: "conv28/batchnorm28/gamma"
  op: "VariableV2"
  device: "/job:localhost/replica:0/task:0/device:GPU:0"
  attr {
    key: "_class"
    value {
      list {
        s: "loc:@GradientDescent/update_conv28/batchnorm28/gamma/ApplyGradientDescent"
      }
    }
  }
  attr {
    key: "_output_shapes"
    value {
      list {
        shape {
          dim {
            size: 256
          }
        }
      }
    }
  }
  attr {
    key: "container"
    value {
      s: ""
    }
  }
  attr {
    key: "dtype"
    value {
      type: DT_FLOAT
    }
  }
  attr {
    key: "shape"
    value {
      shape {
        dim {
          size: 256
        }
      }
    }
  }
  attr {
    key: "shared_name"
    value {
      s: ""
    }
  }
  experimental_debug_info {
    original_node_names: "conv28/batchnorm28/gamma"
  }
}
node {
  name: "conv28/batchnorm28/beta"
  op: "VariableV2"
  device: "/job:localhost/replica:0/task:0/device:GPU:0"
  attr {
    key: "_class"
    value {
      list {
        s: "loc:@GradientDescent/update_conv28/batchnorm28/beta/ApplyGradientDescent"
      }
    }
  }
  attr {
    key: "_output_shapes"
    value {
      list {
        shape {
          dim {
            size: 256
          }
        }
      }
    }
  }
  attr {
    key: "container"
    value {
      s: ""
    }
  }
  attr {
    key: "dtype"
    value {
      type: DT_FLOAT
    }
  }
  attr {
    key: "shape"
    value {
      shape {
        dim {
          size: 256
        }
      }
    }
  }
  attr {
    key: "shared_name"
    value {
      s: ""
    }
  }
  experimental_debug_info {
    original_node_names: "conv28/batchnorm28/beta"
  }
}
node {
  name: "conv29/conv2d/kernel"
  op: "VariableV2"
  device: "/job:localhost/replica:0/task:0/device:GPU:0"
  attr {
    key: "_class"
    value {
      list {
        s: "loc:@GradientDescent/update_conv29/conv2d/kernel/ApplyGradientDescent"
      }
    }
  }
  attr {
    key: "_output_shapes"
    value {
      list {
        shape {
          dim {
            size: 3
          }
          dim {
            size: 3
          }
          dim {
            size: 256
          }
          dim {
            size: 256
          }
        }
      }
    }
  }
  attr {
    key: "container"
    value {
      s: ""
    }
  }
  attr {
    key: "dtype"
    value {
      type: DT_FLOAT
    }
  }
  attr {
    key: "shape"
    value {
      shape {
        dim {
          size: 3
        }
        dim {
          size: 3
        }
        dim {
          size: 256
        }
        dim {
          size: 256
        }
      }
    }
  }
  attr {
    key: "shared_name"
    value {
      s: ""
    }
  }
  experimental_debug_info {
    original_node_names: "conv29/conv2d/kernel"
  }
}
node {
  name: "conv29/batchnorm29/gamma"
  op: "VariableV2"
  device: "/job:localhost/replica:0/task:0/device:GPU:0"
  attr {
    key: "_class"
    value {
      list {
        s: "loc:@GradientDescent/update_conv29/batchnorm29/gamma/ApplyGradientDescent"
      }
    }
  }
  attr {
    key: "_output_shapes"
    value {
      list {
        shape {
          dim {
            size: 256
          }
        }
      }
    }
  }
  attr {
    key: "container"
    value {
      s: ""
    }
  }
  attr {
    key: "dtype"
    value {
      type: DT_FLOAT
    }
  }
  attr {
    key: "shape"
    value {
      shape {
        dim {
          size: 256
        }
      }
    }
  }
  attr {
    key: "shared_name"
    value {
      s: ""
    }
  }
  experimental_debug_info {
    original_node_names: "conv29/batchnorm29/gamma"
  }
}
node {
  name: "conv29/batchnorm29/beta"
  op: "VariableV2"
  device: "/job:localhost/replica:0/task:0/device:GPU:0"
  attr {
    key: "_class"
    value {
      list {
        s: "loc:@GradientDescent/update_conv29/batchnorm29/beta/ApplyGradientDescent"
      }
    }
  }
  attr {
    key: "_output_shapes"
    value {
      list {
        shape {
          dim {
            size: 256
          }
        }
      }
    }
  }
  attr {
    key: "container"
    value {
      s: ""
    }
  }
  attr {
    key: "dtype"
    value {
      type: DT_FLOAT
    }
  }
  attr {
    key: "shape"
    value {
      shape {
        dim {
          size: 256
        }
      }
    }
  }
  attr {
    key: "shared_name"
    value {
      s: ""
    }
  }
  experimental_debug_info {
    original_node_names: "conv29/batchnorm29/beta"
  }
}
node {
  name: "conv30/conv2d/kernel"
  op: "VariableV2"
  device: "/job:localhost/replica:0/task:0/device:GPU:0"
  attr {
    key: "_class"
    value {
      list {
        s: "loc:@GradientDescent/update_conv30/conv2d/kernel/ApplyGradientDescent"
      }
    }
  }
  attr {
    key: "_output_shapes"
    value {
      list {
        shape {
          dim {
            size: 1
          }
          dim {
            size: 1
          }
          dim {
            size: 256
          }
          dim {
            size: 1024
          }
        }
      }
    }
  }
  attr {
    key: "container"
    value {
      s: ""
    }
  }
  attr {
    key: "dtype"
    value {
      type: DT_FLOAT
    }
  }
  attr {
    key: "shape"
    value {
      shape {
        dim {
          size: 1
        }
        dim {
          size: 1
        }
        dim {
          size: 256
        }
        dim {
          size: 1024
        }
      }
    }
  }
  attr {
    key: "shared_name"
    value {
      s: ""
    }
  }
  experimental_debug_info {
    original_node_names: "conv30/conv2d/kernel"
  }
}
node {
  name: "conv30/batchnorm30/gamma"
  op: "VariableV2"
  device: "/job:localhost/replica:0/task:0/device:GPU:0"
  attr {
    key: "_class"
    value {
      list {
        s: "loc:@GradientDescent/update_conv30/batchnorm30/gamma/ApplyGradientDescent"
      }
    }
  }
  attr {
    key: "_output_shapes"
    value {
      list {
        shape {
          dim {
            size: 1024
          }
        }
      }
    }
  }
  attr {
    key: "container"
    value {
      s: ""
    }
  }
  attr {
    key: "dtype"
    value {
      type: DT_FLOAT
    }
  }
  attr {
    key: "shape"
    value {
      shape {
        dim {
          size: 1024
        }
      }
    }
  }
  attr {
    key: "shared_name"
    value {
      s: ""
    }
  }
  experimental_debug_info {
    original_node_names: "conv30/batchnorm30/gamma"
  }
}
node {
  name: "conv30/batchnorm30/beta"
  op: "VariableV2"
  device: "/job:localhost/replica:0/task:0/device:GPU:0"
  attr {
    key: "_class"
    value {
      list {
        s: "loc:@GradientDescent/update_conv30/batchnorm30/beta/ApplyGradientDescent"
      }
    }
  }
  attr {
    key: "_output_shapes"
    value {
      list {
        shape {
          dim {
            size: 1024
          }
        }
      }
    }
  }
  attr {
    key: "container"
    value {
      s: ""
    }
  }
  attr {
    key: "dtype"
    value {
      type: DT_FLOAT
    }
  }
  attr {
    key: "shape"
    value {
      shape {
        dim {
          size: 1024
        }
      }
    }
  }
  attr {
    key: "shared_name"
    value {
      s: ""
    }
  }
  experimental_debug_info {
    original_node_names: "conv30/batchnorm30/beta"
  }
}
node {
  name: "conv31/conv2d/kernel"
  op: "VariableV2"
  device: "/job:localhost/replica:0/task:0/device:GPU:0"
  attr {
    key: "_class"
    value {
      list {
        s: "loc:@GradientDescent/update_conv31/conv2d/kernel/ApplyGradientDescent"
      }
    }
  }
  attr {
    key: "_output_shapes"
    value {
      list {
        shape {
          dim {
            size: 1
          }
          dim {
            size: 1
          }
          dim {
            size: 1024
          }
          dim {
            size: 256
          }
        }
      }
    }
  }
  attr {
    key: "container"
    value {
      s: ""
    }
  }
  attr {
    key: "dtype"
    value {
      type: DT_FLOAT
    }
  }
  attr {
    key: "shape"
    value {
      shape {
        dim {
          size: 1
        }
        dim {
          size: 1
        }
        dim {
          size: 1024
        }
        dim {
          size: 256
        }
      }
    }
  }
  attr {
    key: "shared_name"
    value {
      s: ""
    }
  }
  experimental_debug_info {
    original_node_names: "conv31/conv2d/kernel"
  }
}
node {
  name: "conv31/batchnorm31/gamma"
  op: "VariableV2"
  device: "/job:localhost/replica:0/task:0/device:GPU:0"
  attr {
    key: "_class"
    value {
      list {
        s: "loc:@GradientDescent/update_conv31/batchnorm31/gamma/ApplyGradientDescent"
      }
    }
  }
  attr {
    key: "_output_shapes"
    value {
      list {
        shape {
          dim {
            size: 256
          }
        }
      }
    }
  }
  attr {
    key: "container"
    value {
      s: ""
    }
  }
  attr {
    key: "dtype"
    value {
      type: DT_FLOAT
    }
  }
  attr {
    key: "shape"
    value {
      shape {
        dim {
          size: 256
        }
      }
    }
  }
  attr {
    key: "shared_name"
    value {
      s: ""
    }
  }
  experimental_debug_info {
    original_node_names: "conv31/batchnorm31/gamma"
  }
}
node {
  name: "conv31/batchnorm31/beta"
  op: "VariableV2"
  device: "/job:localhost/replica:0/task:0/device:GPU:0"
  attr {
    key: "_class"
    value {
      list {
        s: "loc:@GradientDescent/update_conv31/batchnorm31/beta/ApplyGradientDescent"
      }
    }
  }
  attr {
    key: "_output_shapes"
    value {
      list {
        shape {
          dim {
            size: 256
          }
        }
      }
    }
  }
  attr {
    key: "container"
    value {
      s: ""
    }
  }
  attr {
    key: "dtype"
    value {
      type: DT_FLOAT
    }
  }
  attr {
    key: "shape"
    value {
      shape {
        dim {
          size: 256
        }
      }
    }
  }
  attr {
    key: "shared_name"
    value {
      s: ""
    }
  }
  experimental_debug_info {
    original_node_names: "conv31/batchnorm31/beta"
  }
}
node {
  name: "conv32/conv2d/kernel"
  op: "VariableV2"
  device: "/job:localhost/replica:0/task:0/device:GPU:0"
  attr {
    key: "_class"
    value {
      list {
        s: "loc:@GradientDescent/update_conv32/conv2d/kernel/ApplyGradientDescent"
      }
    }
  }
  attr {
    key: "_output_shapes"
    value {
      list {
        shape {
          dim {
            size: 3
          }
          dim {
            size: 3
          }
          dim {
            size: 256
          }
          dim {
            size: 256
          }
        }
      }
    }
  }
  attr {
    key: "container"
    value {
      s: ""
    }
  }
  attr {
    key: "dtype"
    value {
      type: DT_FLOAT
    }
  }
  attr {
    key: "shape"
    value {
      shape {
        dim {
          size: 3
        }
        dim {
          size: 3
        }
        dim {
          size: 256
        }
        dim {
          size: 256
        }
      }
    }
  }
  attr {
    key: "shared_name"
    value {
      s: ""
    }
  }
  experimental_debug_info {
    original_node_names: "conv32/conv2d/kernel"
  }
}
node {
  name: "conv32/batchnorm32/gamma"
  op: "VariableV2"
  device: "/job:localhost/replica:0/task:0/device:GPU:0"
  attr {
    key: "_class"
    value {
      list {
        s: "loc:@GradientDescent/update_conv32/batchnorm32/gamma/ApplyGradientDescent"
      }
    }
  }
  attr {
    key: "_output_shapes"
    value {
      list {
        shape {
          dim {
            size: 256
          }
        }
      }
    }
  }
  attr {
    key: "container"
    value {
      s: ""
    }
  }
  attr {
    key: "dtype"
    value {
      type: DT_FLOAT
    }
  }
  attr {
    key: "shape"
    value {
      shape {
        dim {
          size: 256
        }
      }
    }
  }
  attr {
    key: "shared_name"
    value {
      s: ""
    }
  }
  experimental_debug_info {
    original_node_names: "conv32/batchnorm32/gamma"
  }
}
node {
  name: "conv32/batchnorm32/beta"
  op: "VariableV2"
  device: "/job:localhost/replica:0/task:0/device:GPU:0"
  attr {
    key: "_class"
    value {
      list {
        s: "loc:@GradientDescent/update_conv32/batchnorm32/beta/ApplyGradientDescent"
      }
    }
  }
  attr {
    key: "_output_shapes"
    value {
      list {
        shape {
          dim {
            size: 256
          }
        }
      }
    }
  }
  attr {
    key: "container"
    value {
      s: ""
    }
  }
  attr {
    key: "dtype"
    value {
      type: DT_FLOAT
    }
  }
  attr {
    key: "shape"
    value {
      shape {
        dim {
          size: 256
        }
      }
    }
  }
  attr {
    key: "shared_name"
    value {
      s: ""
    }
  }
  experimental_debug_info {
    original_node_names: "conv32/batchnorm32/beta"
  }
}
node {
  name: "conv33/conv2d/kernel"
  op: "VariableV2"
  device: "/job:localhost/replica:0/task:0/device:GPU:0"
  attr {
    key: "_class"
    value {
      list {
        s: "loc:@GradientDescent/update_conv33/conv2d/kernel/ApplyGradientDescent"
      }
    }
  }
  attr {
    key: "_output_shapes"
    value {
      list {
        shape {
          dim {
            size: 1
          }
          dim {
            size: 1
          }
          dim {
            size: 256
          }
          dim {
            size: 1024
          }
        }
      }
    }
  }
  attr {
    key: "container"
    value {
      s: ""
    }
  }
  attr {
    key: "dtype"
    value {
      type: DT_FLOAT
    }
  }
  attr {
    key: "shape"
    value {
      shape {
        dim {
          size: 1
        }
        dim {
          size: 1
        }
        dim {
          size: 256
        }
        dim {
          size: 1024
        }
      }
    }
  }
  attr {
    key: "shared_name"
    value {
      s: ""
    }
  }
  experimental_debug_info {
    original_node_names: "conv33/conv2d/kernel"
  }
}
node {
  name: "conv33/batchnorm33/gamma"
  op: "VariableV2"
  device: "/job:localhost/replica:0/task:0/device:GPU:0"
  attr {
    key: "_class"
    value {
      list {
        s: "loc:@GradientDescent/update_conv33/batchnorm33/gamma/ApplyGradientDescent"
      }
    }
  }
  attr {
    key: "_output_shapes"
    value {
      list {
        shape {
          dim {
            size: 1024
          }
        }
      }
    }
  }
  attr {
    key: "container"
    value {
      s: ""
    }
  }
  attr {
    key: "dtype"
    value {
      type: DT_FLOAT
    }
  }
  attr {
    key: "shape"
    value {
      shape {
        dim {
          size: 1024
        }
      }
    }
  }
  attr {
    key: "shared_name"
    value {
      s: ""
    }
  }
  experimental_debug_info {
    original_node_names: "conv33/batchnorm33/gamma"
  }
}
node {
  name: "conv33/batchnorm33/beta"
  op: "VariableV2"
  device: "/job:localhost/replica:0/task:0/device:GPU:0"
  attr {
    key: "_class"
    value {
      list {
        s: "loc:@GradientDescent/update_conv33/batchnorm33/beta/ApplyGradientDescent"
      }
    }
  }
  attr {
    key: "_output_shapes"
    value {
      list {
        shape {
          dim {
            size: 1024
          }
        }
      }
    }
  }
  attr {
    key: "container"
    value {
      s: ""
    }
  }
  attr {
    key: "dtype"
    value {
      type: DT_FLOAT
    }
  }
  attr {
    key: "shape"
    value {
      shape {
        dim {
          size: 1024
        }
      }
    }
  }
  attr {
    key: "shared_name"
    value {
      s: ""
    }
  }
  experimental_debug_info {
    original_node_names: "conv33/batchnorm33/beta"
  }
}
node {
  name: "conv34/conv2d/kernel"
  op: "VariableV2"
  device: "/job:localhost/replica:0/task:0/device:GPU:0"
  attr {
    key: "_class"
    value {
      list {
        s: "loc:@GradientDescent/update_conv34/conv2d/kernel/ApplyGradientDescent"
      }
    }
  }
  attr {
    key: "_output_shapes"
    value {
      list {
        shape {
          dim {
            size: 1
          }
          dim {
            size: 1
          }
          dim {
            size: 1024
          }
          dim {
            size: 256
          }
        }
      }
    }
  }
  attr {
    key: "container"
    value {
      s: ""
    }
  }
  attr {
    key: "dtype"
    value {
      type: DT_FLOAT
    }
  }
  attr {
    key: "shape"
    value {
      shape {
        dim {
          size: 1
        }
        dim {
          size: 1
        }
        dim {
          size: 1024
        }
        dim {
          size: 256
        }
      }
    }
  }
  attr {
    key: "shared_name"
    value {
      s: ""
    }
  }
  experimental_debug_info {
    original_node_names: "conv34/conv2d/kernel"
  }
}
node {
  name: "conv34/batchnorm34/gamma"
  op: "VariableV2"
  device: "/job:localhost/replica:0/task:0/device:GPU:0"
  attr {
    key: "_class"
    value {
      list {
        s: "loc:@GradientDescent/update_conv34/batchnorm34/gamma/ApplyGradientDescent"
      }
    }
  }
  attr {
    key: "_output_shapes"
    value {
      list {
        shape {
          dim {
            size: 256
          }
        }
      }
    }
  }
  attr {
    key: "container"
    value {
      s: ""
    }
  }
  attr {
    key: "dtype"
    value {
      type: DT_FLOAT
    }
  }
  attr {
    key: "shape"
    value {
      shape {
        dim {
          size: 256
        }
      }
    }
  }
  attr {
    key: "shared_name"
    value {
      s: ""
    }
  }
  experimental_debug_info {
    original_node_names: "conv34/batchnorm34/gamma"
  }
}
node {
  name: "conv34/batchnorm34/beta"
  op: "VariableV2"
  device: "/job:localhost/replica:0/task:0/device:GPU:0"
  attr {
    key: "_class"
    value {
      list {
        s: "loc:@GradientDescent/update_conv34/batchnorm34/beta/ApplyGradientDescent"
      }
    }
  }
  attr {
    key: "_output_shapes"
    value {
      list {
        shape {
          dim {
            size: 256
          }
        }
      }
    }
  }
  attr {
    key: "container"
    value {
      s: ""
    }
  }
  attr {
    key: "dtype"
    value {
      type: DT_FLOAT
    }
  }
  attr {
    key: "shape"
    value {
      shape {
        dim {
          size: 256
        }
      }
    }
  }
  attr {
    key: "shared_name"
    value {
      s: ""
    }
  }
  experimental_debug_info {
    original_node_names: "conv34/batchnorm34/beta"
  }
}
node {
  name: "conv35/conv2d/kernel"
  op: "VariableV2"
  device: "/job:localhost/replica:0/task:0/device:GPU:0"
  attr {
    key: "_class"
    value {
      list {
        s: "loc:@GradientDescent/update_conv35/conv2d/kernel/ApplyGradientDescent"
      }
    }
  }
  attr {
    key: "_output_shapes"
    value {
      list {
        shape {
          dim {
            size: 3
          }
          dim {
            size: 3
          }
          dim {
            size: 256
          }
          dim {
            size: 256
          }
        }
      }
    }
  }
  attr {
    key: "container"
    value {
      s: ""
    }
  }
  attr {
    key: "dtype"
    value {
      type: DT_FLOAT
    }
  }
  attr {
    key: "shape"
    value {
      shape {
        dim {
          size: 3
        }
        dim {
          size: 3
        }
        dim {
          size: 256
        }
        dim {
          size: 256
        }
      }
    }
  }
  attr {
    key: "shared_name"
    value {
      s: ""
    }
  }
  experimental_debug_info {
    original_node_names: "conv35/conv2d/kernel"
  }
}
node {
  name: "conv35/batchnorm35/gamma"
  op: "VariableV2"
  device: "/job:localhost/replica:0/task:0/device:GPU:0"
  attr {
    key: "_class"
    value {
      list {
        s: "loc:@GradientDescent/update_conv35/batchnorm35/gamma/ApplyGradientDescent"
      }
    }
  }
  attr {
    key: "_output_shapes"
    value {
      list {
        shape {
          dim {
            size: 256
          }
        }
      }
    }
  }
  attr {
    key: "container"
    value {
      s: ""
    }
  }
  attr {
    key: "dtype"
    value {
      type: DT_FLOAT
    }
  }
  attr {
    key: "shape"
    value {
      shape {
        dim {
          size: 256
        }
      }
    }
  }
  attr {
    key: "shared_name"
    value {
      s: ""
    }
  }
  experimental_debug_info {
    original_node_names: "conv35/batchnorm35/gamma"
  }
}
node {
  name: "conv35/batchnorm35/beta"
  op: "VariableV2"
  device: "/job:localhost/replica:0/task:0/device:GPU:0"
  attr {
    key: "_class"
    value {
      list {
        s: "loc:@GradientDescent/update_conv35/batchnorm35/beta/ApplyGradientDescent"
      }
    }
  }
  attr {
    key: "_output_shapes"
    value {
      list {
        shape {
          dim {
            size: 256
          }
        }
      }
    }
  }
  attr {
    key: "container"
    value {
      s: ""
    }
  }
  attr {
    key: "dtype"
    value {
      type: DT_FLOAT
    }
  }
  attr {
    key: "shape"
    value {
      shape {
        dim {
          size: 256
        }
      }
    }
  }
  attr {
    key: "shared_name"
    value {
      s: ""
    }
  }
  experimental_debug_info {
    original_node_names: "conv35/batchnorm35/beta"
  }
}
node {
  name: "conv36/conv2d/kernel"
  op: "VariableV2"
  device: "/job:localhost/replica:0/task:0/device:GPU:0"
  attr {
    key: "_class"
    value {
      list {
        s: "loc:@GradientDescent/update_conv36/conv2d/kernel/ApplyGradientDescent"
      }
    }
  }
  attr {
    key: "_output_shapes"
    value {
      list {
        shape {
          dim {
            size: 1
          }
          dim {
            size: 1
          }
          dim {
            size: 256
          }
          dim {
            size: 1024
          }
        }
      }
    }
  }
  attr {
    key: "container"
    value {
      s: ""
    }
  }
  attr {
    key: "dtype"
    value {
      type: DT_FLOAT
    }
  }
  attr {
    key: "shape"
    value {
      shape {
        dim {
          size: 1
        }
        dim {
          size: 1
        }
        dim {
          size: 256
        }
        dim {
          size: 1024
        }
      }
    }
  }
  attr {
    key: "shared_name"
    value {
      s: ""
    }
  }
  experimental_debug_info {
    original_node_names: "conv36/conv2d/kernel"
  }
}
node {
  name: "conv36/batchnorm36/gamma"
  op: "VariableV2"
  device: "/job:localhost/replica:0/task:0/device:GPU:0"
  attr {
    key: "_class"
    value {
      list {
        s: "loc:@GradientDescent/update_conv36/batchnorm36/gamma/ApplyGradientDescent"
      }
    }
  }
  attr {
    key: "_output_shapes"
    value {
      list {
        shape {
          dim {
            size: 1024
          }
        }
      }
    }
  }
  attr {
    key: "container"
    value {
      s: ""
    }
  }
  attr {
    key: "dtype"
    value {
      type: DT_FLOAT
    }
  }
  attr {
    key: "shape"
    value {
      shape {
        dim {
          size: 1024
        }
      }
    }
  }
  attr {
    key: "shared_name"
    value {
      s: ""
    }
  }
  experimental_debug_info {
    original_node_names: "conv36/batchnorm36/gamma"
  }
}
node {
  name: "conv36/batchnorm36/beta"
  op: "VariableV2"
  device: "/job:localhost/replica:0/task:0/device:GPU:0"
  attr {
    key: "_class"
    value {
      list {
        s: "loc:@GradientDescent/update_conv36/batchnorm36/beta/ApplyGradientDescent"
      }
    }
  }
  attr {
    key: "_output_shapes"
    value {
      list {
        shape {
          dim {
            size: 1024
          }
        }
      }
    }
  }
  attr {
    key: "container"
    value {
      s: ""
    }
  }
  attr {
    key: "dtype"
    value {
      type: DT_FLOAT
    }
  }
  attr {
    key: "shape"
    value {
      shape {
        dim {
          size: 1024
        }
      }
    }
  }
  attr {
    key: "shared_name"
    value {
      s: ""
    }
  }
  experimental_debug_info {
    original_node_names: "conv36/batchnorm36/beta"
  }
}
node {
  name: "conv37/conv2d/kernel"
  op: "VariableV2"
  device: "/job:localhost/replica:0/task:0/device:GPU:0"
  attr {
    key: "_class"
    value {
      list {
        s: "loc:@GradientDescent/update_conv37/conv2d/kernel/ApplyGradientDescent"
      }
    }
  }
  attr {
    key: "_output_shapes"
    value {
      list {
        shape {
          dim {
            size: 1
          }
          dim {
            size: 1
          }
          dim {
            size: 1024
          }
          dim {
            size: 256
          }
        }
      }
    }
  }
  attr {
    key: "container"
    value {
      s: ""
    }
  }
  attr {
    key: "dtype"
    value {
      type: DT_FLOAT
    }
  }
  attr {
    key: "shape"
    value {
      shape {
        dim {
          size: 1
        }
        dim {
          size: 1
        }
        dim {
          size: 1024
        }
        dim {
          size: 256
        }
      }
    }
  }
  attr {
    key: "shared_name"
    value {
      s: ""
    }
  }
  experimental_debug_info {
    original_node_names: "conv37/conv2d/kernel"
  }
}
node {
  name: "conv37/batchnorm37/gamma"
  op: "VariableV2"
  device: "/job:localhost/replica:0/task:0/device:GPU:0"
  attr {
    key: "_class"
    value {
      list {
        s: "loc:@GradientDescent/update_conv37/batchnorm37/gamma/ApplyGradientDescent"
      }
    }
  }
  attr {
    key: "_output_shapes"
    value {
      list {
        shape {
          dim {
            size: 256
          }
        }
      }
    }
  }
  attr {
    key: "container"
    value {
      s: ""
    }
  }
  attr {
    key: "dtype"
    value {
      type: DT_FLOAT
    }
  }
  attr {
    key: "shape"
    value {
      shape {
        dim {
          size: 256
        }
      }
    }
  }
  attr {
    key: "shared_name"
    value {
      s: ""
    }
  }
  experimental_debug_info {
    original_node_names: "conv37/batchnorm37/gamma"
  }
}
node {
  name: "conv37/batchnorm37/beta"
  op: "VariableV2"
  device: "/job:localhost/replica:0/task:0/device:GPU:0"
  attr {
    key: "_class"
    value {
      list {
        s: "loc:@GradientDescent/update_conv37/batchnorm37/beta/ApplyGradientDescent"
      }
    }
  }
  attr {
    key: "_output_shapes"
    value {
      list {
        shape {
          dim {
            size: 256
          }
        }
      }
    }
  }
  attr {
    key: "container"
    value {
      s: ""
    }
  }
  attr {
    key: "dtype"
    value {
      type: DT_FLOAT
    }
  }
  attr {
    key: "shape"
    value {
      shape {
        dim {
          size: 256
        }
      }
    }
  }
  attr {
    key: "shared_name"
    value {
      s: ""
    }
  }
  experimental_debug_info {
    original_node_names: "conv37/batchnorm37/beta"
  }
}
node {
  name: "conv38/conv2d/kernel"
  op: "VariableV2"
  device: "/job:localhost/replica:0/task:0/device:GPU:0"
  attr {
    key: "_class"
    value {
      list {
        s: "loc:@GradientDescent/update_conv38/conv2d/kernel/ApplyGradientDescent"
      }
    }
  }
  attr {
    key: "_output_shapes"
    value {
      list {
        shape {
          dim {
            size: 3
          }
          dim {
            size: 3
          }
          dim {
            size: 256
          }
          dim {
            size: 256
          }
        }
      }
    }
  }
  attr {
    key: "container"
    value {
      s: ""
    }
  }
  attr {
    key: "dtype"
    value {
      type: DT_FLOAT
    }
  }
  attr {
    key: "shape"
    value {
      shape {
        dim {
          size: 3
        }
        dim {
          size: 3
        }
        dim {
          size: 256
        }
        dim {
          size: 256
        }
      }
    }
  }
  attr {
    key: "shared_name"
    value {
      s: ""
    }
  }
  experimental_debug_info {
    original_node_names: "conv38/conv2d/kernel"
  }
}
node {
  name: "conv38/batchnorm38/gamma"
  op: "VariableV2"
  device: "/job:localhost/replica:0/task:0/device:GPU:0"
  attr {
    key: "_class"
    value {
      list {
        s: "loc:@GradientDescent/update_conv38/batchnorm38/gamma/ApplyGradientDescent"
      }
    }
  }
  attr {
    key: "_output_shapes"
    value {
      list {
        shape {
          dim {
            size: 256
          }
        }
      }
    }
  }
  attr {
    key: "container"
    value {
      s: ""
    }
  }
  attr {
    key: "dtype"
    value {
      type: DT_FLOAT
    }
  }
  attr {
    key: "shape"
    value {
      shape {
        dim {
          size: 256
        }
      }
    }
  }
  attr {
    key: "shared_name"
    value {
      s: ""
    }
  }
  experimental_debug_info {
    original_node_names: "conv38/batchnorm38/gamma"
  }
}
node {
  name: "conv38/batchnorm38/beta"
  op: "VariableV2"
  device: "/job:localhost/replica:0/task:0/device:GPU:0"
  attr {
    key: "_class"
    value {
      list {
        s: "loc:@GradientDescent/update_conv38/batchnorm38/beta/ApplyGradientDescent"
      }
    }
  }
  attr {
    key: "_output_shapes"
    value {
      list {
        shape {
          dim {
            size: 256
          }
        }
      }
    }
  }
  attr {
    key: "container"
    value {
      s: ""
    }
  }
  attr {
    key: "dtype"
    value {
      type: DT_FLOAT
    }
  }
  attr {
    key: "shape"
    value {
      shape {
        dim {
          size: 256
        }
      }
    }
  }
  attr {
    key: "shared_name"
    value {
      s: ""
    }
  }
  experimental_debug_info {
    original_node_names: "conv38/batchnorm38/beta"
  }
}
node {
  name: "conv39/conv2d/kernel"
  op: "VariableV2"
  device: "/job:localhost/replica:0/task:0/device:GPU:0"
  attr {
    key: "_class"
    value {
      list {
        s: "loc:@GradientDescent/update_conv39/conv2d/kernel/ApplyGradientDescent"
      }
    }
  }
  attr {
    key: "_output_shapes"
    value {
      list {
        shape {
          dim {
            size: 1
          }
          dim {
            size: 1
          }
          dim {
            size: 256
          }
          dim {
            size: 1024
          }
        }
      }
    }
  }
  attr {
    key: "container"
    value {
      s: ""
    }
  }
  attr {
    key: "dtype"
    value {
      type: DT_FLOAT
    }
  }
  attr {
    key: "shape"
    value {
      shape {
        dim {
          size: 1
        }
        dim {
          size: 1
        }
        dim {
          size: 256
        }
        dim {
          size: 1024
        }
      }
    }
  }
  attr {
    key: "shared_name"
    value {
      s: ""
    }
  }
  experimental_debug_info {
    original_node_names: "conv39/conv2d/kernel"
  }
}
node {
  name: "conv39/batchnorm39/gamma"
  op: "VariableV2"
  device: "/job:localhost/replica:0/task:0/device:GPU:0"
  attr {
    key: "_class"
    value {
      list {
        s: "loc:@GradientDescent/update_conv39/batchnorm39/gamma/ApplyGradientDescent"
      }
    }
  }
  attr {
    key: "_output_shapes"
    value {
      list {
        shape {
          dim {
            size: 1024
          }
        }
      }
    }
  }
  attr {
    key: "container"
    value {
      s: ""
    }
  }
  attr {
    key: "dtype"
    value {
      type: DT_FLOAT
    }
  }
  attr {
    key: "shape"
    value {
      shape {
        dim {
          size: 1024
        }
      }
    }
  }
  attr {
    key: "shared_name"
    value {
      s: ""
    }
  }
  experimental_debug_info {
    original_node_names: "conv39/batchnorm39/gamma"
  }
}
node {
  name: "conv39/batchnorm39/beta"
  op: "VariableV2"
  device: "/job:localhost/replica:0/task:0/device:GPU:0"
  attr {
    key: "_class"
    value {
      list {
        s: "loc:@GradientDescent/update_conv39/batchnorm39/beta/ApplyGradientDescent"
      }
    }
  }
  attr {
    key: "_output_shapes"
    value {
      list {
        shape {
          dim {
            size: 1024
          }
        }
      }
    }
  }
  attr {
    key: "container"
    value {
      s: ""
    }
  }
  attr {
    key: "dtype"
    value {
      type: DT_FLOAT
    }
  }
  attr {
    key: "shape"
    value {
      shape {
        dim {
          size: 1024
        }
      }
    }
  }
  attr {
    key: "shared_name"
    value {
      s: ""
    }
  }
  experimental_debug_info {
    original_node_names: "conv39/batchnorm39/beta"
  }
}
node {
  name: "conv40/conv2d/kernel"
  op: "VariableV2"
  device: "/job:localhost/replica:0/task:0/device:GPU:0"
  attr {
    key: "_class"
    value {
      list {
        s: "loc:@GradientDescent/update_conv40/conv2d/kernel/ApplyGradientDescent"
      }
    }
  }
  attr {
    key: "_output_shapes"
    value {
      list {
        shape {
          dim {
            size: 1
          }
          dim {
            size: 1
          }
          dim {
            size: 1024
          }
          dim {
            size: 256
          }
        }
      }
    }
  }
  attr {
    key: "container"
    value {
      s: ""
    }
  }
  attr {
    key: "dtype"
    value {
      type: DT_FLOAT
    }
  }
  attr {
    key: "shape"
    value {
      shape {
        dim {
          size: 1
        }
        dim {
          size: 1
        }
        dim {
          size: 1024
        }
        dim {
          size: 256
        }
      }
    }
  }
  attr {
    key: "shared_name"
    value {
      s: ""
    }
  }
  experimental_debug_info {
    original_node_names: "conv40/conv2d/kernel"
  }
}
node {
  name: "conv40/batchnorm40/gamma"
  op: "VariableV2"
  device: "/job:localhost/replica:0/task:0/device:GPU:0"
  attr {
    key: "_class"
    value {
      list {
        s: "loc:@GradientDescent/update_conv40/batchnorm40/gamma/ApplyGradientDescent"
      }
    }
  }
  attr {
    key: "_output_shapes"
    value {
      list {
        shape {
          dim {
            size: 256
          }
        }
      }
    }
  }
  attr {
    key: "container"
    value {
      s: ""
    }
  }
  attr {
    key: "dtype"
    value {
      type: DT_FLOAT
    }
  }
  attr {
    key: "shape"
    value {
      shape {
        dim {
          size: 256
        }
      }
    }
  }
  attr {
    key: "shared_name"
    value {
      s: ""
    }
  }
  experimental_debug_info {
    original_node_names: "conv40/batchnorm40/gamma"
  }
}
node {
  name: "conv40/batchnorm40/beta"
  op: "VariableV2"
  device: "/job:localhost/replica:0/task:0/device:GPU:0"
  attr {
    key: "_class"
    value {
      list {
        s: "loc:@GradientDescent/update_conv40/batchnorm40/beta/ApplyGradientDescent"
      }
    }
  }
  attr {
    key: "_output_shapes"
    value {
      list {
        shape {
          dim {
            size: 256
          }
        }
      }
    }
  }
  attr {
    key: "container"
    value {
      s: ""
    }
  }
  attr {
    key: "dtype"
    value {
      type: DT_FLOAT
    }
  }
  attr {
    key: "shape"
    value {
      shape {
        dim {
          size: 256
        }
      }
    }
  }
  attr {
    key: "shared_name"
    value {
      s: ""
    }
  }
  experimental_debug_info {
    original_node_names: "conv40/batchnorm40/beta"
  }
}
node {
  name: "conv41/conv2d/kernel"
  op: "VariableV2"
  device: "/job:localhost/replica:0/task:0/device:GPU:0"
  attr {
    key: "_class"
    value {
      list {
        s: "loc:@GradientDescent/update_conv41/conv2d/kernel/ApplyGradientDescent"
      }
    }
  }
  attr {
    key: "_output_shapes"
    value {
      list {
        shape {
          dim {
            size: 3
          }
          dim {
            size: 3
          }
          dim {
            size: 256
          }
          dim {
            size: 256
          }
        }
      }
    }
  }
  attr {
    key: "container"
    value {
      s: ""
    }
  }
  attr {
    key: "dtype"
    value {
      type: DT_FLOAT
    }
  }
  attr {
    key: "shape"
    value {
      shape {
        dim {
          size: 3
        }
        dim {
          size: 3
        }
        dim {
          size: 256
        }
        dim {
          size: 256
        }
      }
    }
  }
  attr {
    key: "shared_name"
    value {
      s: ""
    }
  }
  experimental_debug_info {
    original_node_names: "conv41/conv2d/kernel"
  }
}
node {
  name: "conv41/batchnorm41/gamma"
  op: "VariableV2"
  device: "/job:localhost/replica:0/task:0/device:GPU:0"
  attr {
    key: "_class"
    value {
      list {
        s: "loc:@GradientDescent/update_conv41/batchnorm41/gamma/ApplyGradientDescent"
      }
    }
  }
  attr {
    key: "_output_shapes"
    value {
      list {
        shape {
          dim {
            size: 256
          }
        }
      }
    }
  }
  attr {
    key: "container"
    value {
      s: ""
    }
  }
  attr {
    key: "dtype"
    value {
      type: DT_FLOAT
    }
  }
  attr {
    key: "shape"
    value {
      shape {
        dim {
          size: 256
        }
      }
    }
  }
  attr {
    key: "shared_name"
    value {
      s: ""
    }
  }
  experimental_debug_info {
    original_node_names: "conv41/batchnorm41/gamma"
  }
}
node {
  name: "conv41/batchnorm41/beta"
  op: "VariableV2"
  device: "/job:localhost/replica:0/task:0/device:GPU:0"
  attr {
    key: "_class"
    value {
      list {
        s: "loc:@GradientDescent/update_conv41/batchnorm41/beta/ApplyGradientDescent"
      }
    }
  }
  attr {
    key: "_output_shapes"
    value {
      list {
        shape {
          dim {
            size: 256
          }
        }
      }
    }
  }
  attr {
    key: "container"
    value {
      s: ""
    }
  }
  attr {
    key: "dtype"
    value {
      type: DT_FLOAT
    }
  }
  attr {
    key: "shape"
    value {
      shape {
        dim {
          size: 256
        }
      }
    }
  }
  attr {
    key: "shared_name"
    value {
      s: ""
    }
  }
  experimental_debug_info {
    original_node_names: "conv41/batchnorm41/beta"
  }
}
node {
  name: "conv42/conv2d/kernel"
  op: "VariableV2"
  device: "/job:localhost/replica:0/task:0/device:GPU:0"
  attr {
    key: "_class"
    value {
      list {
        s: "loc:@GradientDescent/update_conv42/conv2d/kernel/ApplyGradientDescent"
      }
    }
  }
  attr {
    key: "_output_shapes"
    value {
      list {
        shape {
          dim {
            size: 1
          }
          dim {
            size: 1
          }
          dim {
            size: 256
          }
          dim {
            size: 1024
          }
        }
      }
    }
  }
  attr {
    key: "container"
    value {
      s: ""
    }
  }
  attr {
    key: "dtype"
    value {
      type: DT_FLOAT
    }
  }
  attr {
    key: "shape"
    value {
      shape {
        dim {
          size: 1
        }
        dim {
          size: 1
        }
        dim {
          size: 256
        }
        dim {
          size: 1024
        }
      }
    }
  }
  attr {
    key: "shared_name"
    value {
      s: ""
    }
  }
  experimental_debug_info {
    original_node_names: "conv42/conv2d/kernel"
  }
}
node {
  name: "conv42/batchnorm42/gamma"
  op: "VariableV2"
  device: "/job:localhost/replica:0/task:0/device:GPU:0"
  attr {
    key: "_class"
    value {
      list {
        s: "loc:@GradientDescent/update_conv42/batchnorm42/gamma/ApplyGradientDescent"
      }
    }
  }
  attr {
    key: "_output_shapes"
    value {
      list {
        shape {
          dim {
            size: 1024
          }
        }
      }
    }
  }
  attr {
    key: "container"
    value {
      s: ""
    }
  }
  attr {
    key: "dtype"
    value {
      type: DT_FLOAT
    }
  }
  attr {
    key: "shape"
    value {
      shape {
        dim {
          size: 1024
        }
      }
    }
  }
  attr {
    key: "shared_name"
    value {
      s: ""
    }
  }
  experimental_debug_info {
    original_node_names: "conv42/batchnorm42/gamma"
  }
}
node {
  name: "conv42/batchnorm42/beta"
  op: "VariableV2"
  device: "/job:localhost/replica:0/task:0/device:GPU:0"
  attr {
    key: "_class"
    value {
      list {
        s: "loc:@GradientDescent/update_conv42/batchnorm42/beta/ApplyGradientDescent"
      }
    }
  }
  attr {
    key: "_output_shapes"
    value {
      list {
        shape {
          dim {
            size: 1024
          }
        }
      }
    }
  }
  attr {
    key: "container"
    value {
      s: ""
    }
  }
  attr {
    key: "dtype"
    value {
      type: DT_FLOAT
    }
  }
  attr {
    key: "shape"
    value {
      shape {
        dim {
          size: 1024
        }
      }
    }
  }
  attr {
    key: "shared_name"
    value {
      s: ""
    }
  }
  experimental_debug_info {
    original_node_names: "conv42/batchnorm42/beta"
  }
}
node {
  name: "conv43/conv2d/kernel"
  op: "VariableV2"
  device: "/job:localhost/replica:0/task:0/device:GPU:0"
  attr {
    key: "_class"
    value {
      list {
        s: "loc:@GradientDescent/update_conv43/conv2d/kernel/ApplyGradientDescent"
      }
    }
  }
  attr {
    key: "_output_shapes"
    value {
      list {
        shape {
          dim {
            size: 1
          }
          dim {
            size: 1
          }
          dim {
            size: 1024
          }
          dim {
            size: 2048
          }
        }
      }
    }
  }
  attr {
    key: "container"
    value {
      s: ""
    }
  }
  attr {
    key: "dtype"
    value {
      type: DT_FLOAT
    }
  }
  attr {
    key: "shape"
    value {
      shape {
        dim {
          size: 1
        }
        dim {
          size: 1
        }
        dim {
          size: 1024
        }
        dim {
          size: 2048
        }
      }
    }
  }
  attr {
    key: "shared_name"
    value {
      s: ""
    }
  }
  experimental_debug_info {
    original_node_names: "conv43/conv2d/kernel"
  }
}
node {
  name: "conv43/batchnorm43/gamma"
  op: "VariableV2"
  device: "/job:localhost/replica:0/task:0/device:GPU:0"
  attr {
    key: "_class"
    value {
      list {
        s: "loc:@GradientDescent/update_conv43/batchnorm43/gamma/ApplyGradientDescent"
      }
    }
  }
  attr {
    key: "_output_shapes"
    value {
      list {
        shape {
          dim {
            size: 2048
          }
        }
      }
    }
  }
  attr {
    key: "container"
    value {
      s: ""
    }
  }
  attr {
    key: "dtype"
    value {
      type: DT_FLOAT
    }
  }
  attr {
    key: "shape"
    value {
      shape {
        dim {
          size: 2048
        }
      }
    }
  }
  attr {
    key: "shared_name"
    value {
      s: ""
    }
  }
  experimental_debug_info {
    original_node_names: "conv43/batchnorm43/gamma"
  }
}
node {
  name: "conv43/batchnorm43/beta"
  op: "VariableV2"
  device: "/job:localhost/replica:0/task:0/device:GPU:0"
  attr {
    key: "_class"
    value {
      list {
        s: "loc:@GradientDescent/update_conv43/batchnorm43/beta/ApplyGradientDescent"
      }
    }
  }
  attr {
    key: "_output_shapes"
    value {
      list {
        shape {
          dim {
            size: 2048
          }
        }
      }
    }
  }
  attr {
    key: "container"
    value {
      s: ""
    }
  }
  attr {
    key: "dtype"
    value {
      type: DT_FLOAT
    }
  }
  attr {
    key: "shape"
    value {
      shape {
        dim {
          size: 2048
        }
      }
    }
  }
  attr {
    key: "shared_name"
    value {
      s: ""
    }
  }
  experimental_debug_info {
    original_node_names: "conv43/batchnorm43/beta"
  }
}
node {
  name: "conv44/conv2d/kernel"
  op: "VariableV2"
  device: "/job:localhost/replica:0/task:0/device:GPU:0"
  attr {
    key: "_class"
    value {
      list {
        s: "loc:@GradientDescent/update_conv44/conv2d/kernel/ApplyGradientDescent"
      }
    }
  }
  attr {
    key: "_output_shapes"
    value {
      list {
        shape {
          dim {
            size: 1
          }
          dim {
            size: 1
          }
          dim {
            size: 1024
          }
          dim {
            size: 512
          }
        }
      }
    }
  }
  attr {
    key: "container"
    value {
      s: ""
    }
  }
  attr {
    key: "dtype"
    value {
      type: DT_FLOAT
    }
  }
  attr {
    key: "shape"
    value {
      shape {
        dim {
          size: 1
        }
        dim {
          size: 1
        }
        dim {
          size: 1024
        }
        dim {
          size: 512
        }
      }
    }
  }
  attr {
    key: "shared_name"
    value {
      s: ""
    }
  }
  experimental_debug_info {
    original_node_names: "conv44/conv2d/kernel"
  }
}
node {
  name: "conv44/batchnorm44/gamma"
  op: "VariableV2"
  device: "/job:localhost/replica:0/task:0/device:GPU:0"
  attr {
    key: "_class"
    value {
      list {
        s: "loc:@GradientDescent/update_conv44/batchnorm44/gamma/ApplyGradientDescent"
      }
    }
  }
  attr {
    key: "_output_shapes"
    value {
      list {
        shape {
          dim {
            size: 512
          }
        }
      }
    }
  }
  attr {
    key: "container"
    value {
      s: ""
    }
  }
  attr {
    key: "dtype"
    value {
      type: DT_FLOAT
    }
  }
  attr {
    key: "shape"
    value {
      shape {
        dim {
          size: 512
        }
      }
    }
  }
  attr {
    key: "shared_name"
    value {
      s: ""
    }
  }
  experimental_debug_info {
    original_node_names: "conv44/batchnorm44/gamma"
  }
}
node {
  name: "conv44/batchnorm44/beta"
  op: "VariableV2"
  device: "/job:localhost/replica:0/task:0/device:GPU:0"
  attr {
    key: "_class"
    value {
      list {
        s: "loc:@GradientDescent/update_conv44/batchnorm44/beta/ApplyGradientDescent"
      }
    }
  }
  attr {
    key: "_output_shapes"
    value {
      list {
        shape {
          dim {
            size: 512
          }
        }
      }
    }
  }
  attr {
    key: "container"
    value {
      s: ""
    }
  }
  attr {
    key: "dtype"
    value {
      type: DT_FLOAT
    }
  }
  attr {
    key: "shape"
    value {
      shape {
        dim {
          size: 512
        }
      }
    }
  }
  attr {
    key: "shared_name"
    value {
      s: ""
    }
  }
  experimental_debug_info {
    original_node_names: "conv44/batchnorm44/beta"
  }
}
node {
  name: "conv45/conv2d/kernel"
  op: "VariableV2"
  device: "/job:localhost/replica:0/task:0/device:GPU:0"
  attr {
    key: "_class"
    value {
      list {
        s: "loc:@GradientDescent/update_conv45/conv2d/kernel/ApplyGradientDescent"
      }
    }
  }
  attr {
    key: "_output_shapes"
    value {
      list {
        shape {
          dim {
            size: 3
          }
          dim {
            size: 3
          }
          dim {
            size: 512
          }
          dim {
            size: 512
          }
        }
      }
    }
  }
  attr {
    key: "container"
    value {
      s: ""
    }
  }
  attr {
    key: "dtype"
    value {
      type: DT_FLOAT
    }
  }
  attr {
    key: "shape"
    value {
      shape {
        dim {
          size: 3
        }
        dim {
          size: 3
        }
        dim {
          size: 512
        }
        dim {
          size: 512
        }
      }
    }
  }
  attr {
    key: "shared_name"
    value {
      s: ""
    }
  }
  experimental_debug_info {
    original_node_names: "conv45/conv2d/kernel"
  }
}
node {
  name: "conv45/batchnorm45/gamma"
  op: "VariableV2"
  device: "/job:localhost/replica:0/task:0/device:GPU:0"
  attr {
    key: "_class"
    value {
      list {
        s: "loc:@GradientDescent/update_conv45/batchnorm45/gamma/ApplyGradientDescent"
      }
    }
  }
  attr {
    key: "_output_shapes"
    value {
      list {
        shape {
          dim {
            size: 512
          }
        }
      }
    }
  }
  attr {
    key: "container"
    value {
      s: ""
    }
  }
  attr {
    key: "dtype"
    value {
      type: DT_FLOAT
    }
  }
  attr {
    key: "shape"
    value {
      shape {
        dim {
          size: 512
        }
      }
    }
  }
  attr {
    key: "shared_name"
    value {
      s: ""
    }
  }
  experimental_debug_info {
    original_node_names: "conv45/batchnorm45/gamma"
  }
}
node {
  name: "conv45/batchnorm45/beta"
  op: "VariableV2"
  device: "/job:localhost/replica:0/task:0/device:GPU:0"
  attr {
    key: "_class"
    value {
      list {
        s: "loc:@GradientDescent/update_conv45/batchnorm45/beta/ApplyGradientDescent"
      }
    }
  }
  attr {
    key: "_output_shapes"
    value {
      list {
        shape {
          dim {
            size: 512
          }
        }
      }
    }
  }
  attr {
    key: "container"
    value {
      s: ""
    }
  }
  attr {
    key: "dtype"
    value {
      type: DT_FLOAT
    }
  }
  attr {
    key: "shape"
    value {
      shape {
        dim {
          size: 512
        }
      }
    }
  }
  attr {
    key: "shared_name"
    value {
      s: ""
    }
  }
  experimental_debug_info {
    original_node_names: "conv45/batchnorm45/beta"
  }
}
node {
  name: "conv46/conv2d/kernel"
  op: "VariableV2"
  device: "/job:localhost/replica:0/task:0/device:GPU:0"
  attr {
    key: "_class"
    value {
      list {
        s: "loc:@GradientDescent/update_conv46/conv2d/kernel/ApplyGradientDescent"
      }
    }
  }
  attr {
    key: "_output_shapes"
    value {
      list {
        shape {
          dim {
            size: 1
          }
          dim {
            size: 1
          }
          dim {
            size: 512
          }
          dim {
            size: 2048
          }
        }
      }
    }
  }
  attr {
    key: "container"
    value {
      s: ""
    }
  }
  attr {
    key: "dtype"
    value {
      type: DT_FLOAT
    }
  }
  attr {
    key: "shape"
    value {
      shape {
        dim {
          size: 1
        }
        dim {
          size: 1
        }
        dim {
          size: 512
        }
        dim {
          size: 2048
        }
      }
    }
  }
  attr {
    key: "shared_name"
    value {
      s: ""
    }
  }
  experimental_debug_info {
    original_node_names: "conv46/conv2d/kernel"
  }
}
node {
  name: "conv46/batchnorm46/gamma"
  op: "VariableV2"
  device: "/job:localhost/replica:0/task:0/device:GPU:0"
  attr {
    key: "_class"
    value {
      list {
        s: "loc:@GradientDescent/update_conv46/batchnorm46/gamma/ApplyGradientDescent"
      }
    }
  }
  attr {
    key: "_output_shapes"
    value {
      list {
        shape {
          dim {
            size: 2048
          }
        }
      }
    }
  }
  attr {
    key: "container"
    value {
      s: ""
    }
  }
  attr {
    key: "dtype"
    value {
      type: DT_FLOAT
    }
  }
  attr {
    key: "shape"
    value {
      shape {
        dim {
          size: 2048
        }
      }
    }
  }
  attr {
    key: "shared_name"
    value {
      s: ""
    }
  }
  experimental_debug_info {
    original_node_names: "conv46/batchnorm46/gamma"
  }
}
node {
  name: "conv46/batchnorm46/beta"
  op: "VariableV2"
  device: "/job:localhost/replica:0/task:0/device:GPU:0"
  attr {
    key: "_class"
    value {
      list {
        s: "loc:@GradientDescent/update_conv46/batchnorm46/beta/ApplyGradientDescent"
      }
    }
  }
  attr {
    key: "_output_shapes"
    value {
      list {
        shape {
          dim {
            size: 2048
          }
        }
      }
    }
  }
  attr {
    key: "container"
    value {
      s: ""
    }
  }
  attr {
    key: "dtype"
    value {
      type: DT_FLOAT
    }
  }
  attr {
    key: "shape"
    value {
      shape {
        dim {
          size: 2048
        }
      }
    }
  }
  attr {
    key: "shared_name"
    value {
      s: ""
    }
  }
  experimental_debug_info {
    original_node_names: "conv46/batchnorm46/beta"
  }
}
node {
  name: "conv47/conv2d/kernel"
  op: "VariableV2"
  device: "/job:localhost/replica:0/task:0/device:GPU:0"
  attr {
    key: "_class"
    value {
      list {
        s: "loc:@GradientDescent/update_conv47/conv2d/kernel/ApplyGradientDescent"
      }
    }
  }
  attr {
    key: "_output_shapes"
    value {
      list {
        shape {
          dim {
            size: 1
          }
          dim {
            size: 1
          }
          dim {
            size: 2048
          }
          dim {
            size: 512
          }
        }
      }
    }
  }
  attr {
    key: "container"
    value {
      s: ""
    }
  }
  attr {
    key: "dtype"
    value {
      type: DT_FLOAT
    }
  }
  attr {
    key: "shape"
    value {
      shape {
        dim {
          size: 1
        }
        dim {
          size: 1
        }
        dim {
          size: 2048
        }
        dim {
          size: 512
        }
      }
    }
  }
  attr {
    key: "shared_name"
    value {
      s: ""
    }
  }
  experimental_debug_info {
    original_node_names: "conv47/conv2d/kernel"
  }
}
node {
  name: "conv47/batchnorm47/gamma"
  op: "VariableV2"
  device: "/job:localhost/replica:0/task:0/device:GPU:0"
  attr {
    key: "_class"
    value {
      list {
        s: "loc:@GradientDescent/update_conv47/batchnorm47/gamma/ApplyGradientDescent"
      }
    }
  }
  attr {
    key: "_output_shapes"
    value {
      list {
        shape {
          dim {
            size: 512
          }
        }
      }
    }
  }
  attr {
    key: "container"
    value {
      s: ""
    }
  }
  attr {
    key: "dtype"
    value {
      type: DT_FLOAT
    }
  }
  attr {
    key: "shape"
    value {
      shape {
        dim {
          size: 512
        }
      }
    }
  }
  attr {
    key: "shared_name"
    value {
      s: ""
    }
  }
  experimental_debug_info {
    original_node_names: "conv47/batchnorm47/gamma"
  }
}
node {
  name: "conv47/batchnorm47/beta"
  op: "VariableV2"
  device: "/job:localhost/replica:0/task:0/device:GPU:0"
  attr {
    key: "_class"
    value {
      list {
        s: "loc:@GradientDescent/update_conv47/batchnorm47/beta/ApplyGradientDescent"
      }
    }
  }
  attr {
    key: "_output_shapes"
    value {
      list {
        shape {
          dim {
            size: 512
          }
        }
      }
    }
  }
  attr {
    key: "container"
    value {
      s: ""
    }
  }
  attr {
    key: "dtype"
    value {
      type: DT_FLOAT
    }
  }
  attr {
    key: "shape"
    value {
      shape {
        dim {
          size: 512
        }
      }
    }
  }
  attr {
    key: "shared_name"
    value {
      s: ""
    }
  }
  experimental_debug_info {
    original_node_names: "conv47/batchnorm47/beta"
  }
}
node {
  name: "conv48/conv2d/kernel"
  op: "VariableV2"
  device: "/job:localhost/replica:0/task:0/device:GPU:0"
  attr {
    key: "_class"
    value {
      list {
        s: "loc:@GradientDescent/update_conv48/conv2d/kernel/ApplyGradientDescent"
      }
    }
  }
  attr {
    key: "_output_shapes"
    value {
      list {
        shape {
          dim {
            size: 3
          }
          dim {
            size: 3
          }
          dim {
            size: 512
          }
          dim {
            size: 512
          }
        }
      }
    }
  }
  attr {
    key: "container"
    value {
      s: ""
    }
  }
  attr {
    key: "dtype"
    value {
      type: DT_FLOAT
    }
  }
  attr {
    key: "shape"
    value {
      shape {
        dim {
          size: 3
        }
        dim {
          size: 3
        }
        dim {
          size: 512
        }
        dim {
          size: 512
        }
      }
    }
  }
  attr {
    key: "shared_name"
    value {
      s: ""
    }
  }
  experimental_debug_info {
    original_node_names: "conv48/conv2d/kernel"
  }
}
node {
  name: "conv48/batchnorm48/gamma"
  op: "VariableV2"
  device: "/job:localhost/replica:0/task:0/device:GPU:0"
  attr {
    key: "_class"
    value {
      list {
        s: "loc:@GradientDescent/update_conv48/batchnorm48/gamma/ApplyGradientDescent"
      }
    }
  }
  attr {
    key: "_output_shapes"
    value {
      list {
        shape {
          dim {
            size: 512
          }
        }
      }
    }
  }
  attr {
    key: "container"
    value {
      s: ""
    }
  }
  attr {
    key: "dtype"
    value {
      type: DT_FLOAT
    }
  }
  attr {
    key: "shape"
    value {
      shape {
        dim {
          size: 512
        }
      }
    }
  }
  attr {
    key: "shared_name"
    value {
      s: ""
    }
  }
  experimental_debug_info {
    original_node_names: "conv48/batchnorm48/gamma"
  }
}
node {
  name: "conv48/batchnorm48/beta"
  op: "VariableV2"
  device: "/job:localhost/replica:0/task:0/device:GPU:0"
  attr {
    key: "_class"
    value {
      list {
        s: "loc:@GradientDescent/update_conv48/batchnorm48/beta/ApplyGradientDescent"
      }
    }
  }
  attr {
    key: "_output_shapes"
    value {
      list {
        shape {
          dim {
            size: 512
          }
        }
      }
    }
  }
  attr {
    key: "container"
    value {
      s: ""
    }
  }
  attr {
    key: "dtype"
    value {
      type: DT_FLOAT
    }
  }
  attr {
    key: "shape"
    value {
      shape {
        dim {
          size: 512
        }
      }
    }
  }
  attr {
    key: "shared_name"
    value {
      s: ""
    }
  }
  experimental_debug_info {
    original_node_names: "conv48/batchnorm48/beta"
  }
}
node {
  name: "conv49/conv2d/kernel"
  op: "VariableV2"
  device: "/job:localhost/replica:0/task:0/device:GPU:0"
  attr {
    key: "_class"
    value {
      list {
        s: "loc:@GradientDescent/update_conv49/conv2d/kernel/ApplyGradientDescent"
      }
    }
  }
  attr {
    key: "_output_shapes"
    value {
      list {
        shape {
          dim {
            size: 1
          }
          dim {
            size: 1
          }
          dim {
            size: 512
          }
          dim {
            size: 2048
          }
        }
      }
    }
  }
  attr {
    key: "container"
    value {
      s: ""
    }
  }
  attr {
    key: "dtype"
    value {
      type: DT_FLOAT
    }
  }
  attr {
    key: "shape"
    value {
      shape {
        dim {
          size: 1
        }
        dim {
          size: 1
        }
        dim {
          size: 512
        }
        dim {
          size: 2048
        }
      }
    }
  }
  attr {
    key: "shared_name"
    value {
      s: ""
    }
  }
  experimental_debug_info {
    original_node_names: "conv49/conv2d/kernel"
  }
}
node {
  name: "conv49/batchnorm49/gamma"
  op: "VariableV2"
  device: "/job:localhost/replica:0/task:0/device:GPU:0"
  attr {
    key: "_class"
    value {
      list {
        s: "loc:@GradientDescent/update_conv49/batchnorm49/gamma/ApplyGradientDescent"
      }
    }
  }
  attr {
    key: "_output_shapes"
    value {
      list {
        shape {
          dim {
            size: 2048
          }
        }
      }
    }
  }
  attr {
    key: "container"
    value {
      s: ""
    }
  }
  attr {
    key: "dtype"
    value {
      type: DT_FLOAT
    }
  }
  attr {
    key: "shape"
    value {
      shape {
        dim {
          size: 2048
        }
      }
    }
  }
  attr {
    key: "shared_name"
    value {
      s: ""
    }
  }
  experimental_debug_info {
    original_node_names: "conv49/batchnorm49/gamma"
  }
}
node {
  name: "conv49/batchnorm49/beta"
  op: "VariableV2"
  device: "/job:localhost/replica:0/task:0/device:GPU:0"
  attr {
    key: "_class"
    value {
      list {
        s: "loc:@GradientDescent/update_conv49/batchnorm49/beta/ApplyGradientDescent"
      }
    }
  }
  attr {
    key: "_output_shapes"
    value {
      list {
        shape {
          dim {
            size: 2048
          }
        }
      }
    }
  }
  attr {
    key: "container"
    value {
      s: ""
    }
  }
  attr {
    key: "dtype"
    value {
      type: DT_FLOAT
    }
  }
  attr {
    key: "shape"
    value {
      shape {
        dim {
          size: 2048
        }
      }
    }
  }
  attr {
    key: "shared_name"
    value {
      s: ""
    }
  }
  experimental_debug_info {
    original_node_names: "conv49/batchnorm49/beta"
  }
}
node {
  name: "GradientDescent/learning_rate"
  op: "Const"
  device: "/job:localhost/replica:0/task:0/device:GPU:0"
  attr {
    key: "_output_shapes"
    value {
      list {
        shape {
        }
      }
    }
  }
  attr {
    key: "dtype"
    value {
      type: DT_FLOAT
    }
  }
  attr {
    key: "value"
    value {
      tensor {
        dtype: DT_FLOAT
        tensor_shape {
        }
        float_val: 0.24691200256347656
      }
    }
  }
  experimental_debug_info {
    original_node_names: "GradientDescent/learning_rate"
  }
}
node {
  name: "conv50/conv2d/kernel"
  op: "VariableV2"
  device: "/job:localhost/replica:0/task:0/device:GPU:0"
  attr {
    key: "_class"
    value {
      list {
        s: "loc:@GradientDescent/update_conv50/conv2d/kernel/ApplyGradientDescent"
      }
    }
  }
  attr {
    key: "_output_shapes"
    value {
      list {
        shape {
          dim {
            size: 1
          }
          dim {
            size: 1
          }
          dim {
            size: 2048
          }
          dim {
            size: 512
          }
        }
      }
    }
  }
  attr {
    key: "container"
    value {
      s: ""
    }
  }
  attr {
    key: "dtype"
    value {
      type: DT_FLOAT
    }
  }
  attr {
    key: "shape"
    value {
      shape {
        dim {
          size: 1
        }
        dim {
          size: 1
        }
        dim {
          size: 2048
        }
        dim {
          size: 512
        }
      }
    }
  }
  attr {
    key: "shared_name"
    value {
      s: ""
    }
  }
  experimental_debug_info {
    original_node_names: "conv50/conv2d/kernel"
  }
}
node {
  name: "conv50/batchnorm50/gamma"
  op: "VariableV2"
  device: "/job:localhost/replica:0/task:0/device:GPU:0"
  attr {
    key: "_class"
    value {
      list {
        s: "loc:@GradientDescent/update_conv50/batchnorm50/gamma/ApplyGradientDescent"
      }
    }
  }
  attr {
    key: "_output_shapes"
    value {
      list {
        shape {
          dim {
            size: 512
          }
        }
      }
    }
  }
  attr {
    key: "container"
    value {
      s: ""
    }
  }
  attr {
    key: "dtype"
    value {
      type: DT_FLOAT
    }
  }
  attr {
    key: "shape"
    value {
      shape {
        dim {
          size: 512
        }
      }
    }
  }
  attr {
    key: "shared_name"
    value {
      s: ""
    }
  }
  experimental_debug_info {
    original_node_names: "conv50/batchnorm50/gamma"
  }
}
node {
  name: "conv50/batchnorm50/beta"
  op: "VariableV2"
  device: "/job:localhost/replica:0/task:0/device:GPU:0"
  attr {
    key: "_class"
    value {
      list {
        s: "loc:@GradientDescent/update_conv50/batchnorm50/beta/ApplyGradientDescent"
      }
    }
  }
  attr {
    key: "_output_shapes"
    value {
      list {
        shape {
          dim {
            size: 512
          }
        }
      }
    }
  }
  attr {
    key: "container"
    value {
      s: ""
    }
  }
  attr {
    key: "dtype"
    value {
      type: DT_FLOAT
    }
  }
  attr {
    key: "shape"
    value {
      shape {
        dim {
          size: 512
        }
      }
    }
  }
  attr {
    key: "shared_name"
    value {
      s: ""
    }
  }
  experimental_debug_info {
    original_node_names: "conv50/batchnorm50/beta"
  }
}
node {
  name: "conv51/conv2d/kernel"
  op: "VariableV2"
  device: "/job:localhost/replica:0/task:0/device:GPU:0"
  attr {
    key: "_class"
    value {
      list {
        s: "loc:@GradientDescent/update_conv51/conv2d/kernel/ApplyGradientDescent"
      }
    }
  }
  attr {
    key: "_output_shapes"
    value {
      list {
        shape {
          dim {
            size: 3
          }
          dim {
            size: 3
          }
          dim {
            size: 512
          }
          dim {
            size: 512
          }
        }
      }
    }
  }
  attr {
    key: "container"
    value {
      s: ""
    }
  }
  attr {
    key: "dtype"
    value {
      type: DT_FLOAT
    }
  }
  attr {
    key: "shape"
    value {
      shape {
        dim {
          size: 3
        }
        dim {
          size: 3
        }
        dim {
          size: 512
        }
        dim {
          size: 512
        }
      }
    }
  }
  attr {
    key: "shared_name"
    value {
      s: ""
    }
  }
  experimental_debug_info {
    original_node_names: "conv51/conv2d/kernel"
  }
}
node {
  name: "conv51/batchnorm51/gamma"
  op: "VariableV2"
  device: "/job:localhost/replica:0/task:0/device:GPU:0"
  attr {
    key: "_class"
    value {
      list {
        s: "loc:@GradientDescent/update_conv51/batchnorm51/gamma/ApplyGradientDescent"
      }
    }
  }
  attr {
    key: "_output_shapes"
    value {
      list {
        shape {
          dim {
            size: 512
          }
        }
      }
    }
  }
  attr {
    key: "container"
    value {
      s: ""
    }
  }
  attr {
    key: "dtype"
    value {
      type: DT_FLOAT
    }
  }
  attr {
    key: "shape"
    value {
      shape {
…
  input: "^gradients/conv3/conv2d/Conv2D_grad/Conv2DBackpropFilter"
  device: "/job:localhost/replica:0/task:0/device:GPU:0"
  attr {
    key: "Index"
    value {
      type: DT_INT32
    }
  }
  attr {
    key: "T"
    value {
      type: DT_FLOAT
    }
  }
  attr {
    key: "_output_shapes"
    value {
      list {
        shape {
          dim {
            size: 32
          }
          dim {
            size: 64
          }
          dim {
            size: 55
          }
          dim {
            size: 55
          }
        }
      }
    }
  }
  experimental_debug_info {
    original_node_names: "gradients/Pad_1_grad/Slice_1"
  }
}
node {
  name: "DistributedGradientDescentOptimizer_Allreduce/cond_9/HorovodAllreduce_gradients_conv3_conv2d_Conv2D_grad_tuple_control_dependency_1_0/Switch"
  op: "Switch"
  input: "gradients/conv3/conv2d/Conv2D_grad/Conv2DBackpropFilter"
  input: "DistributedGradientDescentOptimizer_Allreduce/Const_74/_1"
  input: "^gradients/conv3/conv2d/Conv2D_grad/Conv2DBackpropInput"
  device: "/job:localhost/replica:0/task:0/device:GPU:0"
  attr {
    key: "T"
    value {
      type: DT_FLOAT
    }
  }
  attr {
    key: "_output_shapes"
    value {
      list {
        shape {
          dim {
            size: 3
          }
          dim {
            size: 3
          }
          dim {
            size: 64
          }
          dim {
            size: 64
          }
        }
        shape {
          dim {
            size: 3
          }
          dim {
            size: 3
          }
          dim {
            size: 64
          }
          dim {
            size: 64
          }
        }
      }
    }
  }
  experimental_debug_info {
    original_node_names: "DistributedGradientDescentOptimizer_Allreduce/cond_9/HorovodAllreduce_gradients_conv3_conv2d_Conv2D_grad_tuple_control_dependency_1_0/Switch"
  }
}
node {
  name: "DistributedGradientDescentOptimizer_Allreduce/cond_10/HorovodAllreduce_gradients_conv3_batchnorm3_FusedBatchNormV3_grad_tuple_control_dependency_1_0"
  op: "HorovodAllreduce"
  input: "DistributedGradientDescentOptimizer_Allreduce/cond_10/HorovodAllreduce_gradients_conv3_batchnorm3_FusedBatchNormV3_grad_tuple_control_dependency_1_0/Switch:1"
  device: "/job:localhost/replica:0/task:0/device:GPU:0"
  attr {
    key: "T"
    value {
      type: DT_FLOAT
    }
  }
  attr {
    key: "_output_shapes"
    value {
      list {
        shape {
          dim {
            size: 64
          }
        }
      }
    }
  }
  attr {
    key: "postscale_factor"
    value {
      f: 1.0
    }
  }
  attr {
    key: "prescale_factor"
    value {
      f: 1.0
    }
  }
  attr {
    key: "reduce_op"
    value {
      i: 0
    }
  }
  experimental_debug_info {
    original_node_names: "DistributedGradientDescentOptimizer_Allreduce/cond_10/HorovodAllreduce_gradients_conv3_batchnorm3_FusedBatchNormV3_grad_tuple_control_dependency_1_0"
  }
}
node {
  name: "DistributedGradientDescentOptimizer_Allreduce/cond_11/HorovodAllreduce_gradients_conv3_batchnorm3_FusedBatchNormV3_grad_tuple_control_dependency_2_0"
  op: "HorovodAllreduce"
  input: "DistributedGradientDescentOptimizer_Allreduce/cond_11/HorovodAllreduce_gradients_conv3_batchnorm3_FusedBatchNormV3_grad_tuple_control_dependency_2_0/Switch:1"
  device: "/job:localhost/replica:0/task:0/device:GPU:0"
  attr {
    key: "T"
    value {
      type: DT_FLOAT
    }
  }
  attr {
    key: "_output_shapes"
    value {
      list {
        shape {
          dim {
            size: 64
          }
        }
      }
    }
  }
  attr {
    key: "postscale_factor"
    value {
      f: 1.0
    }
  }
  attr {
    key: "prescale_factor"
    value {
      f: 1.0
    }
  }
  attr {
    key: "reduce_op"
    value {
      i: 0
    }
  }
  experimental_debug_info {
    original_node_names: "DistributedGradientDescentOptimizer_Allreduce/cond_11/HorovodAllreduce_gradients_conv3_batchnorm3_FusedBatchNormV3_grad_tuple_control_dependency_2_0"
  }
}
node {
  name: "gradients/conv2/Relu_grad/ReluGrad"
  op: "ReluGrad"
  input: "gradients/Pad_1_grad/Slice_1"
  input: "conv2/Relu"
  device: "/job:localhost/replica:0/task:0/device:GPU:0"
  attr {
    key: "T"
    value {
      type: DT_FLOAT
    }
  }
  attr {
    key: "_output_shapes"
    value {
      list {
        shape {
          dim {
            size: 32
          }
          dim {
            size: 64
          }
          dim {
            size: 55
          }
          dim {
            size: 55
          }
        }
      }
    }
  }
  experimental_debug_info {
    original_node_names: "gradients/conv2/Relu_grad/ReluGrad"
  }
}
node {
  name: "DistributedGradientDescentOptimizer_Allreduce/cond_9/HorovodAllreduce_gradients_conv3_conv2d_Conv2D_grad_tuple_control_dependency_1_0"
  op: "HorovodAllreduce"
  input: "DistributedGradientDescentOptimizer_Allreduce/cond_9/HorovodAllreduce_gradients_conv3_conv2d_Conv2D_grad_tuple_control_dependency_1_0/Switch:1"
  device: "/job:localhost/replica:0/task:0/device:GPU:0"
  attr {
    key: "T"
    value {
      type: DT_FLOAT
    }
  }
  attr {
    key: "_output_shapes"
    value {
      list {
        shape {
          dim {
            size: 3
          }
          dim {
            size: 3
          }
          dim {
            size: 64
          }
          dim {
            size: 64
          }
        }
      }
    }
  }
  attr {
    key: "postscale_factor"
    value {
      f: 1.0
    }
  }
  attr {
    key: "prescale_factor"
    value {
      f: 1.0
    }
  }
  attr {
    key: "reduce_op"
    value {
      i: 0
    }
  }
  experimental_debug_info {
    original_node_names: "DistributedGradientDescentOptimizer_Allreduce/cond_9/HorovodAllreduce_gradients_conv3_conv2d_Conv2D_grad_tuple_control_dependency_1_0"
  }
}
node {
  name: "GradientDescent/update_conv3/batchnorm3/gamma/ApplyGradientDescent"
  op: "ApplyGradientDescent"
  input: "conv3/batchnorm3/gamma"
  input: "GradientDescent/learning_rate"
  input: "DistributedGradientDescentOptimizer_Allreduce/cond_10/HorovodAllreduce_gradients_conv3_batchnorm3_FusedBatchNormV3_grad_tuple_control_dependency_1_0"
  device: "/job:localhost/replica:0/task:0/device:GPU:0"
  attr {
    key: "T"
    value {
      type: DT_FLOAT
    }
  }
  attr {
    key: "_output_shapes"
    value {
      list {
        shape {
          dim {
            size: 64
          }
        }
      }
    }
  }
  attr {
    key: "use_locking"
    value {
      b: false
    }
  }
  experimental_debug_info {
    original_node_names: "GradientDescent/update_conv3/batchnorm3/gamma/ApplyGradientDescent"
  }
}
node {
  name: "GradientDescent/update_conv3/batchnorm3/beta/ApplyGradientDescent"
  op: "ApplyGradientDescent"
  input: "conv3/batchnorm3/beta"
  input: "GradientDescent/learning_rate"
  input: "DistributedGradientDescentOptimizer_Allreduce/cond_11/HorovodAllreduce_gradients_conv3_batchnorm3_FusedBatchNormV3_grad_tuple_control_dependency_2_0"
  device: "/job:localhost/replica:0/task:0/device:GPU:0"
  attr {
    key: "T"
    value {
      type: DT_FLOAT
    }
  }
  attr {
    key: "_output_shapes"
    value {
      list {
        shape {
          dim {
            size: 64
          }
        }
      }
    }
  }
  attr {
    key: "use_locking"
    value {
      b: false
    }
  }
  experimental_debug_info {
    original_node_names: "GradientDescent/update_conv3/batchnorm3/beta/ApplyGradientDescent"
  }
}
node {
  name: "gradients/conv2/batchnorm2/FusedBatchNormV3_grad/FusedBatchNormGradV3"
  op: "FusedBatchNormGradV3"
  input: "gradients/conv2/Relu_grad/ReluGrad"
  input: "conv2/conv2d/Conv2D"
  input: "conv2/batchnorm2/gamma/read"
  input: "conv2/batchnorm2/FusedBatchNormV3:3"
  input: "conv2/batchnorm2/FusedBatchNormV3:4"
  input: "conv2/batchnorm2/FusedBatchNormV3:5"
  device: "/job:localhost/replica:0/task:0/device:GPU:0"
  attr {
    key: "T"
    value {
      type: DT_FLOAT
    }
  }
  attr {
    key: "U"
    value {
      type: DT_FLOAT
    }
  }
  attr {
    key: "_class"
    value {
      list {
        s: "loc:@DistributedGradientDescentOptimizer_Allreduce/cond_8/HorovodAllreduce_gradients_conv2_batchnorm2_FusedBatchNormV3_grad_tuple_control_dependency_2_0/Switch"
      }
    }
  }
  attr {
    key: "_output_shapes"
    value {
      list {
        shape {
          dim {
            size: 32
          }
          dim {
            size: 64
          }
          dim {
            size: 55
          }
          dim {
            size: 55
          }
        }
        shape {
          dim {
            size: 64
          }
        }
        shape {
          dim {
            size: 64
          }
        }
        shape {
          dim {
          }
        }
        shape {
          dim {
          }
        }
      }
    }
  }
  attr {
    key: "data_format"
    value {
      s: "NCHW"
    }
  }
  attr {
    key: "epsilon"
    value {
      f: 1.9999999494757503e-05
    }
  }
  attr {
    key: "is_training"
    value {
      b: true
    }
  }
  experimental_debug_info {
    original_node_names: "gradients/conv2/batchnorm2/FusedBatchNormV3_grad/FusedBatchNormGradV3"
  }
}
node {
  name: "GradientDescent/update_conv3/conv2d/kernel/ApplyGradientDescent"
  op: "ApplyGradientDescent"
  input: "conv3/conv2d/kernel"
  input: "GradientDescent/learning_rate"
  input: "DistributedGradientDescentOptimizer_Allreduce/cond_9/HorovodAllreduce_gradients_conv3_conv2d_Conv2D_grad_tuple_control_dependency_1_0"
  device: "/job:localhost/replica:0/task:0/device:GPU:0"
  attr {
    key: "T"
    value {
      type: DT_FLOAT
    }
  }
  attr {
    key: "_output_shapes"
    value {
      list {
        shape {
          dim {
            size: 3
          }
          dim {
            size: 3
          }
          dim {
            size: 64
          }
          dim {
            size: 64
          }
        }
      }
    }
  }
  attr {
    key: "use_locking"
    value {
      b: false
    }
  }
  experimental_debug_info {
    original_node_names: "GradientDescent/update_conv3/conv2d/kernel/ApplyGradientDescent"
  }
}
node {
  name: "gradients/conv2/conv2d/Conv2D_grad/Conv2DBackpropFilter"
  op: "Conv2DBackpropFilter"
  input: "mpool0/MaxPool"
  input: "ConstantFolding/gradients/conv2/conv2d/Conv2D_grad/ShapeN-matshapes-1"
  input: "gradients/conv2/batchnorm2/FusedBatchNormV3_grad/FusedBatchNormGradV3"
  device: "/job:localhost/replica:0/task:0/device:GPU:0"
  attr {
    key: "T"
    value {
      type: DT_FLOAT
    }
  }
  attr {
    key: "_class"
    value {
      list {
        s: "loc:@DistributedGradientDescentOptimizer_Allreduce/cond_6/HorovodAllreduce_gradients_conv2_conv2d_Conv2D_grad_tuple_control_dependency_1_0/Switch"
      }
    }
  }
  attr {
    key: "_output_shapes"
    value {
      list {
        shape {
          dim {
            size: 1
          }
          dim {
            size: 1
          }
          dim {
            size: 64
          }
          dim {
            size: 64
          }
        }
      }
    }
  }
  attr {
    key: "data_format"
    value {
      s: "NCHW"
    }
  }
  attr {
    key: "dilations"
    value {
      list {
        i: 1
        i: 1
        i: 1
        i: 1
      }
    }
  }
  attr {
    key: "explicit_paddings"
    value {
      list {
      }
    }
  }
  attr {
    key: "padding"
    value {
      s: "VALID"
    }
  }
  attr {
    key: "strides"
    value {
      list {
        i: 1
        i: 1
        i: 1
        i: 1
      }
    }
  }
  attr {
    key: "use_cudnn_on_gpu"
    value {
      b: true
    }
  }
  experimental_debug_info {
    original_node_names: "gradients/conv2/conv2d/Conv2D_grad/Conv2DBackpropFilter"
  }
}
node {
  name: "gradients/conv2/conv2d/Conv2D_grad/Conv2DBackpropInput"
  op: "Conv2DBackpropInput"
  input: "gradients/conv2/conv2d/Conv2D_grad/Conv2DBackpropInput-0-DataFormatVecPermuteNHWCToNCHW-LayoutOptimizer"
  input: "conv2/conv2d/kernel/read"
  input: "gradients/conv2/batchnorm2/FusedBatchNormV3_grad/FusedBatchNormGradV3"
  device: "/job:localhost/replica:0/task:0/device:GPU:0"
  attr {
    key: "T"
    value {
      type: DT_FLOAT
    }
  }
  attr {
    key: "_output_shapes"
    value {
      list {
        shape {
          dim {
            size: 32
          }
          dim {
            size: 64
          }
          dim {
            size: 55
          }
          dim {
            size: 55
          }
        }
      }
    }
  }
  attr {
    key: "data_format"
    value {
      s: "NCHW"
    }
  }
  attr {
    key: "dilations"
    value {
      list {
        i: 1
        i: 1
        i: 1
        i: 1
      }
    }
  }
  attr {
    key: "explicit_paddings"
    value {
      list {
      }
    }
  }
  attr {
    key: "padding"
    value {
      s: "VALID"
    }
  }
  attr {
    key: "strides"
    value {
      list {
        i: 1
        i: 1
        i: 1
        i: 1
      }
    }
  }
  attr {
    key: "use_cudnn_on_gpu"
    value {
      b: true
    }
  }
  experimental_debug_info {
    original_node_names: "gradients/conv2/conv2d/Conv2D_grad/Conv2DBackpropInput"
  }
}
node {
  name: "DistributedGradientDescentOptimizer_Allreduce/cond_7/HorovodAllreduce_gradients_conv2_batchnorm2_FusedBatchNormV3_grad_tuple_control_dependency_1_0/Switch"
  op: "Switch"
  input: "gradients/conv2/batchnorm2/FusedBatchNormV3_grad/FusedBatchNormGradV3:1"
  input: "DistributedGradientDescentOptimizer_Allreduce/Const_74/_1"
  device: "/job:localhost/replica:0/task:0/device:GPU:0"
  attr {
    key: "T"
    value {
      type: DT_FLOAT
    }
  }
  attr {
    key: "_class"
    value {
      list {
        s: "loc:@DistributedGradientDescentOptimizer_Allreduce/cond_8/HorovodAllreduce_gradients_conv2_batchnorm2_FusedBatchNormV3_grad_tuple_control_dependency_2_0/Switch"
      }
    }
  }
  attr {
    key: "_output_shapes"
    value {
      list {
        shape {
          dim {
            size: 64
          }
        }
        shape {
          dim {
            size: 64
          }
        }
      }
    }
  }
  experimental_debug_info {
    original_node_names: "DistributedGradientDescentOptimizer_Allreduce/cond_7/HorovodAllreduce_gradients_conv2_batchnorm2_FusedBatchNormV3_grad_tuple_control_dependency_1_0/Switch"
  }
}
node {
  name: "DistributedGradientDescentOptimizer_Allreduce/cond_8/HorovodAllreduce_gradients_conv2_batchnorm2_FusedBatchNormV3_grad_tuple_control_dependency_2_0/Switch"
  op: "Switch"
  input: "gradients/conv2/batchnorm2/FusedBatchNormV3_grad/FusedBatchNormGradV3:2"
  input: "DistributedGradientDescentOptimizer_Allreduce/Const_74/_1"
  device: "/job:localhost/replica:0/task:0/device:GPU:0"
  attr {
    key: "T"
    value {
      type: DT_FLOAT
    }
  }
  attr {
    key: "_output_shapes"
    value {
      list {
        shape {
          dim {
            size: 64
          }
        }
        shape {
          dim {
            size: 64
          }
        }
      }
    }
  }
  experimental_debug_info {
    original_node_names: "DistributedGradientDescentOptimizer_Allreduce/cond_8/HorovodAllreduce_gradients_conv2_batchnorm2_FusedBatchNormV3_grad_tuple_control_dependency_2_0/Switch"
  }
}
node {
  name: "DistributedGradientDescentOptimizer_Allreduce/cond_6/HorovodAllreduce_gradients_conv2_conv2d_Conv2D_grad_tuple_control_dependency_1_0/Switch"
  op: "Switch"
  input: "gradients/conv2/conv2d/Conv2D_grad/Conv2DBackpropFilter"
  input: "DistributedGradientDescentOptimizer_Allreduce/Const_74/_1"
  input: "^gradients/conv2/conv2d/Conv2D_grad/Conv2DBackpropInput"
  device: "/job:localhost/replica:0/task:0/device:GPU:0"
  attr {
    key: "T"
    value {
      type: DT_FLOAT
    }
  }
  attr {
    key: "_output_shapes"
    value {
      list {
        shape {
          dim {
            size: 1
          }
          dim {
            size: 1
          }
          dim {
            size: 64
          }
          dim {
            size: 64
          }
        }
        shape {
          dim {
            size: 1
          }
          dim {
            size: 1
          }
          dim {
            size: 64
          }
          dim {
            size: 64
          }
        }
      }
    }
  }
  experimental_debug_info {
    original_node_names: "DistributedGradientDescentOptimizer_Allreduce/cond_6/HorovodAllreduce_gradients_conv2_conv2d_Conv2D_grad_tuple_control_dependency_1_0/Switch"
  }
}
node {
  name: "gradients/AddN_15"
  op: "AddN"
  input: "gradients/conv1/conv2d/Conv2D_grad/Conv2DBackpropInput"
  input: "gradients/conv2/conv2d/Conv2D_grad/Conv2DBackpropInput"
  input: "^gradients/conv1/conv2d/Conv2D_grad/Conv2DBackpropFilter"
  input: "^gradients/conv2/conv2d/Conv2D_grad/Conv2DBackpropFilter"
  device: "/job:localhost/replica:0/task:0/device:GPU:0"
  attr {
    key: "N"
    value {
      i: 2
    }
  }
  attr {
    key: "T"
    value {
      type: DT_FLOAT
    }
  }
  attr {
    key: "_output_shapes"
    value {
      list {
        shape {
          dim {
            size: 32
          }
          dim {
            size: 64
          }
          dim {
            size: 55
          }
          dim {
            size: 55
          }
        }
      }
    }
  }
  experimental_debug_info {
    original_node_names: "gradients/AddN_15"
  }
}
node {
  name: "DistributedGradientDescentOptimizer_Allreduce/cond_7/HorovodAllreduce_gradients_conv2_batchnorm2_FusedBatchNormV3_grad_tuple_control_dependency_1_0"
  op: "HorovodAllreduce"
  input: "DistributedGradientDescentOptimizer_Allreduce/cond_7/HorovodAllreduce_gradients_conv2_batchnorm2_FusedBatchNormV3_grad_tuple_control_dependency_1_0/Switch:1"
  device: "/job:localhost/replica:0/task:0/device:GPU:0"
  attr {
    key: "T"
    value {
      type: DT_FLOAT
    }
  }
  attr {
    key: "_output_shapes"
    value {
      list {
        shape {
          dim {
            size: 64
          }
        }
      }
    }
  }
  attr {
    key: "postscale_factor"
    value {
      f: 1.0
    }
  }
  attr {
    key: "prescale_factor"
    value {
      f: 1.0
    }
  }
  attr {
    key: "reduce_op"
    value {
      i: 0
    }
  }
  experimental_debug_info {
    original_node_names: "DistributedGradientDescentOptimizer_Allreduce/cond_7/HorovodAllreduce_gradients_conv2_batchnorm2_FusedBatchNormV3_grad_tuple_control_dependency_1_0"
  }
}
node {
  name: "DistributedGradientDescentOptimizer_Allreduce/cond_8/HorovodAllreduce_gradients_conv2_batchnorm2_FusedBatchNormV3_grad_tuple_control_dependency_2_0"
  op: "HorovodAllreduce"
  input: "DistributedGradientDescentOptimizer_Allreduce/cond_8/HorovodAllreduce_gradients_conv2_batchnorm2_FusedBatchNormV3_grad_tuple_control_dependency_2_0/Switch:1"
  device: "/job:localhost/replica:0/task:0/device:GPU:0"
  attr {
    key: "T"
    value {
      type: DT_FLOAT
    }
  }
  attr {
    key: "_output_shapes"
    value {
      list {
        shape {
          dim {
            size: 64
          }
        }
      }
    }
  }
  attr {
    key: "postscale_factor"
    value {
      f: 1.0
    }
  }
  attr {
    key: "prescale_factor"
    value {
      f: 1.0
    }
  }
  attr {
    key: "reduce_op"
    value {
      i: 0
    }
  }
  experimental_debug_info {
    original_node_names: "DistributedGradientDescentOptimizer_Allreduce/cond_8/HorovodAllreduce_gradients_conv2_batchnorm2_FusedBatchNormV3_grad_tuple_control_dependency_2_0"
  }
}
node {
  name: "DistributedGradientDescentOptimizer_Allreduce/cond_6/HorovodAllreduce_gradients_conv2_conv2d_Conv2D_grad_tuple_control_dependency_1_0"
  op: "HorovodAllreduce"
  input: "DistributedGradientDescentOptimizer_Allreduce/cond_6/HorovodAllreduce_gradients_conv2_conv2d_Conv2D_grad_tuple_control_dependency_1_0/Switch:1"
  device: "/job:localhost/replica:0/task:0/device:GPU:0"
  attr {
    key: "T"
    value {
      type: DT_FLOAT
    }
  }
  attr {
    key: "_output_shapes"
    value {
      list {
        shape {
          dim {
            size: 1
          }
          dim {
            size: 1
          }
          dim {
            size: 64
          }
          dim {
            size: 64
          }
        }
      }
    }
  }
  attr {
    key: "postscale_factor"
    value {
      f: 1.0
    }
  }
  attr {
    key: "prescale_factor"
    value {
      f: 1.0
    }
  }
  attr {
    key: "reduce_op"
    value {
      i: 0
    }
  }
  experimental_debug_info {
    original_node_names: "DistributedGradientDescentOptimizer_Allreduce/cond_6/HorovodAllreduce_gradients_conv2_conv2d_Conv2D_grad_tuple_control_dependency_1_0"
  }
}
node {
  name: "gradients/mpool0/MaxPool_grad/MaxPoolGrad"
  op: "MaxPoolGrad"
  input: "conv0/Relu"
  input: "mpool0/MaxPool"
  input: "gradients/AddN_15"
  device: "/job:localhost/replica:0/task:0/device:GPU:0"
  attr {
    key: "T"
    value {
      type: DT_FLOAT
    }
  }
  attr {
    key: "_output_shapes"
    value {
      list {
        shape {
          dim {
            size: 32
          }
          dim {
            size: 64
          }
          dim {
            size: 112
          }
          dim {
            size: 112
          }
        }
      }
    }
  }
  attr {
    key: "data_format"
    value {
      s: "NCHW"
    }
  }
  attr {
    key: "ksize"
    value {
      list {
        i: 1
        i: 1
        i: 3
        i: 3
      }
    }
  }
  attr {
    key: "padding"
    value {
      s: "VALID"
    }
  }
  attr {
    key: "strides"
    value {
      list {
        i: 1
        i: 1
        i: 2
        i: 2
      }
    }
  }
  experimental_debug_info {
    original_node_names: "gradients/mpool0/MaxPool_grad/MaxPoolGrad"
  }
}
node {
  name: "GradientDescent/update_conv2/batchnorm2/gamma/ApplyGradientDescent"
  op: "ApplyGradientDescent"
  input: "conv2/batchnorm2/gamma"
  input: "GradientDescent/learning_rate"
  input: "DistributedGradientDescentOptimizer_Allreduce/cond_7/HorovodAllreduce_gradients_conv2_batchnorm2_FusedBatchNormV3_grad_tuple_control_dependency_1_0"
  device: "/job:localhost/replica:0/task:0/device:GPU:0"
  attr {
    key: "T"
    value {
      type: DT_FLOAT
    }
  }
  attr {
    key: "_output_shapes"
    value {
      list {
        shape {
          dim {
            size: 64
          }
        }
      }
    }
  }
  attr {
    key: "use_locking"
    value {
      b: false
    }
  }
  experimental_debug_info {
    original_node_names: "GradientDescent/update_conv2/batchnorm2/gamma/ApplyGradientDescent"
  }
}
node {
  name: "GradientDescent/update_conv2/batchnorm2/beta/ApplyGradientDescent"
  op: "ApplyGradientDescent"
  input: "conv2/batchnorm2/beta"
  input: "GradientDescent/learning_rate"
  input: "DistributedGradientDescentOptimizer_Allreduce/cond_8/HorovodAllreduce_gradients_conv2_batchnorm2_FusedBatchNormV3_grad_tuple_control_dependency_2_0"
  device: "/job:localhost/replica:0/task:0/device:GPU:0"
  attr {
    key: "T"
    value {
      type: DT_FLOAT
    }
  }
  attr {
    key: "_output_shapes"
    value {
      list {
        shape {
          dim {
            size: 64
          }
        }
      }
    }
  }
  attr {
    key: "use_locking"
    value {
      b: false
    }
  }
  experimental_debug_info {
    original_node_names: "GradientDescent/update_conv2/batchnorm2/beta/ApplyGradientDescent"
  }
}
node {
  name: "GradientDescent/update_conv2/conv2d/kernel/ApplyGradientDescent"
  op: "ApplyGradientDescent"
  input: "conv2/conv2d/kernel"
  input: "GradientDescent/learning_rate"
  input: "DistributedGradientDescentOptimizer_Allreduce/cond_6/HorovodAllreduce_gradients_conv2_conv2d_Conv2D_grad_tuple_control_dependency_1_0"
  device: "/job:localhost/replica:0/task:0/device:GPU:0"
  attr {
    key: "T"
    value {
      type: DT_FLOAT
    }
  }
  attr {
    key: "_output_shapes"
    value {
      list {
        shape {
          dim {
            size: 1
          }
          dim {
            size: 1
          }
          dim {
            size: 64
          }
          dim {
            size: 64
          }
        }
      }
    }
  }
  attr {
    key: "use_locking"
    value {
      b: false
    }
  }
  experimental_debug_info {
    original_node_names: "GradientDescent/update_conv2/conv2d/kernel/ApplyGradientDescent"
  }
}
node {
  name: "gradients/conv0/Relu_grad/ReluGrad"
  op: "ReluGrad"
  input: "gradients/mpool0/MaxPool_grad/MaxPoolGrad"
  input: "conv0/Relu"
  device: "/job:localhost/replica:0/task:0/device:GPU:0"
  attr {
    key: "T"
    value {
      type: DT_FLOAT
    }
  }
  attr {
    key: "_output_shapes"
    value {
      list {
        shape {
          dim {
            size: 32
          }
          dim {
            size: 64
          }
          dim {
            size: 112
          }
          dim {
            size: 112
          }
        }
      }
    }
  }
  experimental_debug_info {
    original_node_names: "gradients/conv0/Relu_grad/ReluGrad"
  }
}
node {
  name: "gradients/conv0/batchnorm0/FusedBatchNormV3_grad/FusedBatchNormGradV3"
  op: "FusedBatchNormGradV3"
  input: "gradients/conv0/Relu_grad/ReluGrad"
  input: "conv0/conv2d/Conv2D"
  input: "conv0/batchnorm0/gamma/read"
  input: "conv0/batchnorm0/FusedBatchNormV3:3"
  input: "conv0/batchnorm0/FusedBatchNormV3:4"
  input: "conv0/batchnorm0/FusedBatchNormV3:5"
  device: "/job:localhost/replica:0/task:0/device:GPU:0"
  attr {
    key: "T"
    value {
      type: DT_FLOAT
    }
  }
  attr {
    key: "U"
    value {
      type: DT_FLOAT
    }
  }
  attr {
    key: "_class"
    value {
      list {
        s: "loc:@DistributedGradientDescentOptimizer_Allreduce/cond_2/HorovodAllreduce_gradients_conv0_batchnorm0_FusedBatchNormV3_grad_tuple_control_dependency_2_0/Switch"
      }
    }
  }
  attr {
    key: "_output_shapes"
    value {
      list {
        shape {
          dim {
            size: 32
          }
          dim {
            size: 64
          }
          dim {
            size: 112
          }
          dim {
            size: 112
          }
        }
        shape {
          dim {
            size: 64
          }
        }
        shape {
          dim {
            size: 64
          }
        }
        shape {
          dim {
          }
        }
        shape {
          dim {
          }
        }
      }
    }
  }
  attr {
    key: "data_format"
    value {
      s: "NCHW"
    }
  }
  attr {
    key: "epsilon"
    value {
      f: 1.9999999494757503e-05
    }
  }
  attr {
    key: "is_training"
    value {
      b: true
    }
  }
  experimental_debug_info {
    original_node_names: "gradients/conv0/batchnorm0/FusedBatchNormV3_grad/FusedBatchNormGradV3"
  }
}
node {
  name: "DistributedGradientDescentOptimizer_Allreduce/cond_1/HorovodAllreduce_gradients_conv0_batchnorm0_FusedBatchNormV3_grad_tuple_control_dependency_1_0/Switch"
  op: "Switch"
  input: "gradients/conv0/batchnorm0/FusedBatchNormV3_grad/FusedBatchNormGradV3:1"
  input: "DistributedGradientDescentOptimizer_Allreduce/Const_74/_1"
  device: "/job:localhost/replica:0/task:0/device:GPU:0"
  attr {
    key: "T"
    value {
      type: DT_FLOAT
    }
  }
  attr {
    key: "_class"
    value {
      list {
        s: "loc:@DistributedGradientDescentOptimizer_Allreduce/cond_2/HorovodAllreduce_gradients_conv0_batchnorm0_FusedBatchNormV3_grad_tuple_control_dependency_2_0/Switch"
      }
    }
  }
  attr {
    key: "_output_shapes"
    value {
      list {
        shape {
          dim {
            size: 64
          }
        }
        shape {
          dim {
            size: 64
          }
        }
      }
    }
  }
  experimental_debug_info {
    original_node_names: "DistributedGradientDescentOptimizer_Allreduce/cond_1/HorovodAllreduce_gradients_conv0_batchnorm0_FusedBatchNormV3_grad_tuple_control_dependency_1_0/Switch"
  }
}
node {
  name: "DistributedGradientDescentOptimizer_Allreduce/cond_2/HorovodAllreduce_gradients_conv0_batchnorm0_FusedBatchNormV3_grad_tuple_control_dependency_2_0/Switch"
  op: "Switch"
  input: "gradients/conv0/batchnorm0/FusedBatchNormV3_grad/FusedBatchNormGradV3:2"
  input: "DistributedGradientDescentOptimizer_Allreduce/Const_74/_1"
  device: "/job:localhost/replica:0/task:0/device:GPU:0"
  attr {
    key: "T"
    value {
      type: DT_FLOAT
    }
  }
  attr {
    key: "_output_shapes"
    value {
      list {
        shape {
          dim {
            size: 64
          }
        }
        shape {
          dim {
            size: 64
          }
        }
      }
    }
  }
  experimental_debug_info {
    original_node_names: "DistributedGradientDescentOptimizer_Allreduce/cond_2/HorovodAllreduce_gradients_conv0_batchnorm0_FusedBatchNormV3_grad_tuple_control_dependency_2_0/Switch"
  }
}
node {
  name: "gradients/conv0/conv2d/Conv2D_grad/Conv2DBackpropFilter"
  op: "Conv2DBackpropFilter"
  input: "conv0/conv2d/Conv2D-0-TransposeNHWCToNCHW-LayoutOptimizer"
  input: "ConstantFolding/gradients/conv0/conv2d/Conv2D_grad/ShapeN-matshapes-1"
  input: "gradients/conv0/batchnorm0/FusedBatchNormV3_grad/FusedBatchNormGradV3"
  device: "/job:localhost/replica:0/task:0/device:GPU:0"
  attr {
    key: "T"
    value {
      type: DT_FLOAT
    }
  }
  attr {
    key: "_class"
    value {
      list {
        s: "loc:@DistributedGradientDescentOptimizer_Allreduce/cond/HorovodAllreduce_gradients_conv0_conv2d_Conv2D_grad_tuple_control_dependency_1_0/Switch"
      }
    }
  }
  attr {
    key: "_output_shapes"
    value {
      list {
        shape {
          dim {
            size: 7
          }
          dim {
            size: 7
          }
          dim {
            size: 3
          }
          dim {
            size: 64
          }
        }
      }
    }
  }
  attr {
    key: "data_format"
    value {
      s: "NCHW"
    }
  }
  attr {
    key: "dilations"
    value {
      list {
        i: 1
        i: 1
        i: 1
        i: 1
      }
    }
  }
  attr {
    key: "explicit_paddings"
    value {
      list {
      }
    }
  }
  attr {
    key: "padding"
    value {
      s: "VALID"
    }
  }
  attr {
    key: "strides"
    value {
      list {
        i: 1
        i: 1
        i: 2
        i: 2
      }
    }
  }
  attr {
    key: "use_cudnn_on_gpu"
    value {
      b: true
    }
  }
  experimental_debug_info {
    original_node_names: "gradients/conv0/conv2d/Conv2D_grad/Conv2DBackpropFilter"
  }
}
node {
  name: "DistributedGradientDescentOptimizer_Allreduce/cond_1/HorovodAllreduce_gradients_conv0_batchnorm0_FusedBatchNormV3_grad_tuple_control_dependency_1_0"
  op: "HorovodAllreduce"
  input: "DistributedGradientDescentOptimizer_Allreduce/cond_1/HorovodAllreduce_gradients_conv0_batchnorm0_FusedBatchNormV3_grad_tuple_control_dependency_1_0/Switch:1"
  device: "/job:localhost/replica:0/task:0/device:GPU:0"
  attr {
    key: "T"
    value {
      type: DT_FLOAT
    }
  }
  attr {
    key: "_output_shapes"
    value {
      list {
        shape {
          dim {
            size: 64
          }
        }
      }
    }
  }
  attr {
    key: "postscale_factor"
    value {
      f: 1.0
    }
  }
  attr {
    key: "prescale_factor"
    value {
      f: 1.0
    }
  }
  attr {
    key: "reduce_op"
    value {
      i: 0
    }
  }
  experimental_debug_info {
    original_node_names: "DistributedGradientDescentOptimizer_Allreduce/cond_1/HorovodAllreduce_gradients_conv0_batchnorm0_FusedBatchNormV3_grad_tuple_control_dependency_1_0"
  }
}
node {
  name: "DistributedGradientDescentOptimizer_Allreduce/cond_2/HorovodAllreduce_gradients_conv0_batchnorm0_FusedBatchNormV3_grad_tuple_control_dependency_2_0"
  op: "HorovodAllreduce"
  input: "DistributedGradientDescentOptimizer_Allreduce/cond_2/HorovodAllreduce_gradients_conv0_batchnorm0_FusedBatchNormV3_grad_tuple_control_dependency_2_0/Switch:1"
  device: "/job:localhost/replica:0/task:0/device:GPU:0"
  attr {
    key: "T"
    value {
      type: DT_FLOAT
    }
  }
  attr {
    key: "_output_shapes"
    value {
      list {
        shape {
          dim {
            size: 64
          }
        }
      }
    }
  }
  attr {
    key: "postscale_factor"
    value {
      f: 1.0
    }
  }
  attr {
    key: "prescale_factor"
    value {
      f: 1.0
    }
  }
  attr {
    key: "reduce_op"
    value {
      i: 0
    }
  }
  experimental_debug_info {
    original_node_names: "DistributedGradientDescentOptimizer_Allreduce/cond_2/HorovodAllreduce_gradients_conv0_batchnorm0_FusedBatchNormV3_grad_tuple_control_dependency_2_0"
  }
}
node {
  name: "DistributedGradientDescentOptimizer_Allreduce/cond/HorovodAllreduce_gradients_conv0_conv2d_Conv2D_grad_tuple_control_dependency_1_0/Switch"
  op: "Switch"
  input: "gradients/conv0/conv2d/Conv2D_grad/Conv2DBackpropFilter"
  input: "DistributedGradientDescentOptimizer_Allreduce/Const_74/_1"
  device: "/job:localhost/replica:0/task:0/device:GPU:0"
  attr {
    key: "T"
    value {
      type: DT_FLOAT
    }
  }
  attr {
    key: "_output_shapes"
    value {
      list {
        shape {
          dim {
            size: 7
          }
          dim {
            size: 7
          }
          dim {
            size: 3
          }
          dim {
            size: 64
          }
        }
        shape {
          dim {
            size: 7
          }
          dim {
            size: 7
          }
          dim {
            size: 3
          }
          dim {
            size: 64
          }
        }
      }
    }
  }
  experimental_debug_info {
    original_node_names: "DistributedGradientDescentOptimizer_Allreduce/cond/HorovodAllreduce_gradients_conv0_conv2d_Conv2D_grad_tuple_control_dependency_1_0/Switch"
  }
}
node {
  name: "GradientDescent/update_conv0/batchnorm0/gamma/ApplyGradientDescent"
  op: "ApplyGradientDescent"
  input: "conv0/batchnorm0/gamma"
  input: "GradientDescent/learning_rate"
  input: "DistributedGradientDescentOptimizer_Allreduce/cond_1/HorovodAllreduce_gradients_conv0_batchnorm0_FusedBatchNormV3_grad_tuple_control_dependency_1_0"
  device: "/job:localhost/replica:0/task:0/device:GPU:0"
  attr {
    key: "T"
    value {
      type: DT_FLOAT
    }
  }
  attr {
    key: "_output_shapes"
    value {
      list {
        shape {
          dim {
            size: 64
          }
        }
      }
    }
  }
  attr {
    key: "use_locking"
    value {
      b: false
    }
  }
  experimental_debug_info {
    original_node_names: "GradientDescent/update_conv0/batchnorm0/gamma/ApplyGradientDescent"
  }
}
node {
  name: "GradientDescent/update_conv0/batchnorm0/beta/ApplyGradientDescent"
  op: "ApplyGradientDescent"
  input: "conv0/batchnorm0/beta"
  input: "GradientDescent/learning_rate"
  input: "DistributedGradientDescentOptimizer_Allreduce/cond_2/HorovodAllreduce_gradients_conv0_batchnorm0_FusedBatchNormV3_grad_tuple_control_dependency_2_0"
  device: "/job:localhost/replica:0/task:0/device:GPU:0"
  attr {
    key: "T"
    value {
      type: DT_FLOAT
    }
  }
  attr {
    key: "_output_shapes"
    value {
      list {
        shape {
          dim {
            size: 64
          }
        }
      }
    }
  }
  attr {
    key: "use_locking"
    value {
      b: false
    }
  }
  experimental_debug_info {
    original_node_names: "GradientDescent/update_conv0/batchnorm0/beta/ApplyGradientDescent"
  }
}
node {
  name: "DistributedGradientDescentOptimizer_Allreduce/cond/HorovodAllreduce_gradients_conv0_conv2d_Conv2D_grad_tuple_control_dependency_1_0"
  op: "HorovodAllreduce"
  input: "DistributedGradientDescentOptimizer_Allreduce/cond/HorovodAllreduce_gradients_conv0_conv2d_Conv2D_grad_tuple_control_dependency_1_0/Switch:1"
  device: "/job:localhost/replica:0/task:0/device:GPU:0"
  attr {
    key: "T"
    value {
      type: DT_FLOAT
    }
  }
  attr {
    key: "_output_shapes"
    value {
      list {
        shape {
          dim {
            size: 7
          }
          dim {
            size: 7
          }
          dim {
            size: 3
          }
          dim {
            size: 64
          }
        }
      }
    }
  }
  attr {
    key: "postscale_factor"
    value {
      f: 1.0
    }
  }
  attr {
    key: "prescale_factor"
    value {
      f: 1.0
    }
  }
  attr {
    key: "reduce_op"
    value {
      i: 0
    }
  }
  experimental_debug_info {
    original_node_names: "DistributedGradientDescentOptimizer_Allreduce/cond/HorovodAllreduce_gradients_conv0_conv2d_Conv2D_grad_tuple_control_dependency_1_0"
  }
}
node {
  name: "GradientDescent/update_conv0/conv2d/kernel/ApplyGradientDescent"
  op: "ApplyGradientDescent"
  input: "conv0/conv2d/kernel"
  input: "GradientDescent/learning_rate"
  input: "DistributedGradientDescentOptimizer_Allreduce/cond/HorovodAllreduce_gradients_conv0_conv2d_Conv2D_grad_tuple_control_dependency_1_0"
  device: "/job:localhost/replica:0/task:0/device:GPU:0"
  attr {
    key: "T"
    value {
      type: DT_FLOAT
    }
  }
  attr {
    key: "_output_shapes"
    value {
      list {
        shape {
          dim {
            size: 7
          }
          dim {
            size: 7
          }
          dim {
            size: 3
          }
          dim {
            size: 64
          }
        }
      }
    }
  }
  attr {
    key: "use_locking"
    value {
      b: false
    }
  }
  experimental_debug_info {
    original_node_names: "GradientDescent/update_conv0/conv2d/kernel/ApplyGradientDescent"
  }
}
node {
  name: "GradientDescent"
  op: "NoOp"
  input: "^GradientDescent/update_affine0/biases/ApplyGradientDescent"
  input: "^GradientDescent/update_affine0/weights/ApplyGradientDescent"
  input: "^GradientDescent/update_conv0/batchnorm0/beta/ApplyGradientDescent"
  input: "^GradientDescent/update_conv0/batchnorm0/gamma/ApplyGradientDescent"
  input: "^GradientDescent/update_conv0/conv2d/kernel/ApplyGradientDescent"
  input: "^GradientDescent/update_conv1/batchnorm1/beta/ApplyGradientDescent"
  input: "^GradientDescent/update_conv1/batchnorm1/gamma/ApplyGradientDescent"
  input: "^GradientDescent/update_conv1/conv2d/kernel/ApplyGradientDescent"
  input: "^GradientDescent/update_conv10/batchnorm10/beta/ApplyGradientDescent"
  input: "^GradientDescent/update_conv10/batchnorm10/gamma/ApplyGradientDescent"
  input: "^GradientDescent/update_conv10/conv2d/kernel/ApplyGradientDescent"
  input: "^GradientDescent/update_conv11/batchnorm11/beta/ApplyGradientDescent"
  input: "^GradientDescent/update_conv11/batchnorm11/gamma/ApplyGradientDescent"
  input: "^GradientDescent/update_conv11/conv2d/kernel/ApplyGradientDescent"
  input: "^GradientDescent/update_conv12/batchnorm12/beta/ApplyGradientDescent"
  input: "^GradientDescent/update_conv12/batchnorm12/gamma/ApplyGradientDescent"
  input: "^GradientDescent/update_conv12/conv2d/kernel/ApplyGradientDescent"
  input: "^GradientDescent/update_conv13/batchnorm13/beta/ApplyGradientDescent"
  input: "^GradientDescent/update_conv13/batchnorm13/gamma/ApplyGradientDescent"
  input: "^GradientDescent/update_conv13/conv2d/kernel/ApplyGradientDescent"
  input: "^GradientDescent/update_conv14/batchnorm14/beta/ApplyGradientDescent"
  input: "^GradientDescent/update_conv14/batchnorm14/gamma/ApplyGradientDescent"
  input: "^GradientDescent/update_conv14/conv2d/kernel/ApplyGradientDescent"
  input: "^GradientDescent/update_conv15/batchnorm15/beta/ApplyGradientDescent"
  input: "^GradientDescent/update_conv15/batchnorm15/gamma/ApplyGradientDescent"
  input: "^GradientDescent/update_conv15/conv2d/kernel/ApplyGradientDescent"
  input: "^GradientDescent/update_conv16/batchnorm16/beta/ApplyGradientDescent"
  input: "^GradientDescent/update_conv16/batchnorm16/gamma/ApplyGradientDescent"
  input: "^GradientDescent/update_conv16/conv2d/kernel/ApplyGradientDescent"
  input: "^GradientDescent/update_conv17/batchnorm17/beta/ApplyGradientDescent"
  input: "^GradientDescent/update_conv17/batchnorm17/gamma/ApplyGradientDescent"
  input: "^GradientDescent/update_conv17/conv2d/kernel/ApplyGradientDescent"
  input: "^GradientDescent/update_conv18/batchnorm18/beta/ApplyGradientDescent"
  input: "^GradientDescent/update_conv18/batchnorm18/gamma/ApplyGradientDescent"
  input: "^GradientDescent/update_conv18/conv2d/kernel/ApplyGradientDescent"
  input: "^GradientDescent/update_conv19/batchnorm19/beta/ApplyGradientDescent"
  input: "^GradientDescent/update_conv19/batchnorm19/gamma/ApplyGradientDescent"
  input: "^GradientDescent/update_conv19/conv2d/kernel/ApplyGradientDescent"
  input: "^GradientDescent/update_conv2/batchnorm2/beta/ApplyGradientDescent"
  input: "^GradientDescent/update_conv2/batchnorm2/gamma/ApplyGradientDescent"
  input: "^GradientDescent/update_conv2/conv2d/kernel/ApplyGradientDescent"
  input: "^GradientDescent/update_conv20/batchnorm20/beta/ApplyGradientDescent"
  input: "^GradientDescent/update_conv20/batchnorm20/gamma/ApplyGradientDescent"
  input: "^GradientDescent/update_conv20/conv2d/kernel/ApplyGradientDescent"
  input: "^GradientDescent/update_conv21/batchnorm21/beta/ApplyGradientDescent"
  input: "^GradientDescent/update_conv21/batchnorm21/gamma/ApplyGradientDescent"
  input: "^GradientDescent/update_conv21/conv2d/kernel/ApplyGradientDescent"
  input: "^GradientDescent/update_conv22/batchnorm22/beta/ApplyGradientDescent"
  input: "^GradientDescent/update_conv22/batchnorm22/gamma/ApplyGradientDescent"
  input: "^GradientDescent/update_conv22/conv2d/kernel/ApplyGradientDescent"
  input: "^GradientDescent/update_conv23/batchnorm23/beta/ApplyGradientDescent"
  input: "^GradientDescent/update_conv23/batchnorm23/gamma/ApplyGradientDescent"
  input: "^GradientDescent/update_conv23/conv2d/kernel/ApplyGradientDescent"
  input: "^GradientDescent/update_conv24/batchnorm24/beta/ApplyGradientDescent"
  input: "^GradientDescent/update_conv24/batchnorm24/gamma/ApplyGradientDescent"
  input: "^GradientDescent/update_conv24/conv2d/kernel/ApplyGradientDescent"
  input: "^GradientDescent/update_conv25/batchnorm25/beta/ApplyGradientDescent"
  input: "^GradientDescent/update_conv25/batchnorm25/gamma/ApplyGradientDescent"
  input: "^GradientDescent/update_conv25/conv2d/kernel/ApplyGradientDescent"
  input: "^GradientDescent/update_conv26/batchnorm26/beta/ApplyGradientDescent"
  input: "^GradientDescent/update_conv26/batchnorm26/gamma/ApplyGradientDescent"
  input: "^GradientDescent/update_conv26/conv2d/kernel/ApplyGradientDescent"
  input: "^GradientDescent/update_conv27/batchnorm27/beta/ApplyGradientDescent"
  input: "^GradientDescent/update_conv27/batchnorm27/gamma/ApplyGradientDescent"
  input: "^GradientDescent/update_conv27/conv2d/kernel/ApplyGradientDescent"
  input: "^GradientDescent/update_conv28/batchnorm28/beta/ApplyGradientDescent"
  input: "^GradientDescent/update_conv28/batchnorm28/gamma/ApplyGradientDescent"
  input: "^GradientDescent/update_conv28/conv2d/kernel/ApplyGradientDescent"
  input: "^GradientDescent/update_conv29/batchnorm29/beta/ApplyGradientDescent"
  input: "^GradientDescent/update_conv29/batchnorm29/gamma/ApplyGradientDescent"
  input: "^GradientDescent/update_conv29/conv2d/kernel/ApplyGradientDescent"
  input: "^GradientDescent/update_conv3/batchnorm3/beta/ApplyGradientDescent"
  input: "^GradientDescent/update_conv3/batchnorm3/gamma/ApplyGradientDescent"
  input: "^GradientDescent/update_conv3/conv2d/kernel/ApplyGradientDescent"
  input: "^GradientDescent/update_conv30/batchnorm30/beta/ApplyGradientDescent"
  input: "^GradientDescent/update_conv30/batchnorm30/gamma/ApplyGradientDescent"
  input: "^GradientDescent/update_conv30/conv2d/kernel/ApplyGradientDescent"
  input: "^GradientDescent/update_conv31/batchnorm31/beta/ApplyGradientDescent"
  input: "^GradientDescent/update_conv31/batchnorm31/gamma/ApplyGradientDescent"
  input: "^GradientDescent/update_conv31/conv2d/kernel/ApplyGradientDescent"
  input: "^GradientDescent/update_conv32/batchnorm32/beta/ApplyGradientDescent"
  input: "^GradientDescent/update_conv32/batchnorm32/gamma/ApplyGradientDescent"
  input: "^GradientDescent/update_conv32/conv2d/kernel/ApplyGradientDescent"
  input: "^GradientDescent/update_conv33/batchnorm33/beta/ApplyGradientDescent"
  input: "^GradientDescent/update_conv33/batchnorm33/gamma/ApplyGradientDescent"
  input: "^GradientDescent/update_conv33/conv2d/kernel/ApplyGradientDescent"
  input: "^GradientDescent/update_conv34/batchnorm34/beta/ApplyGradientDescent"
  input: "^GradientDescent/update_conv34/batchnorm34/gamma/ApplyGradientDescent"
  input: "^GradientDescent/update_conv34/conv2d/kernel/ApplyGradientDescent"
  input: "^GradientDescent/update_conv35/batchnorm35/beta/ApplyGradientDescent"
  input: "^GradientDescent/update_conv35/batchnorm35/gamma/ApplyGradientDescent"
  input: "^GradientDescent/update_conv35/conv2d/kernel/ApplyGradientDescent"
  input: "^GradientDescent/update_conv36/batchnorm36/beta/ApplyGradientDescent"
  input: "^GradientDescent/update_conv36/batchnorm36/gamma/ApplyGradientDescent"
  input: "^GradientDescent/update_conv36/conv2d/kernel/ApplyGradientDescent"
  input: "^GradientDescent/update_conv37/batchnorm37/beta/ApplyGradientDescent"
  input: "^GradientDescent/update_conv37/batchnorm37/gamma/ApplyGradientDescent"
  input: "^GradientDescent/update_conv37/conv2d/kernel/ApplyGradientDescent"
  input: "^GradientDescent/update_conv38/batchnorm38/beta/ApplyGradientDescent"
  input: "^GradientDescent/update_conv38/batchnorm38/gamma/ApplyGradientDescent"
  input: "^GradientDescent/update_conv38/conv2d/kernel/ApplyGradientDescent"
  input: "^GradientDescent/update_conv39/batchnorm39/beta/ApplyGradientDescent"
  input: "^GradientDescent/update_conv39/batchnorm39/gamma/ApplyGradientDescent"
  input: "^GradientDescent/update_conv39/conv2d/kernel/ApplyGradientDescent"
  input: "^GradientDescent/update_conv4/batchnorm4/beta/ApplyGradientDescent"
  input: "^GradientDescent/update_conv4/batchnorm4/gamma/ApplyGradientDescent"
  input: "^GradientDescent/update_conv4/conv2d/kernel/ApplyGradientDescent"
  input: "^GradientDescent/update_conv40/batchnorm40/beta/ApplyGradientDescent"
  input: "^GradientDescent/update_conv40/batchnorm40/gamma/ApplyGradientDescent"
  input: "^GradientDescent/update_conv40/conv2d/kernel/ApplyGradientDescent"
  input: "^GradientDescent/update_conv41/batchnorm41/beta/ApplyGradientDescent"
  input: "^GradientDescent/update_conv41/batchnorm41/gamma/ApplyGradientDescent"
  input: "^GradientDescent/update_conv41/conv2d/kernel/ApplyGradientDescent"
  input: "^GradientDescent/update_conv42/batchnorm42/beta/ApplyGradientDescent"
  input: "^GradientDescent/update_conv42/batchnorm42/gamma/ApplyGradientDescent"
  input: "^GradientDescent/update_conv42/conv2d/kernel/ApplyGradientDescent"
  input: "^GradientDescent/update_conv43/batchnorm43/beta/ApplyGradientDescent"
  input: "^GradientDescent/update_conv43/batchnorm43/gamma/ApplyGradientDescent"
  input: "^GradientDescent/update_conv43/conv2d/kernel/ApplyGradientDescent"
  input: "^GradientDescent/update_conv44/batchnorm44/beta/ApplyGradientDescent"
  input: "^GradientDescent/update_conv44/batchnorm44/gamma/ApplyGradientDescent"
  input: "^GradientDescent/update_conv44/conv2d/kernel/ApplyGradientDescent"
  input: "^GradientDescent/update_conv45/batchnorm45/beta/ApplyGradientDescent"
  input: "^GradientDescent/update_conv45/batchnorm45/gamma/ApplyGradientDescent"
  input: "^GradientDescent/update_conv45/conv2d/kernel/ApplyGradientDescent"
  input: "^GradientDescent/update_conv46/batchnorm46/beta/ApplyGradientDescent"
  input: "^GradientDescent/update_conv46/batchnorm46/gamma/ApplyGradientDescent"
  input: "^GradientDescent/update_conv46/conv2d/kernel/ApplyGradientDescent"
  input: "^GradientDescent/update_conv47/batchnorm47/beta/ApplyGradientDescent"
  input: "^GradientDescent/update_conv47/batchnorm47/gamma/ApplyGradientDescent"
  input: "^GradientDescent/update_conv47/conv2d/kernel/ApplyGradientDescent"
  input: "^GradientDescent/update_conv48/batchnorm48/beta/ApplyGradientDescent"
  input: "^GradientDescent/update_conv48/batchnorm48/gamma/ApplyGradientDescent"
  input: "^GradientDescent/update_conv48/conv2d/kernel/ApplyGradientDescent"
  input: "^GradientDescent/update_conv49/batchnorm49/beta/ApplyGradientDescent"
  input: "^GradientDescent/update_conv49/batchnorm49/gamma/ApplyGradientDescent"
  input: "^GradientDescent/update_conv49/conv2d/kernel/ApplyGradientDescent"
  input: "^GradientDescent/update_conv5/batchnorm5/beta/ApplyGradientDescent"
  input: "^GradientDescent/update_conv5/batchnorm5/gamma/ApplyGradientDescent"
  input: "^GradientDescent/update_conv5/conv2d/kernel/ApplyGradientDescent"
  input: "^GradientDescent/update_conv50/batchnorm50/beta/ApplyGradientDescent"
  input: "^GradientDescent/update_conv50/batchnorm50/gamma/ApplyGradientDescent"
  input: "^GradientDescent/update_conv50/conv2d/kernel/ApplyGradientDescent"
  input: "^GradientDescent/update_conv51/batchnorm51/beta/ApplyGradientDescent"
  input: "^GradientDescent/update_conv51/batchnorm51/gamma/ApplyGradientDescent"
  input: "^GradientDescent/update_conv51/conv2d/kernel/ApplyGradientDescent"
  input: "^GradientDescent/update_conv52/batchnorm52/beta/ApplyGradientDescent"
  input: "^GradientDescent/update_conv52/batchnorm52/gamma/ApplyGradientDescent"
  input: "^GradientDescent/update_conv52/conv2d/kernel/ApplyGradientDescent"
  input: "^GradientDescent/update_conv6/batchnorm6/beta/ApplyGradientDescent"
  input: "^GradientDescent/update_conv6/batchnorm6/gamma/ApplyGradientDescent"
  input: "^GradientDescent/update_conv6/conv2d/kernel/ApplyGradientDescent"
  input: "^GradientDescent/update_conv7/batchnorm7/beta/ApplyGradientDescent"
  input: "^GradientDescent/update_conv7/batchnorm7/gamma/ApplyGradientDescent"
  input: "^GradientDescent/update_conv7/conv2d/kernel/ApplyGradientDescent"
  input: "^GradientDescent/update_conv8/batchnorm8/beta/ApplyGradientDescent"
  input: "^GradientDescent/update_conv8/batchnorm8/gamma/ApplyGradientDescent"
  input: "^GradientDescent/update_conv8/conv2d/kernel/ApplyGradientDescent"
  input: "^GradientDescent/update_conv9/batchnorm9/beta/ApplyGradientDescent"
  input: "^GradientDescent/update_conv9/batchnorm9/gamma/ApplyGradientDescent"
  input: "^GradientDescent/update_conv9/conv2d/kernel/ApplyGradientDescent"
  device: "/job:localhost/replica:0/task:0/device:GPU:0"
  experimental_debug_info {
    original_node_names: "GradientDescent"
  }
}
versions {
  producer: 134
}
