node {
  name: "gradients/incept_v3_a0_1/concat_grad/Slice-1-DataFormatVecPermuteNHWCToNCHW-LayoutOptimizer"
  op: "Const"
  device: "/job:localhost/replica:0/task:0/device:GPU:0"
  attr {
    key: "_output_shapes"
    value {
      list {
        shape {
          dim {
            size: 4
          }
        }
      }
    }
  }
  attr {
    key: "dtype"
    value {
      type: DT_INT32
    }
  }
  attr {
    key: "value"
    value {
      tensor {
        dtype: DT_INT32
        tensor_shape {
          dim {
            size: 4
          }
        }
        tensor_content: "\000\000\000\000\000\000\000\000\000\000\000\000\000\000\000\000"
      }
    }
  }
  experimental_debug_info {
    original_node_names: "gradients/incept_v3_a0_1/concat_grad/Slice-1-DataFormatVecPermuteNHWCToNCHW-LayoutOptimizer"
  }
}
node {
  name: "gradients/incept_v3_c0_1/concat_grad/Slice_1-1-DataFormatVecPermuteNHWCToNCHW-LayoutOptimizer"
  op: "Const"
  device: "/job:localhost/replica:0/task:0/device:GPU:0"
  attr {
    key: "_output_shapes"
    value {
      list {
        shape {
          dim {
            size: 4
          }
        }
      }
    }
  }
  attr {
    key: "dtype"
    value {
      type: DT_INT32
    }
  }
  attr {
    key: "value"
    value {
      tensor {
        dtype: DT_INT32
        tensor_shape {
          dim {
            size: 4
          }
        }
        tensor_content: "\000\000\000\000\300\000\000\000\000\000\000\000\000\000\000\000"
      }
    }
  }
  experimental_debug_info {
    original_node_names: "gradients/incept_v3_c0_1/concat_grad/Slice_1-1-DataFormatVecPermuteNHWCToNCHW-LayoutOptimizer"
  }
}
node {
  name: "gradients/incept_v3_c0/concat_grad/Slice_2-1-DataFormatVecPermuteNHWCToNCHW-LayoutOptimizer"
  op: "Const"
  device: "/job:localhost/replica:0/task:0/device:GPU:0"
  attr {
    key: "_output_shapes"
    value {
      list {
        shape {
          dim {
            size: 4
          }
        }
      }
    }
  }
  attr {
    key: "dtype"
    value {
      type: DT_INT32
    }
  }
  attr {
    key: "value"
    value {
      tensor {
        dtype: DT_INT32
        tensor_shape {
          dim {
            size: 4
          }
        }
        tensor_content: "\000\000\000\000\200\001\000\000\000\000\000\000\000\000\000\000"
      }
    }
  }
  experimental_debug_info {
    original_node_names: "gradients/incept_v3_c0/concat_grad/Slice_2-1-DataFormatVecPermuteNHWCToNCHW-LayoutOptimizer"
  }
}
node {
  name: "gradients/incept_v3_c0_1/concat_grad/Slice_3-1-DataFormatVecPermuteNHWCToNCHW-LayoutOptimizer"
  op: "Const"
  device: "/job:localhost/replica:0/task:0/device:GPU:0"
  attr {
    key: "_output_shapes"
    value {
      list {
        shape {
          dim {
            size: 4
          }
        }
      }
    }
  }
  attr {
    key: "dtype"
    value {
      type: DT_INT32
    }
  }
  attr {
    key: "value"
    value {
      tensor {
        dtype: DT_INT32
        tensor_shape {
          dim {
            size: 4
          }
        }
        tensor_content: "\000\000\000\000@\002\000\000\000\000\000\000\000\000\000\000"
      }
    }
  }
  experimental_debug_info {
    original_node_names: "gradients/incept_v3_c0_1/concat_grad/Slice_3-1-DataFormatVecPermuteNHWCToNCHW-LayoutOptimizer"
  }
}
node {
  name: "gradients/incept_v3_a0_1/concat_grad/Slice_1-1-DataFormatVecPermuteNHWCToNCHW-LayoutOptimizer"
  op: "Const"
  device: "/job:localhost/replica:0/task:0/device:GPU:0"
  attr {
    key: "_output_shapes"
    value {
      list {
        shape {
          dim {
            size: 4
          }
        }
      }
    }
  }
  attr {
    key: "dtype"
    value {
      type: DT_INT32
    }
  }
  attr {
    key: "value"
    value {
      tensor {
        dtype: DT_INT32
        tensor_shape {
          dim {
            size: 4
          }
        }
        tensor_content: "\000\000\000\000@\000\000\000\000\000\000\000\000\000\000\000"
      }
    }
  }
  experimental_debug_info {
    original_node_names: "gradients/incept_v3_a0_1/concat_grad/Slice_1-1-DataFormatVecPermuteNHWCToNCHW-LayoutOptimizer"
  }
}
node {
  name: "gradients/incept_v3_a0_1/concat_grad/Slice_2-1-DataFormatVecPermuteNHWCToNCHW-LayoutOptimizer"
  op: "Const"
  device: "/job:localhost/replica:0/task:0/device:GPU:0"
  attr {
    key: "_output_shapes"
    value {
      list {
        shape {
          dim {
            size: 4
          }
        }
      }
    }
  }
  attr {
    key: "dtype"
    value {
      type: DT_INT32
    }
  }
  attr {
    key: "value"
    value {
      tensor {
        dtype: DT_INT32
        tensor_shape {
          dim {
            size: 4
          }
        }
        tensor_content: "\000\000\000\000\200\000\000\000\000\000\000\000\000\000\000\000"
      }
    }
  }
  experimental_debug_info {
    original_node_names: "gradients/incept_v3_a0_1/concat_grad/Slice_2-1-DataFormatVecPermuteNHWCToNCHW-LayoutOptimizer"
  }
}
node {
  name: "gradients/incept_v3_a0_1/concat_grad/Slice_3-1-DataFormatVecPermuteNHWCToNCHW-LayoutOptimizer"
  op: "Const"
  device: "/job:localhost/replica:0/task:0/device:GPU:0"
  attr {
    key: "_output_shapes"
    value {
      list {
        shape {
          dim {
            size: 4
          }
        }
      }
    }
  }
  attr {
    key: "dtype"
    value {
      type: DT_INT32
    }
  }
  attr {
    key: "value"
    value {
      tensor {
        dtype: DT_INT32
        tensor_shape {
          dim {
            size: 4
          }
        }
        tensor_content: "\000\000\000\000\340\000\000\000\000\000\000\000\000\000\000\000"
      }
    }
  }
  experimental_debug_info {
    original_node_names: "gradients/incept_v3_a0_1/concat_grad/Slice_3-1-DataFormatVecPermuteNHWCToNCHW-LayoutOptimizer"
  }
}
node {
  name: "gradients/incept_v3_b0/concat_grad/Slice_2-1-DataFormatVecPermuteNHWCToNCHW-LayoutOptimizer"
  op: "Const"
  device: "/job:localhost/replica:0/task:0/device:GPU:0"
  attr {
    key: "_output_shapes"
    value {
      list {
        shape {
          dim {
            size: 4
          }
        }
      }
    }
  }
  attr {
    key: "dtype"
    value {
      type: DT_INT32
    }
  }
  attr {
    key: "value"
    value {
      tensor {
        dtype: DT_INT32
        tensor_shape {
          dim {
            size: 4
          }
        }
        tensor_content: "\000\000\000\000\340\001\000\000\000\000\000\000\000\000\000\000"
      }
    }
  }
  experimental_debug_info {
    original_node_names: "gradients/incept_v3_b0/concat_grad/Slice_2-1-DataFormatVecPermuteNHWCToNCHW-LayoutOptimizer"
  }
}
node {
  name: "gradients/incept_v3_e0/concat_grad/Slice_1-1-DataFormatVecPermuteNHWCToNCHW-LayoutOptimizer"
  op: "Const"
  device: "/job:localhost/replica:0/task:0/device:GPU:0"
  attr {
    key: "_output_shapes"
    value {
      list {
        shape {
          dim {
            size: 4
          }
        }
      }
    }
  }
  attr {
    key: "dtype"
    value {
      type: DT_INT32
    }
  }
  attr {
    key: "value"
    value {
      tensor {
        dtype: DT_INT32
        tensor_shape {
          dim {
            size: 4
          }
        }
        tensor_content: "\000\000\000\000@\001\000\000\000\000\000\000\000\000\000\000"
      }
    }
  }
  experimental_debug_info {
    original_node_names: "gradients/incept_v3_e0/concat_grad/Slice_1-1-DataFormatVecPermuteNHWCToNCHW-LayoutOptimizer"
  }
}
node {
  name: "gradients/incept_v3_e0_1/concat_grad/Slice_2-1-DataFormatVecPermuteNHWCToNCHW-LayoutOptimizer"
  op: "Const"
  device: "/job:localhost/replica:0/task:0/device:GPU:0"
  attr {
    key: "_output_shapes"
    value {
      list {
        shape {
          dim {
            size: 4
          }
        }
      }
    }
  }
  attr {
    key: "dtype"
    value {
      type: DT_INT32
    }
  }
  attr {
    key: "value"
    value {
      tensor {
        dtype: DT_INT32
        tensor_shape {
          dim {
            size: 4
          }
        }
        tensor_content: "\000\000\000\000\300\002\000\000\000\000\000\000\000\000\000\000"
      }
    }
  }
  experimental_debug_info {
    original_node_names: "gradients/incept_v3_e0_1/concat_grad/Slice_2-1-DataFormatVecPermuteNHWCToNCHW-LayoutOptimizer"
  }
}
node {
  name: "gradients/incept_v3_e0_1/concat_grad/Slice_3-1-DataFormatVecPermuteNHWCToNCHW-LayoutOptimizer"
  op: "Const"
  device: "/job:localhost/replica:0/task:0/device:GPU:0"
  attr {
    key: "_output_shapes"
    value {
      list {
        shape {
          dim {
            size: 4
          }
        }
      }
    }
  }
  attr {
    key: "dtype"
    value {
      type: DT_INT32
    }
  }
  attr {
    key: "value"
    value {
      tensor {
        dtype: DT_INT32
        tensor_shape {
          dim {
            size: 4
          }
        }
        tensor_content: "\000\000\000\000@\004\000\000\000\000\000\000\000\000\000\000"
      }
    }
  }
  experimental_debug_info {
    original_node_names: "gradients/incept_v3_e0_1/concat_grad/Slice_3-1-DataFormatVecPermuteNHWCToNCHW-LayoutOptimizer"
  }
}
node {
  name: "gradients/incept_v3_e0_1/concat_grad/Slice_4-1-DataFormatVecPermuteNHWCToNCHW-LayoutOptimizer"
  op: "Const"
  device: "/job:localhost/replica:0/task:0/device:GPU:0"
  attr {
    key: "_output_shapes"
    value {
      list {
        shape {
          dim {
            size: 4
          }
        }
      }
    }
  }
  attr {
    key: "dtype"
    value {
      type: DT_INT32
    }
  }
  attr {
    key: "value"
    value {
      tensor {
        dtype: DT_INT32
        tensor_shape {
          dim {
            size: 4
          }
        }
        tensor_content: "\000\000\000\000\300\005\000\000\000\000\000\000\000\000\000\000"
      }
    }
  }
  experimental_debug_info {
    original_node_names: "gradients/incept_v3_e0_1/concat_grad/Slice_4-1-DataFormatVecPermuteNHWCToNCHW-LayoutOptimizer"
  }
}
node {
  name: "gradients/incept_v3_e0_1/concat_grad/Slice_5-1-DataFormatVecPermuteNHWCToNCHW-LayoutOptimizer"
  op: "Const"
  device: "/job:localhost/replica:0/task:0/device:GPU:0"
  attr {
    key: "_output_shapes"
    value {
      list {
        shape {
          dim {
            size: 4
          }
        }
      }
    }
  }
  attr {
    key: "dtype"
    value {
      type: DT_INT32
    }
  }
  attr {
    key: "value"
    value {
      tensor {
        dtype: DT_INT32
        tensor_shape {
          dim {
            size: 4
          }
        }
        tensor_content: "\000\000\000\000@\007\000\000\000\000\000\000\000\000\000\000"
      }
    }
  }
  experimental_debug_info {
    original_node_names: "gradients/incept_v3_e0_1/concat_grad/Slice_5-1-DataFormatVecPermuteNHWCToNCHW-LayoutOptimizer"
  }
}
node {
  name: "gradients/incept_v3_d0/concat_grad/Slice_2-1-DataFormatVecPermuteNHWCToNCHW-LayoutOptimizer"
  op: "Const"
  device: "/job:localhost/replica:0/task:0/device:GPU:0"
  attr {
    key: "_output_shapes"
    value {
      list {
        shape {
          dim {
            size: 4
          }
        }
      }
    }
  }
  attr {
    key: "dtype"
    value {
      type: DT_INT32
    }
  }
  attr {
    key: "value"
    value {
      tensor {
        dtype: DT_INT32
        tensor_shape {
          dim {
            size: 4
          }
        }
        tensor_content: "\000\000\000\000\000\002\000\000\000\000\000\000\000\000\000\000"
      }
    }
  }
  experimental_debug_info {
    original_node_names: "gradients/incept_v3_d0/concat_grad/Slice_2-1-DataFormatVecPermuteNHWCToNCHW-LayoutOptimizer"
  }
}
node {
  name: "labels_cast"
  op: "Const"
  device: "/job:localhost/replica:0/task:0/device:GPU:0"
  attr {
    key: "_output_shapes"
    value {
      list {
        shape {
          dim {
            size: 32
          }
        }
      }
    }
  }
  attr {
    key: "dtype"
    value {
      type: DT_INT64
    }
  }
  attr {
    key: "value"
    value {
      tensor {
        dtype: DT_INT64
        tensor_shape {
          dim {
            size: 32
          }
        }
        int64_val: 0
      }
    }
  }
  experimental_debug_info {
    original_node_names: "labels_cast"
  }
}
node {
  name: "conv0/conv2d/kernel"
  op: "VariableV2"
  device: "/job:localhost/replica:0/task:0/device:GPU:0"
  attr {
    key: "_class"
    value {
      list {
        s: "loc:@GradientDescent/update_conv0/conv2d/kernel/ApplyGradientDescent"
      }
    }
  }
  attr {
    key: "_output_shapes"
    value {
      list {
        shape {
          dim {
            size: 3
          }
          dim {
            size: 3
          }
          dim {
            size: 3
          }
          dim {
            size: 32
          }
        }
      }
    }
  }
  attr {
    key: "container"
    value {
      s: ""
    }
  }
  attr {
    key: "dtype"
    value {
      type: DT_FLOAT
    }
  }
  attr {
    key: "shape"
    value {
      shape {
        dim {
          size: 3
        }
        dim {
          size: 3
        }
        dim {
          size: 3
        }
        dim {
          size: 32
        }
      }
    }
  }
  attr {
    key: "shared_name"
    value {
      s: ""
    }
  }
  experimental_debug_info {
    original_node_names: "conv0/conv2d/kernel"
  }
}
node {
  name: "conv0/batchnorm0/Const"
  op: "Const"
  device: "/job:localhost/replica:0/task:0/device:GPU:0"
  attr {
    key: "_output_shapes"
    value {
      list {
        shape {
          dim {
            size: 32
          }
        }
      }
    }
  }
  attr {
    key: "dtype"
    value {
      type: DT_FLOAT
    }
  }
  attr {
    key: "value"
    value {
      tensor {
        dtype: DT_FLOAT
        tensor_shape {
          dim {
            size: 32
          }
        }
        float_val: 1.0
      }
    }
  }
  experimental_debug_info {
    original_node_names: "conv0/batchnorm0/Const"
  }
}
node {
  name: "conv0/batchnorm0/beta"
  op: "VariableV2"
  device: "/job:localhost/replica:0/task:0/device:GPU:0"
  attr {
    key: "_class"
    value {
      list {
        s: "loc:@GradientDescent/update_conv0/batchnorm0/beta/ApplyGradientDescent"
      }
    }
  }
  attr {
    key: "_output_shapes"
    value {
      list {
        shape {
          dim {
            size: 32
          }
        }
      }
    }
  }
  attr {
    key: "container"
    value {
      s: ""
    }
  }
  attr {
    key: "dtype"
    value {
      type: DT_FLOAT
    }
  }
  attr {
    key: "shape"
    value {
      shape {
        dim {
          size: 32
        }
      }
    }
  }
  attr {
    key: "shared_name"
    value {
      s: ""
    }
  }
  experimental_debug_info {
    original_node_names: "conv0/batchnorm0/beta"
  }
}
node {
  name: "incept_v3_c0/conv61/conv2d/kernel"
  op: "VariableV2"
  device: "/job:localhost/replica:0/task:0/device:GPU:0"
  attr {
    key: "_class"
    value {
      list {
        s: "loc:@GradientDescent/update_incept_v3_c0/conv61/conv2d/kernel/ApplyGradientDescent"
      }
    }
  }
  attr {
    key: "_output_shapes"
    value {
      list {
        shape {
          dim {
            size: 1
          }
          dim {
            size: 1
          }
          dim {
            size: 768
          }
          dim {
            size: 192
          }
        }
      }
    }
  }
  attr {
    key: "container"
    value {
      s: ""
    }
  }
  attr {
    key: "dtype"
    value {
      type: DT_FLOAT
    }
  }
  attr {
    key: "shape"
    value {
      shape {
        dim {
          size: 1
        }
        dim {
          size: 1
        }
        dim {
          size: 768
        }
        dim {
          size: 192
        }
      }
    }
  }
  attr {
    key: "shared_name"
    value {
      s: ""
    }
  }
  experimental_debug_info {
    original_node_names: "incept_v3_c0/conv61/conv2d/kernel"
  }
}
node {
  name: "conv0/batchnorm0/Const_1"
  op: "Const"
  device: "/job:localhost/replica:0/task:0/device:GPU:0"
  attr {
    key: "_output_shapes"
    value {
      list {
        shape {
          dim {
          }
        }
      }
    }
  }
  attr {
    key: "dtype"
    value {
      type: DT_FLOAT
    }
  }
  attr {
    key: "value"
    value {
      tensor {
        dtype: DT_FLOAT
        tensor_shape {
          dim {
          }
        }
      }
    }
  }
  experimental_debug_info {
    original_node_names: "conv0/batchnorm0/Const_1"
  }
}
node {
  name: "incept_v3_c0_3/conv61/batchnorm61/Const"
  op: "Const"
  device: "/job:localhost/replica:0/task:0/device:GPU:0"
  attr {
    key: "_output_shapes"
    value {
      list {
        shape {
          dim {
            size: 192
          }
        }
      }
    }
  }
  attr {
    key: "dtype"
    value {
      type: DT_FLOAT
    }
  }
  attr {
    key: "value"
    value {
      tensor {
        dtype: DT_FLOAT
        tensor_shape {
          dim {
            size: 192
          }
        }
        float_val: 1.0
      }
    }
  }
  experimental_debug_info {
    original_node_names: "incept_v3_c0_3/conv61/batchnorm61/Const"
  }
}
node {
  name: "incept_v3_c0/conv61/batchnorm61/beta"
  op: "VariableV2"
  device: "/job:localhost/replica:0/task:0/device:GPU:0"
  attr {
    key: "_class"
    value {
      list {
        s: "loc:@GradientDescent/update_incept_v3_c0/conv61/batchnorm61/beta/ApplyGradientDescent"
      }
    }
  }
  attr {
    key: "_output_shapes"
    value {
      list {
        shape {
          dim {
            size: 192
          }
        }
      }
    }
  }
  attr {
    key: "container"
    value {
      s: ""
    }
  }
  attr {
    key: "dtype"
    value {
      type: DT_FLOAT
    }
  }
  attr {
    key: "shape"
    value {
      shape {
        dim {
          size: 192
        }
      }
    }
  }
  attr {
    key: "shared_name"
    value {
      s: ""
    }
  }
  experimental_debug_info {
    original_node_names: "incept_v3_c0/conv61/batchnorm61/beta"
  }
}
node {
  name: "gradients/incept_v3_a0/concat_grad/Slice-2-DataFormatVecPermuteNHWCToNCHW-LayoutOptimizer"
  op: "Const"
  device: "/job:localhost/replica:0/task:0/device:GPU:0"
  attr {
    key: "_output_shapes"
    value {
      list {
        shape {
          dim {
            size: 4
          }
        }
      }
    }
  }
  attr {
    key: "dtype"
    value {
      type: DT_INT32
    }
  }
  attr {
    key: "value"
    value {
      tensor {
        dtype: DT_INT32
        tensor_shape {
          dim {
            size: 4
          }
        }
        tensor_content: " \000\000\000@\000\000\000#\000\000\000#\000\000\000"
      }
    }
  }
  experimental_debug_info {
    original_node_names: "gradients/incept_v3_a0/concat_grad/Slice-2-DataFormatVecPermuteNHWCToNCHW-LayoutOptimizer"
  }
}
node {
  name: "gradients/incept_v3_a0_1/concat_grad/Slice_2-2-DataFormatVecPermuteNHWCToNCHW-LayoutOptimizer"
  op: "Const"
  device: "/job:localhost/replica:0/task:0/device:GPU:0"
  attr {
    key: "_output_shapes"
    value {
      list {
        shape {
          dim {
            size: 4
          }
        }
      }
    }
  }
  attr {
    key: "dtype"
    value {
      type: DT_INT32
    }
  }
  attr {
    key: "value"
    value {
      tensor {
        dtype: DT_INT32
        tensor_shape {
          dim {
            size: 4
          }
        }
        tensor_content: " \000\000\000`\000\000\000#\000\000\000#\000\000\000"
      }
    }
  }
  experimental_debug_info {
    original_node_names: "gradients/incept_v3_a0_1/concat_grad/Slice_2-2-DataFormatVecPermuteNHWCToNCHW-LayoutOptimizer"
  }
}
node {
  name: "conv1/conv2d/kernel"
  op: "VariableV2"
  device: "/job:localhost/replica:0/task:0/device:GPU:0"
  attr {
    key: "_class"
    value {
      list {
        s: "loc:@GradientDescent/update_conv1/conv2d/kernel/ApplyGradientDescent"
      }
    }
  }
  attr {
    key: "_output_shapes"
    value {
      list {
        shape {
          dim {
            size: 3
          }
          dim {
            size: 3
          }
          dim {
            size: 32
          }
          dim {
            size: 32
          }
        }
      }
    }
  }
  attr {
    key: "container"
    value {
      s: ""
    }
  }
  attr {
    key: "dtype"
    value {
      type: DT_FLOAT
    }
  }
  attr {
    key: "shape"
    value {
      shape {
        dim {
          size: 3
        }
        dim {
          size: 3
        }
        dim {
          size: 32
        }
        dim {
          size: 32
        }
      }
    }
  }
  attr {
    key: "shared_name"
    value {
      s: ""
    }
  }
  experimental_debug_info {
    original_node_names: "conv1/conv2d/kernel"
  }
}
node {
  name: "conv1/batchnorm1/beta"
  op: "VariableV2"
  device: "/job:localhost/replica:0/task:0/device:GPU:0"
  attr {
    key: "_class"
    value {
      list {
        s: "loc:@GradientDescent/update_conv1/batchnorm1/beta/ApplyGradientDescent"
      }
    }
  }
  attr {
    key: "_output_shapes"
    value {
      list {
        shape {
          dim {
            size: 32
          }
        }
      }
    }
  }
  attr {
    key: "container"
    value {
      s: ""
    }
  }
  attr {
    key: "dtype"
    value {
      type: DT_FLOAT
    }
  }
  attr {
    key: "shape"
    value {
      shape {
        dim {
          size: 32
        }
      }
    }
  }
  attr {
    key: "shared_name"
    value {
      s: ""
    }
  }
  experimental_debug_info {
    original_node_names: "conv1/batchnorm1/beta"
  }
}
node {
  name: "incept_v3_c0/conv62/conv2d/kernel"
  op: "VariableV2"
  device: "/job:localhost/replica:0/task:0/device:GPU:0"
  attr {
    key: "_class"
    value {
      list {
        s: "loc:@GradientDescent/update_incept_v3_c0/conv62/conv2d/kernel/ApplyGradientDescent"
      }
    }
  }
  attr {
    key: "_output_shapes"
    value {
      list {
        shape {
          dim {
            size: 1
          }
          dim {
            size: 7
          }
          dim {
            size: 192
          }
          dim {
            size: 192
          }
        }
      }
    }
  }
  attr {
    key: "container"
    value {
      s: ""
    }
  }
  attr {
    key: "dtype"
    value {
      type: DT_FLOAT
    }
  }
  attr {
    key: "shape"
    value {
      shape {
        dim {
          size: 1
        }
        dim {
          size: 7
        }
        dim {
          size: 192
        }
        dim {
          size: 192
        }
      }
    }
  }
  attr {
    key: "shared_name"
    value {
      s: ""
    }
  }
  experimental_debug_info {
    original_node_names: "incept_v3_c0/conv62/conv2d/kernel"
  }
}
node {
  name: "incept_v3_c0/conv62/batchnorm62/beta"
  op: "VariableV2"
  device: "/job:localhost/replica:0/task:0/device:GPU:0"
  attr {
    key: "_class"
    value {
      list {
        s: "loc:@GradientDescent/update_incept_v3_c0/conv62/batchnorm62/beta/ApplyGradientDescent"
      }
    }
  }
  attr {
    key: "_output_shapes"
    value {
      list {
        shape {
          dim {
            size: 192
          }
        }
      }
    }
  }
  attr {
    key: "container"
    value {
      s: ""
    }
  }
  attr {
    key: "dtype"
    value {
      type: DT_FLOAT
    }
  }
  attr {
    key: "shape"
    value {
      shape {
        dim {
          size: 192
        }
      }
    }
  }
  attr {
    key: "shared_name"
    value {
      s: ""
    }
  }
  experimental_debug_info {
    original_node_names: "incept_v3_c0/conv62/batchnorm62/beta"
  }
}
node {
  name: "conv2/conv2d/kernel"
  op: "VariableV2"
  device: "/job:localhost/replica:0/task:0/device:GPU:0"
  attr {
    key: "_class"
    value {
      list {
        s: "loc:@GradientDescent/update_conv2/conv2d/kernel/ApplyGradientDescent"
      }
    }
  }
  attr {
    key: "_output_shapes"
    value {
      list {
        shape {
          dim {
            size: 3
          }
          dim {
            size: 3
          }
          dim {
            size: 32
          }
          dim {
            size: 64
          }
        }
      }
    }
  }
  attr {
    key: "container"
    value {
      s: ""
    }
  }
  attr {
    key: "dtype"
    value {
      type: DT_FLOAT
    }
  }
  attr {
    key: "shape"
    value {
      shape {
        dim {
          size: 3
        }
        dim {
          size: 3
        }
        dim {
          size: 32
        }
        dim {
          size: 64
        }
      }
    }
  }
  attr {
    key: "shared_name"
    value {
      s: ""
    }
  }
  experimental_debug_info {
    original_node_names: "conv2/conv2d/kernel"
  }
}
node {
  name: "conv2/batchnorm2/Const"
  op: "Const"
  device: "/job:localhost/replica:0/task:0/device:GPU:0"
  attr {
    key: "_output_shapes"
    value {
      list {
        shape {
          dim {
            size: 64
          }
        }
      }
    }
  }
  attr {
    key: "dtype"
    value {
      type: DT_FLOAT
    }
  }
  attr {
    key: "value"
    value {
      tensor {
        dtype: DT_FLOAT
        tensor_shape {
          dim {
            size: 64
          }
        }
        float_val: 1.0
      }
    }
  }
  experimental_debug_info {
    original_node_names: "conv2/batchnorm2/Const"
  }
}
node {
  name: "conv2/batchnorm2/beta"
  op: "VariableV2"
  device: "/job:localhost/replica:0/task:0/device:GPU:0"
  attr {
    key: "_class"
    value {
      list {
        s: "loc:@GradientDescent/update_conv2/batchnorm2/beta/ApplyGradientDescent"
      }
    }
  }
  attr {
    key: "_output_shapes"
    value {
      list {
        shape {
          dim {
            size: 64
          }
        }
      }
    }
  }
  attr {
    key: "container"
    value {
      s: ""
    }
  }
  attr {
    key: "dtype"
    value {
      type: DT_FLOAT
    }
  }
  attr {
    key: "shape"
    value {
      shape {
        dim {
          size: 64
        }
      }
    }
  }
  attr {
    key: "shared_name"
    value {
      s: ""
    }
  }
  experimental_debug_info {
    original_node_names: "conv2/batchnorm2/beta"
  }
}
node {
  name: "incept_v3_c0/conv63/conv2d/kernel"
  op: "VariableV2"
  device: "/job:localhost/replica:0/task:0/device:GPU:0"
  attr {
    key: "_class"
    value {
      list {
        s: "loc:@GradientDescent/update_incept_v3_c0/conv63/conv2d/kernel/ApplyGradientDescent"
      }
    }
  }
  attr {
    key: "_output_shapes"
    value {
      list {
        shape {
          dim {
            size: 7
          }
          dim {
            size: 1
          }
          dim {
            size: 192
          }
          dim {
            size: 192
          }
        }
      }
    }
  }
  attr {
    key: "container"
    value {
      s: ""
    }
  }
  attr {
    key: "dtype"
    value {
      type: DT_FLOAT
    }
  }
  attr {
    key: "shape"
    value {
      shape {
        dim {
          size: 7
        }
        dim {
          size: 1
        }
        dim {
          size: 192
        }
        dim {
          size: 192
        }
      }
    }
  }
  attr {
    key: "shared_name"
    value {
      s: ""
    }
  }
  experimental_debug_info {
    original_node_names: "incept_v3_c0/conv63/conv2d/kernel"
  }
}
node {
  name: "conv3/conv2d/kernel"
  op: "VariableV2"
  device: "/job:localhost/replica:0/task:0/device:GPU:0"
  attr {
    key: "_class"
    value {
      list {
        s: "loc:@GradientDescent/update_conv3/conv2d/kernel/ApplyGradientDescent"
      }
    }
  }
  attr {
    key: "_output_shapes"
    value {
      list {
        shape {
          dim {
            size: 1
          }
          dim {
            size: 1
          }
          dim {
            size: 64
          }
          dim {
            size: 80
          }
        }
      }
    }
  }
  attr {
    key: "container"
    value {
      s: ""
    }
  }
  attr {
    key: "dtype"
    value {
      type: DT_FLOAT
    }
  }
  attr {
    key: "shape"
    value {
      shape {
        dim {
          size: 1
        }
        dim {
          size: 1
        }
        dim {
          size: 64
        }
        dim {
          size: 80
        }
      }
    }
  }
  attr {
    key: "shared_name"
    value {
      s: ""
    }
  }
  experimental_debug_info {
    original_node_names: "conv3/conv2d/kernel"
  }
}
node {
  name: "conv3/batchnorm3/Const"
  op: "Const"
  device: "/job:localhost/replica:0/task:0/device:GPU:0"
  attr {
    key: "_output_shapes"
    value {
      list {
        shape {
          dim {
            size: 80
          }
        }
      }
    }
  }
  attr {
    key: "dtype"
    value {
      type: DT_FLOAT
    }
  }
  attr {
    key: "value"
    value {
      tensor {
        dtype: DT_FLOAT
        tensor_shape {
          dim {
            size: 80
          }
        }
        float_val: 1.0
      }
    }
  }
  experimental_debug_info {
    original_node_names: "conv3/batchnorm3/Const"
  }
}
node {
  name: "conv3/batchnorm3/beta"
  op: "VariableV2"
  device: "/job:localhost/replica:0/task:0/device:GPU:0"
  attr {
    key: "_class"
    value {
      list {
        s: "loc:@GradientDescent/update_conv3/batchnorm3/beta/ApplyGradientDescent"
      }
    }
  }
  attr {
    key: "_output_shapes"
    value {
      list {
        shape {
          dim {
            size: 80
          }
        }
      }
    }
  }
  attr {
    key: "container"
    value {
      s: ""
    }
  }
  attr {
    key: "dtype"
    value {
      type: DT_FLOAT
    }
  }
  attr {
    key: "shape"
    value {
      shape {
        dim {
          size: 80
        }
      }
    }
  }
  attr {
    key: "shared_name"
    value {
      s: ""
    }
  }
  experimental_debug_info {
    original_node_names: "conv3/batchnorm3/beta"
  }
}
node {
  name: "incept_v3_c0/conv63/batchnorm63/beta"
  op: "VariableV2"
  device: "/job:localhost/replica:0/task:0/device:GPU:0"
  attr {
    key: "_class"
    value {
      list {
        s: "loc:@GradientDescent/update_incept_v3_c0/conv63/batchnorm63/beta/ApplyGradientDescent"
      }
    }
  }
  attr {
    key: "_output_shapes"
    value {
      list {
        shape {
          dim {
            size: 192
          }
        }
      }
    }
  }
  attr {
    key: "container"
    value {
      s: ""
    }
  }
  attr {
    key: "dtype"
    value {
      type: DT_FLOAT
    }
  }
  attr {
    key: "shape"
    value {
      shape {
        dim {
          size: 192
        }
      }
    }
  }
  attr {
    key: "shared_name"
    value {
      s: ""
    }
  }
  experimental_debug_info {
    original_node_names: "incept_v3_c0/conv63/batchnorm63/beta"
  }
}
node {
  name: "gradients/incept_v3_c0/concat_grad/Slice_2-2-DataFormatVecPermuteNHWCToNCHW-LayoutOptimizer"
  op: "Const"
  device: "/job:localhost/replica:0/task:0/device:GPU:0"
  attr {
    key: "_output_shapes"
    value {
      list {
        shape {
          dim {
            size: 4
          }
        }
      }
    }
  }
  attr {
    key: "dtype"
    value {
      type: DT_INT32
    }
  }
  attr {
    key: "value"
    value {
      tensor {
        dtype: DT_INT32
        tensor_shape {
          dim {
            size: 4
          }
        }
        tensor_content: " \000\000\000\300\000\000\000\021\000\000\000\021\000\000\000"
      }
    }
  }
  experimental_debug_info {
    original_node_names: "gradients/incept_v3_c0/concat_grad/Slice_2-2-DataFormatVecPermuteNHWCToNCHW-LayoutOptimizer"
  }
}
node {
  name: "conv4/conv2d/kernel"
  op: "VariableV2"
  device: "/job:localhost/replica:0/task:0/device:GPU:0"
  attr {
    key: "_class"
    value {
      list {
        s: "loc:@GradientDescent/update_conv4/conv2d/kernel/ApplyGradientDescent"
      }
    }
  }
  attr {
    key: "_output_shapes"
    value {
      list {
        shape {
          dim {
            size: 3
          }
          dim {
            size: 3
          }
          dim {
            size: 80
          }
          dim {
            size: 192
          }
        }
      }
    }
  }
  attr {
    key: "container"
    value {
      s: ""
    }
  }
  attr {
    key: "dtype"
    value {
      type: DT_FLOAT
    }
  }
  attr {
    key: "shape"
    value {
      shape {
        dim {
          size: 3
        }
        dim {
          size: 3
        }
        dim {
          size: 80
        }
        dim {
          size: 192
        }
      }
    }
  }
  attr {
    key: "shared_name"
    value {
      s: ""
    }
  }
  experimental_debug_info {
    original_node_names: "conv4/conv2d/kernel"
  }
}
node {
  name: "conv4/batchnorm4/beta"
  op: "VariableV2"
  device: "/job:localhost/replica:0/task:0/device:GPU:0"
  attr {
    key: "_class"
    value {
      list {
        s: "loc:@GradientDescent/update_conv4/batchnorm4/beta/ApplyGradientDescent"
      }
    }
  }
  attr {
    key: "_output_shapes"
    value {
      list {
        shape {
          dim {
            size: 192
          }
        }
      }
    }
  }
  attr {
    key: "container"
    value {
      s: ""
    }
  }
  attr {
    key: "dtype"
    value {
      type: DT_FLOAT
    }
  }
  attr {
    key: "shape"
    value {
      shape {
        dim {
          size: 192
        }
      }
    }
  }
  attr {
    key: "shared_name"
    value {
      s: ""
    }
  }
  experimental_debug_info {
    original_node_names: "conv4/batchnorm4/beta"
  }
}
node {
  name: "incept_v3_c0/conv64/conv2d/kernel"
  op: "VariableV2"
  device: "/job:localhost/replica:0/task:0/device:GPU:0"
  attr {
    key: "_class"
    value {
      list {
        s: "loc:@GradientDescent/update_incept_v3_c0/conv64/conv2d/kernel/ApplyGradientDescent"
      }
    }
  }
  attr {
    key: "_output_shapes"
    value {
      list {
        shape {
          dim {
            size: 1
          }
          dim {
            size: 1
          }
          dim {
            size: 768
          }
          dim {
            size: 192
          }
        }
      }
    }
  }
  attr {
    key: "container"
    value {
      s: ""
    }
  }
  attr {
    key: "dtype"
    value {
      type: DT_FLOAT
    }
  }
  attr {
    key: "shape"
    value {
      shape {
        dim {
          size: 1
        }
        dim {
          size: 1
        }
        dim {
          size: 768
        }
        dim {
          size: 192
        }
      }
    }
  }
  attr {
    key: "shared_name"
    value {
      s: ""
    }
  }
  experimental_debug_info {
    original_node_names: "incept_v3_c0/conv64/conv2d/kernel"
  }
}
node {
  name: "incept_v3_c0/conv64/batchnorm64/beta"
  op: "VariableV2"
  device: "/job:localhost/replica:0/task:0/device:GPU:0"
  attr {
    key: "_class"
    value {
      list {
        s: "loc:@GradientDescent/update_incept_v3_c0/conv64/batchnorm64/beta/ApplyGradientDescent"
      }
    }
  }
  attr {
    key: "_output_shapes"
    value {
      list {
        shape {
          dim {
            size: 192
          }
        }
      }
    }
  }
  attr {
    key: "container"
    value {
      s: ""
    }
  }
  attr {
    key: "dtype"
    value {
      type: DT_FLOAT
    }
  }
  attr {
    key: "shape"
    value {
      shape {
        dim {
          size: 192
        }
      }
    }
  }
  attr {
    key: "shared_name"
    value {
      s: ""
    }
  }
  experimental_debug_info {
    original_node_names: "incept_v3_c0/conv64/batchnorm64/beta"
  }
}
node {
  name: "incept_v3_a0/conv5/conv2d/kernel"
  op: "VariableV2"
  device: "/job:localhost/replica:0/task:0/device:GPU:0"
  attr {
    key: "_class"
    value {
      list {
        s: "loc:@GradientDescent/update_incept_v3_a0/conv5/conv2d/kernel/ApplyGradientDescent"
      }
    }
  }
  attr {
    key: "_output_shapes"
    value {
      list {
        shape {
          dim {
            size: 1
          }
          dim {
            size: 1
          }
          dim {
            size: 192
          }
          dim {
            size: 64
          }
        }
      }
    }
  }
  attr {
    key: "container"
    value {
      s: ""
    }
  }
  attr {
    key: "dtype"
    value {
      type: DT_FLOAT
    }
  }
  attr {
    key: "shape"
    value {
      shape {
        dim {
          size: 1
        }
        dim {
          size: 1
        }
        dim {
          size: 192
        }
        dim {
          size: 64
        }
      }
    }
  }
  attr {
    key: "shared_name"
    value {
      s: ""
    }
  }
  experimental_debug_info {
    original_node_names: "incept_v3_a0/conv5/conv2d/kernel"
  }
}
node {
  name: "incept_v3_a0/conv5/batchnorm5/beta"
  op: "VariableV2"
  device: "/job:localhost/replica:0/task:0/device:GPU:0"
  attr {
    key: "_class"
    value {
      list {
        s: "loc:@GradientDescent/update_incept_v3_a0/conv5/batchnorm5/beta/ApplyGradientDescent"
      }
    }
  }
  attr {
    key: "_output_shapes"
    value {
      list {
        shape {
          dim {
            size: 64
          }
        }
      }
    }
  }
  attr {
    key: "container"
    value {
      s: ""
    }
  }
  attr {
    key: "dtype"
    value {
      type: DT_FLOAT
    }
  }
  attr {
    key: "shape"
    value {
      shape {
        dim {
          size: 64
        }
      }
    }
  }
  attr {
    key: "shared_name"
    value {
      s: ""
    }
  }
  experimental_debug_info {
    original_node_names: "incept_v3_a0/conv5/batchnorm5/beta"
  }
}
node {
  name: "incept_v3_c0/conv65/conv2d/kernel"
  op: "VariableV2"
  device: "/job:localhost/replica:0/task:0/device:GPU:0"
  attr {
    key: "_class"
    value {
      list {
        s: "loc:@GradientDescent/update_incept_v3_c0/conv65/conv2d/kernel/ApplyGradientDescent"
      }
    }
  }
  attr {
    key: "_output_shapes"
    value {
      list {
        shape {
          dim {
            size: 7
          }
          dim {
            size: 1
          }
          dim {
            size: 192
          }
          dim {
            size: 192
          }
        }
      }
    }
  }
  attr {
    key: "container"
    value {
      s: ""
    }
  }
  attr {
    key: "dtype"
    value {
      type: DT_FLOAT
    }
  }
  attr {
    key: "shape"
    value {
      shape {
        dim {
          size: 7
        }
        dim {
          size: 1
        }
        dim {
          size: 192
        }
        dim {
          size: 192
        }
      }
    }
  }
  attr {
    key: "shared_name"
    value {
      s: ""
    }
  }
  experimental_debug_info {
    original_node_names: "incept_v3_c0/conv65/conv2d/kernel"
  }
}
node {
  name: "incept_v3_c0/conv65/batchnorm65/beta"
  op: "VariableV2"
  device: "/job:localhost/replica:0/task:0/device:GPU:0"
  attr {
    key: "_class"
    value {
      list {
        s: "loc:@GradientDescent/update_incept_v3_c0/conv65/batchnorm65/beta/ApplyGradientDescent"
      }
    }
  }
  attr {
    key: "_output_shapes"
    value {
      list {
        shape {
          dim {
            size: 192
          }
        }
      }
    }
  }
  attr {
    key: "container"
    value {
      s: ""
    }
  }
  attr {
    key: "dtype"
    value {
      type: DT_FLOAT
    }
  }
  attr {
    key: "shape"
    value {
      shape {
        dim {
          size: 192
        }
      }
    }
  }
  attr {
    key: "shared_name"
    value {
      s: ""
    }
  }
  experimental_debug_info {
    original_node_names: "incept_v3_c0/conv65/batchnorm65/beta"
  }
}
node {
  name: "incept_v3_a0/conv6/conv2d/kernel"
  op: "VariableV2"
  device: "/job:localhost/replica:0/task:0/device:GPU:0"
  attr {
    key: "_class"
    value {
      list {
        s: "loc:@GradientDescent/update_incept_v3_a0/conv6/conv2d/kernel/ApplyGradientDescent"
      }
    }
  }
  attr {
    key: "_output_shapes"
    value {
      list {
        shape {
          dim {
            size: 1
          }
          dim {
            size: 1
          }
          dim {
            size: 192
          }
          dim {
            size: 48
          }
        }
      }
    }
  }
  attr {
    key: "container"
    value {
      s: ""
    }
  }
  attr {
    key: "dtype"
    value {
      type: DT_FLOAT
    }
  }
  attr {
    key: "shape"
    value {
      shape {
        dim {
          size: 1
        }
        dim {
          size: 1
        }
        dim {
          size: 192
        }
        dim {
          size: 48
        }
      }
    }
  }
  attr {
    key: "shared_name"
    value {
      s: ""
    }
  }
  experimental_debug_info {
    original_node_names: "incept_v3_a0/conv6/conv2d/kernel"
  }
}
node {
  name: "incept_v3_a0/conv6/batchnorm6/Const"
  op: "Const"
  device: "/job:localhost/replica:0/task:0/device:GPU:0"
  attr {
    key: "_output_shapes"
    value {
      list {
        shape {
          dim {
            size: 48
          }
        }
      }
    }
  }
  attr {
    key: "dtype"
    value {
      type: DT_FLOAT
    }
  }
  attr {
    key: "value"
    value {
      tensor {
        dtype: DT_FLOAT
        tensor_shape {
          dim {
            size: 48
          }
        }
        float_val: 1.0
      }
    }
  }
  experimental_debug_info {
    original_node_names: "incept_v3_a0/conv6/batchnorm6/Const"
  }
}
node {
  name: "incept_v3_a0/conv6/batchnorm6/beta"
  op: "VariableV2"
  device: "/job:localhost/replica:0/task:0/device:GPU:0"
  attr {
    key: "_class"
    value {
      list {
        s: "loc:@GradientDescent/update_incept_v3_a0/conv6/batchnorm6/beta/ApplyGradientDescent"
      }
    }
  }
  attr {
    key: "_output_shapes"
    value {
      list {
        shape {
          dim {
            size: 48
          }
        }
      }
    }
  }
  attr {
    key: "container"
    value {
      s: ""
    }
  }
  attr {
    key: "dtype"
    value {
      type: DT_FLOAT
    }
  }
  attr {
    key: "shape"
    value {
      shape {
        dim {
          size: 48
        }
      }
    }
  }
  attr {
    key: "shared_name"
    value {
      s: ""
    }
  }
  experimental_debug_info {
    original_node_names: "incept_v3_a0/conv6/batchnorm6/beta"
  }
}
node {
  name: "incept_v3_c0/conv66/conv2d/kernel"
  op: "VariableV2"
  device: "/job:localhost/replica:0/task:0/device:GPU:0"
  attr {
    key: "_class"
    value {
      list {
        s: "loc:@GradientDescent/update_incept_v3_c0/conv66/conv2d/kernel/ApplyGradientDescent"
      }
    }
  }
  attr {
    key: "_output_shapes"
    value {
      list {
        shape {
          dim {
            size: 1
          }
          dim {
            size: 7
          }
          dim {
            size: 192
          }
          dim {
            size: 192
          }
        }
      }
    }
  }
  attr {
    key: "container"
    value {
      s: ""
    }
  }
  attr {
    key: "dtype"
    value {
      type: DT_FLOAT
    }
  }
  attr {
    key: "shape"
    value {
      shape {
        dim {
          size: 1
        }
        dim {
          size: 7
        }
        dim {
          size: 192
        }
        dim {
          size: 192
        }
      }
    }
  }
  attr {
    key: "shared_name"
    value {
      s: ""
    }
  }
  experimental_debug_info {
    original_node_names: "incept_v3_c0/conv66/conv2d/kernel"
  }
}
node {
  name: "incept_v3_a0/conv7/conv2d/kernel"
  op: "VariableV2"
  device: "/job:localhost/replica:0/task:0/device:GPU:0"
  attr {
    key: "_class"
    value {
      list {
        s: "loc:@GradientDescent/update_incept_v3_a0/conv7/conv2d/kernel/ApplyGradientDescent"
      }
    }
  }
  attr {
    key: "_output_shapes"
    value {
      list {
        shape {
          dim {
            size: 5
          }
          dim {
            size: 5
          }
          dim {
            size: 48
          }
          dim {
            size: 64
          }
        }
      }
    }
  }
  attr {
    key: "container"
    value {
      s: ""
    }
  }
  attr {
    key: "dtype"
    value {
      type: DT_FLOAT
    }
  }
  attr {
    key: "shape"
    value {
      shape {
        dim {
          size: 5
        }
        dim {
          size: 5
        }
        dim {
          size: 48
        }
        dim {
          size: 64
        }
      }
    }
  }
  attr {
    key: "shared_name"
    value {
      s: ""
    }
  }
  experimental_debug_info {
    original_node_names: "incept_v3_a0/conv7/conv2d/kernel"
  }
}
node {
  name: "incept_v3_a0/conv7/batchnorm7/beta"
  op: "VariableV2"
  device: "/job:localhost/replica:0/task:0/device:GPU:0"
  attr {
    key: "_class"
    value {
      list {
        s: "loc:@GradientDescent/update_incept_v3_a0/conv7/batchnorm7/beta/ApplyGradientDescent"
      }
    }
  }
  attr {
    key: "_output_shapes"
    value {
      list {
        shape {
          dim {
            size: 64
          }
        }
      }
    }
  }
  attr {
    key: "container"
    value {
      s: ""
    }
  }
  attr {
    key: "dtype"
    value {
      type: DT_FLOAT
    }
  }
  attr {
    key: "shape"
    value {
      shape {
        dim {
          size: 64
        }
      }
    }
  }
  attr {
    key: "shared_name"
    value {
      s: ""
    }
  }
  experimental_debug_info {
    original_node_names: "incept_v3_a0/conv7/batchnorm7/beta"
  }
}
node {
  name: "incept_v3_c0/conv66/batchnorm66/beta"
  op: "VariableV2"
  device: "/job:localhost/replica:0/task:0/device:GPU:0"
  attr {
    key: "_class"
    value {
      list {
        s: "loc:@GradientDescent/update_incept_v3_c0/conv66/batchnorm66/beta/ApplyGradientDescent"
      }
    }
  }
  attr {
    key: "_output_shapes"
    value {
      list {
        shape {
          dim {
            size: 192
          }
        }
      }
    }
  }
  attr {
    key: "container"
    value {
      s: ""
    }
  }
  attr {
    key: "dtype"
    value {
      type: DT_FLOAT
    }
  }
  attr {
    key: "shape"
    value {
      shape {
        dim {
          size: 192
        }
      }
    }
  }
  attr {
    key: "shared_name"
    value {
      s: ""
    }
  }
  experimental_debug_info {
    original_node_names: "incept_v3_c0/conv66/batchnorm66/beta"
  }
}
node {
  name: "gradients/incept_v3_c0_1/apool4/AvgPool_grad/AvgPoolGrad-0-DataFormatVecPermuteNHWCToNCHW-LayoutOptimizer"
  op: "Const"
  device: "/job:localhost/replica:0/task:0/device:GPU:0"
  attr {
    key: "_output_shapes"
    value {
      list {
        shape {
          dim {
            size: 4
          }
        }
      }
    }
  }
  attr {
    key: "dtype"
    value {
      type: DT_INT32
    }
  }
  attr {
    key: "value"
    value {
      tensor {
        dtype: DT_INT32
        tensor_shape {
          dim {
            size: 4
          }
        }
        tensor_content: " \000\000\000\000\003\000\000\021\000\000\000\021\000\000\000"
      }
    }
  }
  experimental_debug_info {
    original_node_names: "gradients/incept_v3_c0_1/apool4/AvgPool_grad/AvgPoolGrad-0-DataFormatVecPermuteNHWCToNCHW-LayoutOptimizer"
  }
}
node {
  name: "incept_v3_a0/conv8/conv2d/kernel"
  op: "VariableV2"
  device: "/job:localhost/replica:0/task:0/device:GPU:0"
  attr {
    key: "_class"
    value {
      list {
        s: "loc:@GradientDescent/update_incept_v3_a0/conv8/conv2d/kernel/ApplyGradientDescent"
      }
    }
  }
  attr {
    key: "_output_shapes"
    value {
      list {
        shape {
          dim {
            size: 1
          }
          dim {
            size: 1
          }
          dim {
            size: 192
          }
          dim {
            size: 64
          }
        }
      }
    }
  }
  attr {
    key: "container"
    value {
      s: ""
    }
  }
  attr {
    key: "dtype"
    value {
      type: DT_FLOAT
    }
  }
  attr {
    key: "shape"
    value {
      shape {
        dim {
          size: 1
        }
        dim {
          size: 1
        }
        dim {
          size: 192
        }
        dim {
          size: 64
        }
      }
    }
  }
  attr {
    key: "shared_name"
    value {
      s: ""
    }
  }
  experimental_debug_info {
    original_node_names: "incept_v3_a0/conv8/conv2d/kernel"
  }
}
node {
  name: "incept_v3_a0/conv8/batchnorm8/beta"
  op: "VariableV2"
  device: "/job:localhost/replica:0/task:0/device:GPU:0"
  attr {
    key: "_class"
    value {
      list {
        s: "loc:@GradientDescent/update_incept_v3_a0/conv8/batchnorm8/beta/ApplyGradientDescent"
      }
    }
  }
  attr {
    key: "_output_shapes"
    value {
      list {
        shape {
          dim {
            size: 64
          }
        }
      }
    }
  }
  attr {
    key: "container"
    value {
      s: ""
    }
  }
  attr {
    key: "dtype"
    value {
      type: DT_FLOAT
    }
  }
  attr {
    key: "shape"
    value {
      shape {
        dim {
          size: 64
        }
      }
    }
  }
  attr {
    key: "shared_name"
    value {
      s: ""
    }
  }
  experimental_debug_info {
    original_node_names: "incept_v3_a0/conv8/batchnorm8/beta"
  }
}
node {
  name: "incept_v3_c0/conv67/conv2d/kernel"
  op: "VariableV2"
  device: "/job:localhost/replica:0/task:0/device:GPU:0"
  attr {
    key: "_class"
    value {
      list {
        s: "loc:@GradientDescent/update_incept_v3_c0/conv67/conv2d/kernel/ApplyGradientDescent"
      }
    }
  }
  attr {
    key: "_output_shapes"
    value {
      list {
        shape {
          dim {
            size: 7
          }
          dim {
            size: 1
          }
          dim {
            size: 192
          }
          dim {
            size: 192
          }
        }
      }
    }
  }
  attr {
    key: "container"
    value {
      s: ""
    }
  }
  attr {
    key: "dtype"
    value {
      type: DT_FLOAT
    }
  }
  attr {
    key: "shape"
    value {
      shape {
        dim {
          size: 7
        }
        dim {
          size: 1
        }
        dim {
          size: 192
        }
        dim {
          size: 192
        }
      }
    }
  }
  attr {
    key: "shared_name"
    value {
      s: ""
    }
  }
  experimental_debug_info {
    original_node_names: "incept_v3_c0/conv67/conv2d/kernel"
  }
}
node {
  name: "incept_v3_c0/conv67/batchnorm67/beta"
  op: "VariableV2"
  device: "/job:localhost/replica:0/task:0/device:GPU:0"
  attr {
    key: "_class"
    value {
      list {
        s: "loc:@GradientDescent/update_incept_v3_c0/conv67/batchnorm67/beta/ApplyGradientDescent"
      }
    }
  }
  attr {
    key: "_output_shapes"
    value {
      list {
        shape {
          dim {
            size: 192
          }
        }
      }
    }
  }
  attr {
    key: "container"
    value {
      s: ""
    }
  }
  attr {
    key: "dtype"
    value {
      type: DT_FLOAT
    }
  }
  attr {
    key: "shape"
    value {
      shape {
        dim {
          size: 192
        }
      }
    }
  }
  attr {
    key: "shared_name"
    value {
      s: ""
    }
  }
  experimental_debug_info {
    original_node_names: "incept_v3_c0/conv67/batchnorm67/beta"
  }
}
node {
  name: "incept_v3_a0/conv9/conv2d/kernel"
  op: "VariableV2"
  device: "/job:localhost/replica:0/task:0/device:GPU:0"
  attr {
    key: "_class"
    value {
      list {
        s: "loc:@GradientDescent/update_incept_v3_a0/conv9/conv2d/kernel/ApplyGradientDescent"
      }
    }
  }
  attr {
    key: "_output_shapes"
    value {
      list {
        shape {
          dim {
            size: 3
          }
          dim {
            size: 3
          }
          dim {
            size: 64
          }
          dim {
            size: 96
          }
        }
      }
    }
  }
  attr {
    key: "container"
    value {
      s: ""
    }
  }
  attr {
    key: "dtype"
    value {
      type: DT_FLOAT
    }
  }
  attr {
    key: "shape"
    value {
      shape {
        dim {
          size: 3
        }
        dim {
          size: 3
        }
        dim {
          size: 64
        }
        dim {
          size: 96
        }
      }
    }
  }
  attr {
    key: "shared_name"
    value {
      s: ""
    }
  }
  experimental_debug_info {
    original_node_names: "incept_v3_a0/conv9/conv2d/kernel"
  }
}
node {
  name: "incept_v3_a0/conv9/batchnorm9/Const"
  op: "Const"
  device: "/job:localhost/replica:0/task:0/device:GPU:0"
  attr {
    key: "_output_shapes"
    value {
      list {
        shape {
          dim {
            size: 96
          }
        }
      }
    }
  }
  attr {
    key: "dtype"
    value {
      type: DT_FLOAT
    }
  }
  attr {
    key: "value"
    value {
      tensor {
        dtype: DT_FLOAT
        tensor_shape {
          dim {
            size: 96
          }
        }
        float_val: 1.0
      }
    }
  }
  experimental_debug_info {
    original_node_names: "incept_v3_a0/conv9/batchnorm9/Const"
  }
}
node {
  name: "incept_v3_a0/conv9/batchnorm9/beta"
  op: "VariableV2"
  device: "/job:localhost/replica:0/task:0/device:GPU:0"
  attr {
    key: "_class"
    value {
      list {
        s: "loc:@GradientDescent/update_incept_v3_a0/conv9/batchnorm9/beta/ApplyGradientDescent"
      }
    }
  }
  attr {
    key: "_output_shapes"
    value {
      list {
        shape {
          dim {
            size: 96
          }
        }
      }
    }
  }
  attr {
    key: "container"
    value {
      s: ""
    }
  }
  attr {
    key: "dtype"
    value {
      type: DT_FLOAT
    }
  }
  attr {
    key: "shape"
    value {
      shape {
        dim {
          size: 96
        }
      }
    }
  }
  attr {
    key: "shared_name"
    value {
      s: ""
    }
  }
  experimental_debug_info {
    original_node_names: "incept_v3_a0/conv9/batchnorm9/beta"
  }
}
node {
  name: "incept_v3_c0/conv68/conv2d/kernel"
  op: "VariableV2"
  device: "/job:localhost/replica:0/task:0/device:GPU:0"
  attr {
    key: "_class"
    value {
      list {
        s: "loc:@GradientDescent/update_incept_v3_c0/conv68/conv2d/kernel/ApplyGradientDescent"
      }
    }
  }
  attr {
    key: "_output_shapes"
    value {
      list {
        shape {
          dim {
            size: 1
          }
          dim {
            size: 7
          }
          dim {
            size: 192
          }
          dim {
            size: 192
          }
        }
      }
    }
  }
  attr {
    key: "container"
    value {
      s: ""
    }
  }
  attr {
    key: "dtype"
    value {
      type: DT_FLOAT
    }
  }
  attr {
    key: "shape"
    value {
      shape {
        dim {
          size: 1
        }
        dim {
          size: 7
        }
        dim {
          size: 192
        }
        dim {
          size: 192
        }
      }
    }
  }
  attr {
    key: "shared_name"
    value {
      s: ""
    }
  }
  experimental_debug_info {
    original_node_names: "incept_v3_c0/conv68/conv2d/kernel"
  }
}
node {
  name: "incept_v3_c0/conv68/batchnorm68/beta"
  op: "VariableV2"
  device: "/job:localhost/replica:0/task:0/device:GPU:0"
  attr {
    key: "_class"
    value {
      list {
        s: "loc:@GradientDescent/update_incept_v3_c0/conv68/batchnorm68/beta/ApplyGradientDescent"
      }
    }
  }
  attr {
    key: "_output_shapes"
    value {
      list {
        shape {
          dim {
            size: 192
          }
        }
      }
    }
  }
  attr {
    key: "container"
    value {
      s: ""
    }
  }
  attr {
    key: "dtype"
    value {
      type: DT_FLOAT
    }
  }
  attr {
    key: "shape"
    value {
      shape {
        dim {
          size: 192
        }
      }
    }
  }
  attr {
    key: "shared_name"
    value {
      s: ""
    }
  }
  experimental_debug_info {
    original_node_names: "incept_v3_c0/conv68/batchnorm68/beta"
  }
}
node {
  name: "incept_v3_a0/conv10/conv2d/kernel"
  op: "VariableV2"
  device: "/job:localhost/replica:0/task:0/device:GPU:0"
  attr {
    key: "_class"
    value {
      list {
        s: "loc:@GradientDescent/update_incept_v3_a0/conv10/conv2d/kernel/ApplyGradientDescent"
      }
    }
  }
  attr {
    key: "_output_shapes"
    value {
      list {
        shape {
          dim {
            size: 3
          }
          dim {
            size: 3
          }
          dim {
            size: 96
          }
          dim {
            size: 96
          }
        }
      }
    }
  }
  attr {
    key: "container"
    value {
      s: ""
    }
  }
  attr {
    key: "dtype"
    value {
      type: DT_FLOAT
    }
  }
  attr {
    key: "shape"
    value {
      shape {
        dim {
          size: 3
        }
        dim {
          size: 3
        }
        dim {
          size: 96
        }
        dim {
          size: 96
        }
      }
    }
  }
  attr {
    key: "shared_name"
    value {
      s: ""
    }
  }
  experimental_debug_info {
    original_node_names: "incept_v3_a0/conv10/conv2d/kernel"
  }
}
node {
  name: "incept_v3_a0/conv10/batchnorm10/beta"
  op: "VariableV2"
  device: "/job:localhost/replica:0/task:0/device:GPU:0"
  attr {
    key: "_class"
    value {
      list {
        s: "loc:@GradientDescent/update_incept_v3_a0/conv10/batchnorm10/beta/ApplyGradientDescent"
      }
    }
  }
  attr {
    key: "_output_shapes"
    value {
      list {
        shape {
          dim {
            size: 96
          }
        }
      }
    }
  }
  attr {
    key: "container"
    value {
      s: ""
    }
  }
  attr {
    key: "dtype"
    value {
      type: DT_FLOAT
    }
  }
  attr {
    key: "shape"
    value {
      shape {
        dim {
          size: 96
        }
      }
    }
  }
  attr {
    key: "shared_name"
    value {
      s: ""
    }
  }
  experimental_debug_info {
    original_node_names: "incept_v3_a0/conv10/batchnorm10/beta"
  }
}
node {
  name: "gradients/incept_v3_a0_1/apool1/AvgPool_grad/AvgPoolGrad-0-DataFormatVecPermuteNHWCToNCHW-LayoutOptimizer"
  op: "Const"
  device: "/job:localhost/replica:0/task:0/device:GPU:0"
  attr {
    key: "_output_shapes"
    value {
      list {
        shape {
          dim {
            size: 4
          }
        }
      }
    }
  }
  attr {
    key: "dtype"
    value {
      type: DT_INT32
    }
  }
  attr {
    key: "value"
    value {
      tensor {
        dtype: DT_INT32
        tensor_shape {
          dim {
            size: 4
          }
        }
        tensor_content: " \000\000\000\000\001\000\000#\000\000\000#\000\000\000"
      }
    }
  }
  experimental_debug_info {
    original_node_names: "gradients/incept_v3_a0_1/apool1/AvgPool_grad/AvgPoolGrad-0-DataFormatVecPermuteNHWCToNCHW-LayoutOptimizer"
  }
}
node {
  name: "incept_v3_a0/conv11/conv2d/kernel"
  op: "VariableV2"
  device: "/job:localhost/replica:0/task:0/device:GPU:0"
  attr {
    key: "_class"
    value {
      list {
        s: "loc:@GradientDescent/update_incept_v3_a0/conv11/conv2d/kernel/ApplyGradientDescent"
      }
    }
  }
  attr {
    key: "_output_shapes"
    value {
      list {
        shape {
          dim {
            size: 1
          }
          dim {
            size: 1
          }
          dim {
            size: 192
          }
          dim {
            size: 32
          }
        }
      }
    }
  }
  attr {
    key: "container"
    value {
      s: ""
    }
  }
  attr {
    key: "dtype"
    value {
      type: DT_FLOAT
    }
  }
  attr {
    key: "shape"
    value {
      shape {
        dim {
          size: 1
        }
        dim {
          size: 1
        }
        dim {
          size: 192
        }
        dim {
          size: 32
        }
      }
    }
  }
  attr {
    key: "shared_name"
    value {
      s: ""
    }
  }
  experimental_debug_info {
    original_node_names: "incept_v3_a0/conv11/conv2d/kernel"
  }
}
node {
  name: "incept_v3_c0/conv69/conv2d/kernel"
  op: "VariableV2"
  device: "/job:localhost/replica:0/task:0/device:GPU:0"
  attr {
    key: "_class"
    value {
      list {
        s: "loc:@GradientDescent/update_incept_v3_c0/conv69/conv2d/kernel/ApplyGradientDescent"
      }
    }
  }
  attr {
    key: "_output_shapes"
    value {
      list {
        shape {
          dim {
            size: 1
          }
          dim {
            size: 1
          }
          dim {
            size: 768
          }
          dim {
            size: 192
          }
        }
      }
    }
  }
  attr {
    key: "container"
    value {
      s: ""
    }
  }
  attr {
    key: "dtype"
    value {
      type: DT_FLOAT
    }
  }
  attr {
    key: "shape"
    value {
      shape {
        dim {
          size: 1
        }
        dim {
          size: 1
        }
        dim {
          size: 768
        }
        dim {
          size: 192
        }
      }
    }
  }
  attr {
    key: "shared_name"
    value {
      s: ""
    }
  }
  experimental_debug_info {
    original_node_names: "incept_v3_c0/conv69/conv2d/kernel"
  }
}
node {
  name: "incept_v3_a0/conv11/batchnorm11/beta"
  op: "VariableV2"
  device: "/job:localhost/replica:0/task:0/device:GPU:0"
  attr {
    key: "_class"
    value {
      list {
        s: "loc:@GradientDescent/update_incept_v3_a0/conv11/batchnorm11/beta/ApplyGradientDescent"
      }
    }
  }
  attr {
    key: "_output_shapes"
    value {
      list {
        shape {
          dim {
            size: 32
          }
        }
      }
    }
  }
  attr {
    key: "container"
    value {
      s: ""
    }
  }
  attr {
    key: "dtype"
    value {
      type: DT_FLOAT
    }
  }
  attr {
    key: "shape"
    value {
      shape {
        dim {
          size: 32
        }
      }
    }
  }
  attr {
    key: "shared_name"
    value {
      s: ""
    }
  }
  experimental_debug_info {
    original_node_names: "incept_v3_a0/conv11/batchnorm11/beta"
  }
}
node {
  name: "incept_v3_c0/conv69/batchnorm69/beta"
  op: "VariableV2"
  device: "/job:localhost/replica:0/task:0/device:GPU:0"
  attr {
    key: "_class"
    value {
      list {
        s: "loc:@GradientDescent/update_incept_v3_c0/conv69/batchnorm69/beta/ApplyGradientDescent"
      }
    }
  }
  attr {
    key: "_output_shapes"
    value {
      list {
        shape {
          dim {
            size: 192
          }
        }
      }
    }
  }
  attr {
    key: "container"
    value {
      s: ""
    }
  }
  attr {
    key: "dtype"
    value {
      type: DT_FLOAT
    }
  }
  attr {
    key: "shape"
    value {
      shape {
        dim {
          size: 192
        }
      }
    }
  }
  attr {
    key: "shared_name"
    value {
      s: ""
    }
  }
  experimental_debug_info {
    original_node_names: "incept_v3_c0/conv69/batchnorm69/beta"
  }
}
node {
  name: "incept_v3_e0/concat-6-DataFormatDimMapNHWCToNCHW-LayoutOptimizer"
  op: "Const"
  device: "/job:localhost/replica:0/task:0/device:GPU:0"
  attr {
    key: "_output_shapes"
    value {
      list {
        shape {
        }
      }
    }
  }
  attr {
    key: "dtype"
    value {
      type: DT_INT32
    }
  }
  attr {
    key: "value"
    value {
      tensor {
        dtype: DT_INT32
        tensor_shape {
        }
        tensor_content: "\001\000\000\000"
      }
    }
  }
  experimental_debug_info {
    original_node_names: "incept_v3_e0/concat-6-DataFormatDimMapNHWCToNCHW-LayoutOptimizer"
  }
}
node {
  name: "incept_v3_a0/conv12/conv2d/kernel"
  op: "VariableV2"
  device: "/job:localhost/replica:0/task:0/device:GPU:0"
  attr {
    key: "_class"
    value {
      list {
        s: "loc:@GradientDescent/update_incept_v3_a0/conv12/conv2d/kernel/ApplyGradientDescent"
      }
    }
  }
  attr {
    key: "_output_shapes"
    value {
      list {
        shape {
          dim {
            size: 1
          }
          dim {
            size: 1
          }
          dim {
            size: 256
          }
          dim {
            size: 64
          }
        }
      }
    }
  }
  attr {
    key: "container"
    value {
      s: ""
    }
  }
  attr {
    key: "dtype"
    value {
      type: DT_FLOAT
    }
  }
  attr {
    key: "shape"
    value {
      shape {
        dim {
          size: 1
        }
        dim {
          size: 1
        }
        dim {
          size: 256
        }
        dim {
          size: 64
        }
      }
    }
  }
  attr {
    key: "shared_name"
    value {
      s: ""
    }
  }
  experimental_debug_info {
    original_node_names: "incept_v3_a0/conv12/conv2d/kernel"
  }
}
node {
  name: "incept_v3_a0/conv12/batchnorm12/beta"
  op: "VariableV2"
  device: "/job:localhost/replica:0/task:0/device:GPU:0"
  attr {
    key: "_class"
    value {
      list {
        s: "loc:@GradientDescent/update_incept_v3_a0/conv12/batchnorm12/beta/ApplyGradientDescent"
      }
    }
  }
  attr {
    key: "_output_shapes"
    value {
      list {
        shape {
          dim {
            size: 64
          }
        }
      }
    }
  }
  attr {
    key: "container"
    value {
      s: ""
    }
  }
  attr {
    key: "dtype"
    value {
      type: DT_FLOAT
    }
  }
  attr {
    key: "shape"
    value {
      shape {
        dim {
          size: 64
        }
      }
    }
  }
  attr {
    key: "shared_name"
    value {
      s: ""
    }
  }
  experimental_debug_info {
    original_node_names: "incept_v3_a0/conv12/batchnorm12/beta"
  }
}
node {
  name: "incept_v3_d0/conv70/conv2d/kernel"
  op: "VariableV2"
  device: "/job:localhost/replica:0/task:0/device:GPU:0"
  attr {
    key: "_class"
    value {
      list {
        s: "loc:@GradientDescent/update_incept_v3_d0/conv70/conv2d/kernel/ApplyGradientDescent"
      }
    }
  }
  attr {
    key: "_output_shapes"
    value {
      list {
        shape {
          dim {
            size: 1
          }
          dim {
            size: 1
          }
          dim {
            size: 768
          }
          dim {
            size: 192
          }
        }
      }
    }
  }
  attr {
    key: "container"
    value {
      s: ""
    }
  }
  attr {
    key: "dtype"
    value {
      type: DT_FLOAT
    }
  }
  attr {
    key: "shape"
    value {
      shape {
        dim {
          size: 1
        }
        dim {
          size: 1
        }
        dim {
          size: 768
        }
        dim {
          size: 192
        }
      }
    }
  }
  attr {
    key: "shared_name"
    value {
      s: ""
    }
  }
  experimental_debug_info {
    original_node_names: "incept_v3_d0/conv70/conv2d/kernel"
  }
}
node {
  name: "incept_v3_d0/conv70/batchnorm70/beta"
  op: "VariableV2"
  device: "/job:localhost/replica:0/task:0/device:GPU:0"
  attr {
    key: "_class"
    value {
      list {
        s: "loc:@GradientDescent/update_incept_v3_d0/conv70/batchnorm70/beta/ApplyGradientDescent"
      }
    }
  }
  attr {
    key: "_output_shapes"
    value {
      list {
        shape {
          dim {
            size: 192
          }
        }
      }
    }
  }
  attr {
    key: "container"
    value {
      s: ""
    }
  }
  attr {
    key: "dtype"
    value {
      type: DT_FLOAT
    }
  }
  attr {
    key: "shape"
    value {
      shape {
        dim {
          size: 192
        }
      }
    }
  }
  attr {
    key: "shared_name"
    value {
      s: ""
    }
  }
  experimental_debug_info {
    original_node_names: "incept_v3_d0/conv70/batchnorm70/beta"
  }
}
node {
  name: "incept_v3_a0/conv13/conv2d/kernel"
  op: "VariableV2"
  device: "/job:localhost/replica:0/task:0/device:GPU:0"
  attr {
    key: "_class"
    value {
      list {
        s: "loc:@GradientDescent/update_incept_v3_a0/conv13/conv2d/kernel/ApplyGradientDescent"
      }
    }
  }
  attr {
    key: "_output_shapes"
    value {
      list {
        shape {
          dim {
            size: 1
          }
          dim {
            size: 1
          }
          dim {
            size: 256
          }
          dim {
            size: 48
          }
        }
      }
    }
  }
  attr {
    key: "container"
    value {
      s: ""
    }
  }
  attr {
    key: "dtype"
    value {
      type: DT_FLOAT
    }
  }
  attr {
    key: "shape"
    value {
      shape {
        dim {
          size: 1
        }
        dim {
          size: 1
        }
        dim {
          size: 256
        }
        dim {
          size: 48
        }
      }
    }
  }
  attr {
    key: "shared_name"
    value {
      s: ""
    }
  }
  experimental_debug_info {
    original_node_names: "incept_v3_a0/conv13/conv2d/kernel"
  }
}
node {
  name: "incept_v3_a0/conv13/batchnorm13/beta"
  op: "VariableV2"
  device: "/job:localhost/replica:0/task:0/device:GPU:0"
  attr {
    key: "_class"
    value {
      list {
        s: "loc:@GradientDescent/update_incept_v3_a0/conv13/batchnorm13/beta/ApplyGradientDescent"
      }
    }
  }
  attr {
    key: "_output_shapes"
    value {
      list {
        shape {
          dim {
            size: 48
          }
        }
      }
    }
  }
  attr {
    key: "container"
    value {
      s: ""
    }
  }
  attr {
    key: "dtype"
    value {
      type: DT_FLOAT
    }
  }
  attr {
    key: "shape"
    value {
      shape {
        dim {
          size: 48
        }
      }
    }
  }
  attr {
    key: "shared_name"
    value {
      s: ""
    }
  }
  experimental_debug_info {
    original_node_names: "incept_v3_a0/conv13/batchnorm13/beta"
  }
}
node {
  name: "incept_v3_d0/conv71/conv2d/kernel"
  op: "VariableV2"
  device: "/job:localhost/replica:0/task:0/device:GPU:0"
  attr {
    key: "_class"
    value {
      list {
        s: "loc:@GradientDescent/update_incept_v3_d0/conv71/conv2d/kernel/ApplyGradientDescent"
      }
    }
  }
  attr {
    key: "_output_shapes"
    value {
      list {
        shape {
          dim {
            size: 3
          }
          dim {
            size: 3
          }
          dim {
            size: 192
          }
          dim {
            size: 320
          }
        }
      }
    }
  }
  attr {
    key: "container"
    value {
      s: ""
    }
  }
  attr {
    key: "dtype"
    value {
      type: DT_FLOAT
    }
  }
  attr {
    key: "shape"
    value {
      shape {
        dim {
          size: 3
        }
        dim {
          size: 3
        }
        dim {
          size: 192
        }
        dim {
          size: 320
        }
      }
    }
  }
  attr {
    key: "shared_name"
    value {
      s: ""
    }
  }
  experimental_debug_info {
    original_node_names: "incept_v3_d0/conv71/conv2d/kernel"
  }
}
node {
  name: "incept_v3_d0/conv71/batchnorm71/Const"
  op: "Const"
  device: "/job:localhost/replica:0/task:0/device:GPU:0"
  attr {
    key: "_output_shapes"
    value {
      list {
        shape {
          dim {
            size: 320
          }
        }
      }
    }
  }
  attr {
    key: "dtype"
    value {
      type: DT_FLOAT
    }
  }
  attr {
    key: "value"
    value {
      tensor {
        dtype: DT_FLOAT
        tensor_shape {
          dim {
            size: 320
          }
        }
        float_val: 1.0
      }
    }
  }
  experimental_debug_info {
    original_node_names: "incept_v3_d0/conv71/batchnorm71/Const"
  }
}
node {
  name: "incept_v3_d0/conv71/batchnorm71/beta"
  op: "VariableV2"
  device: "/job:localhost/replica:0/task:0/device:GPU:0"
  attr {
    key: "_class"
    value {
      list {
        s: "loc:@GradientDescent/update_incept_v3_d0/conv71/batchnorm71/beta/ApplyGradientDescent"
      }
    }
  }
  attr {
    key: "_output_shapes"
    value {
      list {
        shape {
          dim {
            size: 320
          }
        }
      }
    }
  }
  attr {
    key: "container"
    value {
      s: ""
    }
  }
  attr {
    key: "dtype"
    value {
      type: DT_FLOAT
    }
  }
  attr {
    key: "shape"
    value {
      shape {
        dim {
          size: 320
        }
      }
    }
  }
  attr {
    key: "shared_name"
    value {
      s: ""
    }
  }
  experimental_debug_info {
    original_node_names: "incept_v3_d0/conv71/batchnorm71/beta"
  }
}
node {
  name: "incept_v3_a0/conv14/conv2d/kernel"
  op: "VariableV2"
  device: "/job:localhost/replica:0/task:0/device:GPU:0"
  attr {
    key: "_class"
    value {
      list {
        s: "loc:@GradientDescent/update_incept_v3_a0/conv14/conv2d/kernel/ApplyGradientDescent"
      }
    }
  }
  attr {
    key: "_output_shapes"
    value {
      list {
        shape {
          dim {
            size: 5
          }
          dim {
            size: 5
          }
          dim {
            size: 48
          }
          dim {
            size: 64
          }
        }
      }
    }
  }
  attr {
    key: "container"
    value {
      s: ""
    }
  }
  attr {
    key: "dtype"
    value {
      type: DT_FLOAT
    }
  }
  attr {
    key: "shape"
    value {
      shape {
        dim {
          size: 5
        }
        dim {
          size: 5
        }
        dim {
          size: 48
        }
        dim {
          size: 64
        }
      }
    }
  }
  attr {
    key: "shared_name"
    value {
      s: ""
    }
  }
  experimental_debug_info {
    original_node_names: "incept_v3_a0/conv14/conv2d/kernel"
  }
}
node {
  name: "incept_v3_a0/conv14/batchnorm14/beta"
  op: "VariableV2"
  device: "/job:localhost/replica:0/task:0/device:GPU:0"
  attr {
    key: "_class"
    value {
      list {
        s: "loc:@GradientDescent/update_incept_v3_a0/conv14/batchnorm14/beta/ApplyGradientDescent"
      }
    }
  }
  attr {
    key: "_output_shapes"
    value {
      list {
        shape {
          dim {
            size: 64
          }
        }
      }
    }
  }
  attr {
    key: "container"
    value {
      s: ""
    }
  }
  attr {
    key: "dtype"
    value {
      type: DT_FLOAT
    }
  }
  attr {
    key: "shape"
    value {
      shape {
        dim {
          size: 64
        }
      }
    }
  }
  attr {
    key: "shared_name"
    value {
      s: ""
    }
  }
  experimental_debug_info {
    original_node_names: "incept_v3_a0/conv14/batchnorm14/beta"
  }
}
node {
  name: "incept_v3_a0/conv15/conv2d/kernel"
  op: "VariableV2"
  device: "/job:localhost/replica:0/task:0/device:GPU:0"
  attr {
    key: "_class"
    value {
      list {
        s: "loc:@GradientDescent/update_incept_v3_a0/conv15/conv2d/kernel/ApplyGradientDescent"
      }
    }
  }
  attr {
    key: "_output_shapes"
    value {
      list {
        shape {
          dim {
            size: 1
          }
          dim {
            size: 1
          }
          dim {
            size: 256
          }
          dim {
            size: 64
          }
        }
      }
    }
  }
  attr {
    key: "container"
    value {
      s: ""
    }
  }
  attr {
    key: "dtype"
    value {
      type: DT_FLOAT
    }
  }
  attr {
    key: "shape"
    value {
      shape {
        dim {
          size: 1
        }
        dim {
          size: 1
        }
        dim {
          size: 256
        }
        dim {
          size: 64
        }
      }
    }
  }
  attr {
    key: "shared_name"
    value {
      s: ""
    }
  }
  experimental_debug_info {
    original_node_names: "incept_v3_a0/conv15/conv2d/kernel"
  }
}
node {
  name: "incept_v3_d0/conv72/conv2d/kernel"
  op: "VariableV2"
  device: "/job:localhost/replica:0/task:0/device:GPU:0"
  attr {
    key: "_class"
    value {
      list {
        s: "loc:@GradientDescent/update_incept_v3_d0/conv72/conv2d/kernel/ApplyGradientDescent"
      }
    }
  }
  attr {
    key: "_output_shapes"
    value {
      list {
        shape {
          dim {
            size: 1
          }
          dim {
            size: 1
          }
          dim {
            size: 768
          }
          dim {
            size: 192
          }
        }
      }
    }
  }
  attr {
    key: "container"
    value {
      s: ""
    }
  }
  attr {
    key: "dtype"
    value {
      type: DT_FLOAT
    }
  }
  attr {
    key: "shape"
    value {
      shape {
        dim {
          size: 1
        }
        dim {
          size: 1
        }
        dim {
          size: 768
        }
        dim {
          size: 192
        }
      }
    }
  }
  attr {
    key: "shared_name"
    value {
      s: ""
    }
  }
  experimental_debug_info {
    original_node_names: "incept_v3_d0/conv72/conv2d/kernel"
  }
}
node {
  name: "incept_v3_a0/conv15/batchnorm15/beta"
  op: "VariableV2"
  device: "/job:localhost/replica:0/task:0/device:GPU:0"
  attr {
    key: "_class"
    value {
      list {
        s: "loc:@GradientDescent/update_incept_v3_a0/conv15/batchnorm15/beta/ApplyGradientDescent"
      }
    }
  }
  attr {
    key: "_output_shapes"
    value {
      list {
        shape {
          dim {
            size: 64
          }
        }
      }
    }
  }
  attr {
    key: "container"
    value {
      s: ""
    }
  }
  attr {
    key: "dtype"
    value {
      type: DT_FLOAT
    }
  }
  attr {
    key: "shape"
    value {
      shape {
        dim {
          size: 64
        }
      }
    }
  }
  attr {
    key: "shared_name"
    value {
      s: ""
    }
  }
  experimental_debug_info {
    original_node_names: "incept_v3_a0/conv15/batchnorm15/beta"
  }
}
node {
  name: "incept_v3_d0/conv72/batchnorm72/beta"
  op: "VariableV2"
  device: "/job:localhost/replica:0/task:0/device:GPU:0"
  attr {
    key: "_class"
    value {
      list {
        s: "loc:@GradientDescent/update_incept_v3_d0/conv72/batchnorm72/beta/ApplyGradientDescent"
      }
    }
  }
  attr {
    key: "_output_shapes"
    value {
      list {
        shape {
          dim {
            size: 192
          }
        }
      }
    }
  }
  attr {
    key: "container"
    value {
      s: ""
    }
  }
  attr {
    key: "dtype"
    value {
      type: DT_FLOAT
    }
  }
  attr {
    key: "shape"
    value {
      shape {
        dim {
          size: 192
        }
      }
    }
  }
  attr {
    key: "shared_name"
    value {
      s: ""
    }
  }
  experimental_debug_info {
    original_node_names: "incept_v3_d0/conv72/batchnorm72/beta"
  }
}
node {
  name: "incept_v3_a0/conv16/conv2d/kernel"
  op: "VariableV2"
  device: "/job:localhost/replica:0/task:0/device:GPU:0"
  attr {
    key: "_class"
    value {
      list {
        s: "loc:@GradientDescent/update_incept_v3_a0/conv16/conv2d/kernel/ApplyGradientDescent"
      }
    }
  }
  attr {
    key: "_output_shapes"
    value {
      list {
        shape {
          dim {
            size: 3
          }
          dim {
            size: 3
          }
          dim {
            size: 64
          }
          dim {
            size: 96
          }
        }
      }
    }
  }
  attr {
    key: "container"
    value {
      s: ""
    }
  }
  attr {
    key: "dtype"
    value {
      type: DT_FLOAT
    }
  }
  attr {
    key: "shape"
    value {
      shape {
        dim {
          size: 3
        }
        dim {
          size: 3
        }
        dim {
          size: 64
        }
        dim {
          size: 96
        }
      }
    }
  }
  attr {
    key: "shared_name"
    value {
      s: ""
    }
  }
  experimental_debug_info {
    original_node_names: "incept_v3_a0/conv16/conv2d/kernel"
  }
}
node {
  name: "incept_v3_a0/conv16/batchnorm16/beta"
  op: "VariableV2"
  device: "/job:localhost/replica:0/task:0/device:GPU:0"
  attr {
    key: "_class"
    value {
      list {
        s: "loc:@GradientDescent/update_incept_v3_a0/conv16/batchnorm16/beta/ApplyGradientDescent"
      }
    }
  }
  attr {
    key: "_output_shapes"
    value {
      list {
        shape {
          dim {
            size: 96
          }
        }
      }
    }
  }
  attr {
    key: "container"
    value {
      s: ""
    }
  }
  attr {
    key: "dtype"
    value {
      type: DT_FLOAT
    }
  }
  attr {
    key: "shape"
    value {
      shape {
        dim {
          size: 96
        }
      }
    }
  }
  attr {
    key: "shared_name"
    value {
      s: ""
    }
  }
  experimental_debug_info {
    original_node_names: "incept_v3_a0/conv16/batchnorm16/beta"
  }
}
node {
  name: "incept_v3_d0/conv73/conv2d/kernel"
  op: "VariableV2"
  device: "/job:localhost/replica:0/task:0/device:GPU:0"
  attr {
    key: "_class"
    value {
      list {
        s: "loc:@GradientDescent/update_incept_v3_d0/conv73/conv2d/kernel/ApplyGradientDescent"
      }
    }
  }
  attr {
    key: "_output_shapes"
    value {
      list {
        shape {
          dim {
            size: 1
          }
          dim {
            size: 7
          }
          dim {
            size: 192
          }
          dim {
            size: 192
          }
        }
      }
    }
  }
  attr {
    key: "container"
    value {
      s: ""
    }
  }
  attr {
    key: "dtype"
    value {
      type: DT_FLOAT
    }
  }
  attr {
    key: "shape"
    value {
      shape {
        dim {
          size: 1
        }
        dim {
          size: 7
        }
        dim {
          size: 192
        }
        dim {
          size: 192
        }
      }
    }
  }
  attr {
    key: "shared_name"
    value {
      s: ""
    }
  }
  experimental_debug_info {
    original_node_names: "incept_v3_d0/conv73/conv2d/kernel"
  }
}
node {
  name: "incept_v3_d0/conv73/batchnorm73/beta"
  op: "VariableV2"
  device: "/job:localhost/replica:0/task:0/device:GPU:0"
  attr {
    key: "_class"
    value {
      list {
        s: "loc:@GradientDescent/update_incept_v3_d0/conv73/batchnorm73/beta/ApplyGradientDescent"
      }
    }
  }
  attr {
    key: "_output_shapes"
    value {
      list {
        shape {
          dim {
            size: 192
          }
        }
      }
    }
  }
  attr {
    key: "container"
    value {
      s: ""
    }
  }
  attr {
    key: "dtype"
    value {
      type: DT_FLOAT
    }
  }
  attr {
    key: "shape"
    value {
      shape {
        dim {
          size: 192
        }
      }
    }
  }
  attr {
    key: "shared_name"
    value {
      s: ""
    }
  }
  experimental_debug_info {
    original_node_names: "incept_v3_d0/conv73/batchnorm73/beta"
  }
}
node {
  name: "incept_v3_a0/conv17/conv2d/kernel"
  op: "VariableV2"
  device: "/job:localhost/replica:0/task:0/device:GPU:0"
  attr {
    key: "_class"
    value {
      list {
        s: "loc:@GradientDescent/update_incept_v3_a0/conv17/conv2d/kernel/ApplyGradientDescent"
      }
    }
  }
  attr {
    key: "_output_shapes"
    value {
      list {
        shape {
          dim {
            size: 3
          }
          dim {
            size: 3
          }
          dim {
            size: 96
          }
          dim {
            size: 96
          }
        }
      }
    }
  }
  attr {
    key: "container"
    value {
      s: ""
    }
  }
  attr {
    key: "dtype"
    value {
      type: DT_FLOAT
    }
  }
  attr {
    key: "shape"
    value {
      shape {
        dim {
          size: 3
        }
        dim {
          size: 3
        }
        dim {
          size: 96
        }
        dim {
          size: 96
        }
      }
    }
  }
  attr {
    key: "shared_name"
    value {
      s: ""
    }
  }
  experimental_debug_info {
    original_node_names: "incept_v3_a0/conv17/conv2d/kernel"
  }
}
node {
  name: "incept_v3_a0/conv17/batchnorm17/beta"
  op: "VariableV2"
  device: "/job:localhost/replica:0/task:0/device:GPU:0"
  attr {
    key: "_class"
    value {
      list {
        s: "loc:@GradientDescent/update_incept_v3_a0/conv17/batchnorm17/beta/ApplyGradientDescent"
      }
    }
  }
  attr {
    key: "_output_shapes"
    value {
      list {
        shape {
          dim {
            size: 96
          }
        }
      }
    }
  }
  attr {
    key: "container"
    value {
      s: ""
    }
  }
  attr {
    key: "dtype"
    value {
      type: DT_FLOAT
    }
  }
  attr {
    key: "shape"
    value {
      shape {
        dim {
          size: 96
        }
      }
    }
  }
  attr {
    key: "shared_name"
    value {
      s: ""
    }
  }
  experimental_debug_info {
    original_node_names: "incept_v3_a0/conv17/batchnorm17/beta"
  }
}
node {
  name: "incept_v3_d0/conv74/conv2d/kernel"
  op: "VariableV2"
  device: "/job:localhost/replica:0/task:0/device:GPU:0"
  attr {
    key: "_class"
    value {
      list {
        s: "loc:@GradientDescent/update_incept_v3_d0/conv74/conv2d/kernel/ApplyGradientDescent"
      }
    }
  }
  attr {
    key: "_output_shapes"
    value {
      list {
        shape {
          dim {
            size: 7
          }
          dim {
            size: 1
          }
          dim {
            size: 192
          }
          dim {
            size: 192
          }
        }
      }
    }
  }
  attr {
    key: "container"
    value {
      s: ""
    }
  }
  attr {
    key: "dtype"
    value {
      type: DT_FLOAT
    }
  }
  attr {
    key: "shape"
    value {
      shape {
        dim {
          size: 7
        }
        dim {
          size: 1
        }
        dim {
          size: 192
        }
        dim {
          size: 192
        }
      }
    }
  }
  attr {
    key: "shared_name"
    value {
      s: ""
    }
  }
  experimental_debug_info {
    original_node_names: "incept_v3_d0/conv74/conv2d/kernel"
  }
}
node {
  name: "incept_v3_d0/conv74/batchnorm74/beta"
  op: "VariableV2"
  device: "/job:localhost/replica:0/task:0/device:GPU:0"
  attr {
    key: "_class"
    value {
      list {
        s: "loc:@GradientDescent/update_incept_v3_d0/conv74/batchnorm74/beta/ApplyGradientDescent"
      }
    }
  }
  attr {
    key: "_output_shapes"
    value {
      list {
        shape {
          dim {
            size: 192
          }
        }
      }
    }
  }
  attr {
    key: "container"
    value {
      s: ""
    }
  }
  attr {
    key: "dtype"
    value {
      type: DT_FLOAT
    }
  }
  attr {
    key: "shape"
    value {
      shape {
        dim {
          size: 192
        }
      }
    }
  }
  attr {
    key: "shared_name"
    value {
      s: ""
    }
  }
  experimental_debug_info {
    original_node_names: "incept_v3_d0/conv74/batchnorm74/beta"
  }
}
node {
  name: "incept_v3_a0/conv18/conv2d/kernel"
  op: "VariableV2"
  device: "/job:localhost/replica:0/task:0/device:GPU:0"
  attr {
    key: "_class"
    value {
      list {
        s: "loc:@GradientDescent/update_incept_v3_a0/conv18/conv2d/kernel/ApplyGradientDescent"
      }
    }
  }
  attr {
    key: "_output_shapes"
    value {
      list {
        shape {
          dim {
            size: 1
          }
          dim {
            size: 1
          }
          dim {
            size: 256
          }
          dim {
            size: 64
          }
        }
      }
    }
  }
  attr {
    key: "container"
    value {
      s: ""
    }
  }
  attr {
    key: "dtype"
    value {
      type: DT_FLOAT
    }
  }
  attr {
    key: "shape"
    value {
      shape {
        dim {
          size: 1
        }
        dim {
          size: 1
        }
        dim {
          size: 256
        }
        dim {
          size: 64
        }
      }
    }
  }
  attr {
    key: "shared_name"
    value {
      s: ""
    }
  }
  experimental_debug_info {
    original_node_names: "incept_v3_a0/conv18/conv2d/kernel"
  }
}
node {
  name: "incept_v3_a0/conv18/batchnorm18/beta"
  op: "VariableV2"
  device: "/job:localhost/replica:0/task:0/device:GPU:0"
  attr {
    key: "_class"
    value {
      list {
        s: "loc:@GradientDescent/update_incept_v3_a0/conv18/batchnorm18/beta/ApplyGradientDescent"
      }
    }
  }
  attr {
    key: "_output_shapes"
    value {
      list {
        shape {
          dim {
            size: 64
          }
        }
      }
    }
  }
  attr {
    key: "container"
    value {
      s: ""
    }
  }
  attr {
    key: "dtype"
    value {
      type: DT_FLOAT
    }
  }
  attr {
    key: "shape"
    value {
      shape {
        dim {
          size: 64
        }
      }
    }
  }
  attr {
    key: "shared_name"
    value {
      s: ""
    }
  }
  experimental_debug_info {
    original_node_names: "incept_v3_a0/conv18/batchnorm18/beta"
  }
}
node {
  name: "gradients/incept_v3_a0/concat_grad/Slice_3-2-DataFormatVecPermuteNHWCToNCHW-LayoutOptimizer"
  op: "Const"
  device: "/job:localhost/replica:0/task:0/device:GPU:0"
  attr {
    key: "_output_shapes"
    value {
      list {
        shape {
          dim {
            size: 4
          }
        }
      }
    }
  }
  attr {
    key: "dtype"
    value {
      type: DT_INT32
    }
  }
  attr {
    key: "value"
    value {
      tensor {
        dtype: DT_INT32
        tensor_shape {
          dim {
            size: 4
          }
        }
        tensor_content: " \000\000\000 \000\000\000#\000\000\000#\000\000\000"
      }
    }
  }
  experimental_debug_info {
    original_node_names: "gradients/incept_v3_a0/concat_grad/Slice_3-2-DataFormatVecPermuteNHWCToNCHW-LayoutOptimizer"
  }
}
node {
  name: "incept_v3_a0/conv19/conv2d/kernel"
  op: "VariableV2"
  device: "/job:localhost/replica:0/task:0/device:GPU:0"
  attr {
    key: "_class"
    value {
      list {
        s: "loc:@GradientDescent/update_incept_v3_a0/conv19/conv2d/kernel/ApplyGradientDescent"
      }
    }
  }
  attr {
    key: "_output_shapes"
    value {
      list {
        shape {
          dim {
            size: 1
          }
          dim {
            size: 1
          }
          dim {
            size: 288
          }
          dim {
            size: 64
          }
        }
      }
    }
  }
  attr {
    key: "container"
    value {
      s: ""
    }
  }
  attr {
    key: "dtype"
    value {
      type: DT_FLOAT
    }
  }
  attr {
    key: "shape"
    value {
      shape {
        dim {
          size: 1
        }
        dim {
          size: 1
        }
        dim {
          size: 288
        }
        dim {
          size: 64
        }
      }
    }
  }
  attr {
    key: "shared_name"
    value {
      s: ""
    }
  }
  experimental_debug_info {
    original_node_names: "incept_v3_a0/conv19/conv2d/kernel"
  }
}
node {
  name: "incept_v3_d0/conv75/conv2d/kernel"
  op: "VariableV2"
  device: "/job:localhost/replica:0/task:0/device:GPU:0"
  attr {
    key: "_class"
    value {
      list {
        s: "loc:@GradientDescent/update_incept_v3_d0/conv75/conv2d/kernel/ApplyGradientDescent"
      }
    }
  }
  attr {
    key: "_output_shapes"
    value {
      list {
        shape {
          dim {
            size: 3
          }
          dim {
            size: 3
          }
          dim {
            size: 192
          }
          dim {
            size: 192
          }
        }
      }
    }
  }
  attr {
    key: "container"
    value {
      s: ""
    }
  }
  attr {
    key: "dtype"
    value {
      type: DT_FLOAT
    }
  }
  attr {
    key: "shape"
    value {
      shape {
        dim {
          size: 3
        }
        dim {
          size: 3
        }
        dim {
          size: 192
        }
        dim {
          size: 192
        }
      }
    }
  }
  attr {
    key: "shared_name"
    value {
      s: ""
    }
  }
  experimental_debug_info {
    original_node_names: "incept_v3_d0/conv75/conv2d/kernel"
  }
}
node {
  name: "incept_v3_a0/conv19/batchnorm19/beta"
  op: "VariableV2"
  device: "/job:localhost/replica:0/task:0/device:GPU:0"
  attr {
    key: "_class"
    value {
      list {
        s: "loc:@GradientDescent/update_incept_v3_a0/conv19/batchnorm19/beta/ApplyGradientDescent"
      }
    }
  }
  attr {
    key: "_output_shapes"
    value {
      list {
        shape {
          dim {
            size: 64
          }
        }
      }
    }
  }
  attr {
    key: "container"
    value {
      s: ""
    }
  }
  attr {
    key: "dtype"
    value {
      type: DT_FLOAT
    }
  }
  attr {
    key: "shape"
    value {
      shape {
        dim {
          size: 64
        }
      }
    }
  }
  attr {
    key: "shared_name"
    value {
      s: ""
    }
  }
  experimental_debug_info {
    original_node_names: "incept_v3_a0/conv19/batchnorm19/beta"
  }
}
node {
  name: "incept_v3_d0/conv75/batchnorm75/beta"
  op: "VariableV2"
  device: "/job:localhost/replica:0/task:0/device:GPU:0"
  attr {
    key: "_class"
    value {
      list {
        s: "loc:@GradientDescent/update_incept_v3_d0/conv75/batchnorm75/beta/ApplyGradientDescent"
      }
    }
  }
  attr {
    key: "_output_shapes"
    value {
      list {
        shape {
          dim {
            size: 192
          }
        }
      }
    }
  }
  attr {
    key: "container"
    value {
      s: ""
    }
  }
  attr {
    key: "dtype"
    value {
      type: DT_FLOAT
    }
  }
  attr {
    key: "shape"
    value {
      shape {
        dim {
          size: 192
        }
      }
    }
  }
  attr {
    key: "shared_name"
    value {
      s: ""
    }
  }
  experimental_debug_info {
    original_node_names: "incept_v3_d0/conv75/batchnorm75/beta"
  }
}
node {
  name: "incept_v3_a0/conv20/conv2d/kernel"
  op: "VariableV2"
  device: "/job:localhost/replica:0/task:0/device:GPU:0"
  attr {
    key: "_class"
    value {
      list {
        s: "loc:@GradientDescent/update_incept_v3_a0/conv20/conv2d/kernel/ApplyGradientDescent"
      }
    }
  }
  attr {
    key: "_output_shapes"
    value {
      list {
        shape {
          dim {
            size: 1
          }
          dim {
            size: 1
          }
          dim {
            size: 288
          }
          dim {
            size: 48
          }
        }
      }
    }
  }
  attr {
    key: "container"
    value {
      s: ""
    }
  }
  attr {
    key: "dtype"
    value {
      type: DT_FLOAT
    }
  }
  attr {
    key: "shape"
    value {
      shape {
        dim {
          size: 1
        }
        dim {
          size: 1
        }
        dim {
          size: 288
        }
        dim {
          size: 48
        }
      }
    }
  }
  attr {
    key: "shared_name"
    value {
      s: ""
    }
  }
  experimental_debug_info {
    original_node_names: "incept_v3_a0/conv20/conv2d/kernel"
  }
}
node {
  name: "incept_v3_a0/conv20/batchnorm20/beta"
  op: "VariableV2"
  device: "/job:localhost/replica:0/task:0/device:GPU:0"
  attr {
    key: "_class"
    value {
      list {
        s: "loc:@GradientDescent/update_incept_v3_a0/conv20/batchnorm20/beta/ApplyGradientDescent"
      }
    }
  }
  attr {
    key: "_output_shapes"
    value {
      list {
        shape {
          dim {
            size: 48
          }
        }
      }
    }
  }
  attr {
    key: "container"
    value {
      s: ""
    }
  }
  attr {
    key: "dtype"
    value {
      type: DT_FLOAT
    }
  }
  attr {
    key: "shape"
    value {
      shape {
        dim {
          size: 48
        }
      }
    }
  }
  attr {
    key: "shared_name"
    value {
      s: ""
    }
  }
  experimental_debug_info {
    original_node_names: "incept_v3_a0/conv20/batchnorm20/beta"
  }
}
node {
  name: "incept_v3_e0/conv76/conv2d/kernel"
  op: "VariableV2"
  device: "/job:localhost/replica:0/task:0/device:GPU:0"
  attr {
    key: "_class"
    value {
      list {
        s: "loc:@GradientDescent/update_incept_v3_e0/conv76/conv2d/kernel/ApplyGradientDescent"
      }
    }
  }
  attr {
    key: "_output_shapes"
    value {
      list {
        shape {
          dim {
            size: 1
          }
          dim {
            size: 1
          }
          dim {
            size: 1280
          }
          dim {
            size: 320
          }
        }
      }
    }
  }
  attr {
    key: "container"
    value {
      s: ""
    }
  }
  attr {
    key: "dtype"
    value {
      type: DT_FLOAT
    }
  }
  attr {
    key: "shape"
    value {
      shape {
        dim {
          size: 1
        }
        dim {
          size: 1
        }
        dim {
          size: 1280
        }
        dim {
          size: 320
        }
      }
    }
  }
  attr {
    key: "shared_name"
    value {
      s: ""
    }
  }
  experimental_debug_info {
    original_node_names: "incept_v3_e0/conv76/conv2d/kernel"
  }
}
node {
  name: "incept_v3_e0/conv76/batchnorm76/beta"
  op: "VariableV2"
  device: "/job:localhost/replica:0/task:0/device:GPU:0"
  attr {
    key: "_class"
    value {
      list {
        s: "loc:@GradientDescent/update_incept_v3_e0/conv76/batchnorm76/beta/ApplyGradientDescent"
      }
    }
  }
  attr {
    key: "_output_shapes"
    value {
      list {
        shape {
          dim {
            size: 320
          }
        }
      }
    }
  }
  attr {
    key: "container"
    value {
      s: ""
    }
  }
  attr {
    key: "dtype"
    value {
      type: DT_FLOAT
    }
  }
  attr {
    key: "shape"
    value {
      shape {
        dim {
          size: 320
        }
      }
    }
  }
  attr {
    key: "shared_name"
    value {
      s: ""
    }
  }
  experimental_debug_info {
    original_node_names: "incept_v3_e0/conv76/batchnorm76/beta"
  }
}
node {
  name: "incept_v3_a0/conv21/conv2d/kernel"
  op: "VariableV2"
  device: "/job:localhost/replica:0/task:0/device:GPU:0"
  attr {
    key: "_class"
    value {
      list {
        s: "loc:@GradientDescent/update_incept_v3_a0/conv21/conv2d/kernel/ApplyGradientDescent"
      }
    }
  }
  attr {
    key: "_output_shapes"
    value {
      list {
        shape {
          dim {
            size: 5
          }
          dim {
            size: 5
          }
          dim {
            size: 48
          }
          dim {
            size: 64
          }
        }
      }
    }
  }
  attr {
    key: "container"
    value {
      s: ""
    }
  }
  attr {
    key: "dtype"
    value {
      type: DT_FLOAT
    }
  }
  attr {
    key: "shape"
    value {
      shape {
        dim {
          size: 5
        }
        dim {
          size: 5
        }
        dim {
          size: 48
        }
        dim {
          size: 64
        }
      }
    }
  }
  attr {
    key: "shared_name"
    value {
      s: ""
    }
  }
  experimental_debug_info {
    original_node_names: "incept_v3_a0/conv21/conv2d/kernel"
  }
}
node {
  name: "incept_v3_a0/conv21/batchnorm21/beta"
  op: "VariableV2"
  device: "/job:localhost/replica:0/task:0/device:GPU:0"
  attr {
    key: "_class"
    value {
      list {
        s: "loc:@GradientDescent/update_incept_v3_a0/conv21/batchnorm21/beta/ApplyGradientDescent"
      }
    }
  }
  attr {
    key: "_output_shapes"
    value {
      list {
        shape {
          dim {
            size: 64
          }
        }
      }
    }
  }
  attr {
    key: "container"
    value {
      s: ""
    }
  }
  attr {
    key: "dtype"
    value {
      type: DT_FLOAT
    }
  }
  attr {
    key: "shape"
    value {
      shape {
        dim {
          size: 64
        }
      }
    }
  }
  attr {
    key: "shared_name"
    value {
      s: ""
    }
  }
  experimental_debug_info {
    original_node_names: "incept_v3_a0/conv21/batchnorm21/beta"
  }
}
node {
  name: "incept_v3_e0/conv77/conv2d/kernel"
  op: "VariableV2"
  device: "/job:localhost/replica:0/task:0/device:GPU:0"
  attr {
    key: "_class"
    value {
      list {
        s: "loc:@GradientDescent/update_incept_v3_e0/conv77/conv2d/kernel/ApplyGradientDescent"
      }
    }
  }
  attr {
    key: "_output_shapes"
    value {
      list {
        shape {
          dim {
            size: 1
          }
          dim {
            size: 1
          }
          dim {
            size: 1280
          }
          dim {
            size: 384
          }
        }
      }
    }
  }
  attr {
    key: "container"
    value {
      s: ""
    }
  }
  attr {
    key: "dtype"
    value {
      type: DT_FLOAT
    }
  }
  attr {
    key: "shape"
    value {
      shape {
        dim {
          size: 1
        }
        dim {
          size: 1
        }
        dim {
          size: 1280
        }
        dim {
          size: 384
        }
      }
    }
  }
  attr {
    key: "shared_name"
    value {
      s: ""
    }
  }
  experimental_debug_info {
    original_node_names: "incept_v3_e0/conv77/conv2d/kernel"
  }
}
node {
  name: "incept_v3_a0/conv22/conv2d/kernel"
  op: "VariableV2"
  device: "/job:localhost/replica:0/task:0/device:GPU:0"
  attr {
    key: "_class"
    value {
      list {
        s: "loc:@GradientDescent/update_incept_v3_a0/conv22/conv2d/kernel/ApplyGradientDescent"
      }
    }
  }
  attr {
    key: "_output_shapes"
    value {
      list {
        shape {
          dim {
            size: 1
          }
          dim {
            size: 1
          }
          dim {
            size: 288
          }
          dim {
            size: 64
          }
        }
      }
    }
  }
  attr {
    key: "container"
    value {
      s: ""
    }
  }
  attr {
    key: "dtype"
    value {
      type: DT_FLOAT
    }
  }
  attr {
    key: "shape"
    value {
      shape {
        dim {
          size: 1
        }
        dim {
          size: 1
        }
        dim {
          size: 288
        }
        dim {
          size: 64
        }
      }
    }
  }
  attr {
    key: "shared_name"
    value {
      s: ""
    }
  }
  experimental_debug_info {
    original_node_names: "incept_v3_a0/conv22/conv2d/kernel"
  }
}
node {
  name: "incept_v3_e0/conv77/batchnorm77/Const"
  op: "Const"
  device: "/job:localhost/replica:0/task:0/device:GPU:0"
  attr {
    key: "_output_shapes"
    value {
      list {
        shape {
          dim {
            size: 384
          }
        }
      }
    }
  }
  attr {
    key: "dtype"
    value {
      type: DT_FLOAT
    }
  }
  attr {
    key: "value"
    value {
      tensor {
        dtype: DT_FLOAT
        tensor_shape {
          dim {
            size: 384
          }
        }
        float_val: 1.0
      }
    }
  }
  experimental_debug_info {
    original_node_names: "incept_v3_e0/conv77/batchnorm77/Const"
  }
}
node {
  name: "incept_v3_e0/conv77/batchnorm77/beta"
  op: "VariableV2"
  device: "/job:localhost/replica:0/task:0/device:GPU:0"
  attr {
    key: "_class"
    value {
      list {
        s: "loc:@GradientDescent/update_incept_v3_e0/conv77/batchnorm77/beta/ApplyGradientDescent"
      }
    }
  }
  attr {
    key: "_output_shapes"
    value {
      list {
        shape {
          dim {
            size: 384
          }
        }
      }
    }
  }
  attr {
    key: "container"
    value {
      s: ""
    }
  }
  attr {
    key: "dtype"
    value {
      type: DT_FLOAT
    }
  }
  attr {
    key: "shape"
    value {
      shape {
        dim {
          size: 384
        }
      }
    }
  }
  attr {
    key: "shared_name"
    value {
      s: ""
    }
  }
  experimental_debug_info {
    original_node_names: "incept_v3_e0/conv77/batchnorm77/beta"
  }
}
node {
  name: "incept_v3_a0/conv22/batchnorm22/beta"
  op: "VariableV2"
  device: "/job:localhost/replica:0/task:0/device:GPU:0"
  attr {
    key: "_class"
    value {
      list {
        s: "loc:@GradientDescent/update_incept_v3_a0/conv22/batchnorm22/beta/ApplyGradientDescent"
      }
    }
  }
  attr {
    key: "_output_shapes"
    value {
      list {
        shape {
          dim {
            size: 64
          }
        }
      }
    }
  }
  attr {
    key: "container"
    value {
      s: ""
    }
  }
  attr {
    key: "dtype"
    value {
      type: DT_FLOAT
    }
  }
  attr {
    key: "shape"
    value {
      shape {
        dim {
          size: 64
        }
      }
    }
  }
  attr {
    key: "shared_name"
    value {
      s: ""
    }
  }
  experimental_debug_info {
    original_node_names: "incept_v3_a0/conv22/batchnorm22/beta"
  }
}
node {
  name: "incept_v3_a0/conv23/conv2d/kernel"
  op: "VariableV2"
  device: "/job:localhost/replica:0/task:0/device:GPU:0"
  attr {
    key: "_class"
    value {
      list {
        s: "loc:@GradientDescent/update_incept_v3_a0/conv23/conv2d/kernel/ApplyGradientDescent"
      }
    }
  }
  attr {
    key: "_output_shapes"
    value {
      list {
        shape {
          dim {
            size: 3
          }
          dim {
            size: 3
          }
          dim {
            size: 64
          }
          dim {
            size: 96
          }
        }
      }
    }
  }
  attr {
    key: "container"
    value {
      s: ""
    }
  }
  attr {
    key: "dtype"
    value {
      type: DT_FLOAT
    }
  }
  attr {
    key: "shape"
    value {
      shape {
        dim {
          size: 3
        }
        dim {
          size: 3
        }
        dim {
          size: 64
        }
        dim {
          size: 96
        }
      }
    }
  }
  attr {
    key: "shared_name"
    value {
      s: ""
    }
  }
  experimental_debug_info {
    original_node_names: "incept_v3_a0/conv23/conv2d/kernel"
  }
}
node {
  name: "incept_v3_a0/conv23/batchnorm23/beta"
  op: "VariableV2"
  device: "/job:localhost/replica:0/task:0/device:GPU:0"
  attr {
    key: "_class"
    value {
      list {
        s: "loc:@GradientDescent/update_incept_v3_a0/conv23/batchnorm23/beta/ApplyGradientDescent"
      }
    }
  }
  attr {
    key: "_output_shapes"
    value {
      list {
        shape {
          dim {
            size: 96
          }
        }
      }
    }
  }
  attr {
    key: "container"
    value {
      s: ""
    }
  }
  attr {
    key: "dtype"
    value {
      type: DT_FLOAT
    }
  }
  attr {
    key: "shape"
    value {
      shape {
        dim {
          size: 96
        }
      }
    }
  }
  attr {
    key: "shared_name"
    value {
      s: ""
    }
  }
  experimental_debug_info {
    original_node_names: "incept_v3_a0/conv23/batchnorm23/beta"
  }
}
node {
  name: "incept_v3_e0/conv78/conv2d/kernel"
  op: "VariableV2"
  device: "/job:localhost/replica:0/task:0/device:GPU:0"
  attr {
    key: "_class"
    value {
      list {
        s: "loc:@GradientDescent/update_incept_v3_e0/conv78/conv2d/kernel/ApplyGradientDescent"
      }
    }
  }
  attr {
    key: "_output_shapes"
    value {
      list {
        shape {
          dim {
            size: 1
          }
          dim {
            size: 3
          }
          dim {
            size: 384
          }
          dim {
            size: 384
          }
        }
      }
    }
  }
  attr {
    key: "container"
    value {
      s: ""
    }
  }
  attr {
    key: "dtype"
    value {
      type: DT_FLOAT
    }
  }
  attr {
    key: "shape"
    value {
      shape {
        dim {
          size: 1
        }
        dim {
          size: 3
        }
        dim {
          size: 384
        }
        dim {
          size: 384
        }
      }
    }
  }
  attr {
    key: "shared_name"
    value {
      s: ""
    }
  }
  experimental_debug_info {
    original_node_names: "incept_v3_e0/conv78/conv2d/kernel"
  }
}
node {
  name: "incept_v3_e0/conv78/batchnorm78/beta"
  op: "VariableV2"
  device: "/job:localhost/replica:0/task:0/device:GPU:0"
  attr {
    key: "_class"
    value {
      list {
        s: "loc:@GradientDescent/update_incept_v3_e0/conv78/batchnorm78/beta/ApplyGradientDescent"
      }
    }
  }
  attr {
    key: "_output_shapes"
    value {
      list {
        shape {
          dim {
            size: 384
          }
        }
      }
    }
  }
  attr {
    key: "container"
    value {
      s: ""
    }
  }
  attr {
    key: "dtype"
    value {
      type: DT_FLOAT
    }
  }
  attr {
    key: "shape"
    value {
      shape {
        dim {
          size: 384
        }
      }
    }
  }
  attr {
    key: "shared_name"
    value {
      s: ""
    }
  }
  experimental_debug_info {
    original_node_names: "incept_v3_e0/conv78/batchnorm78/beta"
  }
}
node {
  name: "incept_v3_a0/conv24/conv2d/kernel"
  op: "VariableV2"
  device: "/job:localhost/replica:0/task:0/device:GPU:0"
  attr {
    key: "_class"
    value {
      list {
        s: "loc:@GradientDescent/update_incept_v3_a0/conv24/conv2d/kernel/ApplyGradientDescent"
      }
    }
  }
  attr {
    key: "_output_shapes"
    value {
      list {
        shape {
          dim {
            size: 3
          }
          dim {
            size: 3
          }
          dim {
            size: 96
          }
          dim {
            size: 96
          }
        }
      }
    }
  }
  attr {
    key: "container"
    value {
      s: ""
    }
  }
  attr {
    key: "dtype"
    value {
      type: DT_FLOAT
    }
  }
  attr {
    key: "shape"
    value {
      shape {
        dim {
          size: 3
        }
        dim {
          size: 3
        }
        dim {
          size: 96
        }
        dim {
          size: 96
        }
      }
    }
  }
  attr {
    key: "shared_name"
    value {
      s: ""
    }
  }
  experimental_debug_info {
    original_node_names: "incept_v3_a0/conv24/conv2d/kernel"
  }
}
node {
  name: "incept_v3_a0/conv24/batchnorm24/beta"
  op: "VariableV2"
  device: "/job:localhost/replica:0/task:0/device:GPU:0"
  attr {
    key: "_class"
    value {
      list {
        s: "loc:@GradientDescent/update_incept_v3_a0/conv24/batchnorm24/beta/ApplyGradientDescent"
      }
    }
  }
  attr {
    key: "_output_shapes"
    value {
      list {
        shape {
          dim {
            size: 96
          }
        }
      }
    }
  }
  attr {
    key: "container"
    value {
      s: ""
    }
  }
  attr {
    key: "dtype"
    value {
      type: DT_FLOAT
    }
  }
  attr {
    key: "shape"
    value {
      shape {
        dim {
          size: 96
        }
      }
    }
  }
  attr {
    key: "shared_name"
    value {
      s: ""
    }
  }
  experimental_debug_info {
    original_node_names: "incept_v3_a0/conv24/batchnorm24/beta"
  }
}
node {
  name: "incept_v3_e0/conv79/conv2d/kernel"
  op: "VariableV2"
  device: "/job:localhost/replica:0/task:0/device:GPU:0"
  attr {
    key: "_class"
    value {
      list {
        s: "loc:@GradientDescent/update_incept_v3_e0/conv79/conv2d/kernel/ApplyGradientDescent"
      }
    }
  }
  attr {
    key: "_output_shapes"
    value {
      list {
        shape {
          dim {
            size: 3
          }
          dim {
            size: 1
          }
          dim {
            size: 384
          }
          dim {
            size: 384
          }
        }
      }
    }
  }
  attr {
    key: "container"
    value {
      s: ""
    }
  }
  attr {
    key: "dtype"
    value {
      type: DT_FLOAT
    }
  }
  attr {
    key: "shape"
    value {
      shape {
        dim {
          size: 3
        }
        dim {
          size: 1
        }
        dim {
          size: 384
        }
        dim {
          size: 384
        }
      }
    }
  }
  attr {
    key: "shared_name"
    value {
      s: ""
    }
  }
  experimental_debug_info {
    original_node_names: "incept_v3_e0/conv79/conv2d/kernel"
  }
}
node {
  name: "incept_v3_e0/conv79/batchnorm79/beta"
  op: "VariableV2"
  device: "/job:localhost/replica:0/task:0/device:GPU:0"
  attr {
    key: "_class"
    value {
      list {
        s: "loc:@GradientDescent/update_incept_v3_e0/conv79/batchnorm79/beta/ApplyGradientDescent"
      }
    }
  }
  attr {
    key: "_output_shapes"
    value {
      list {
        shape {
          dim {
            size: 384
          }
        }
      }
    }
  }
  attr {
    key: "container"
    value {
      s: ""
    }
  }
  attr {
    key: "dtype"
    value {
      type: DT_FLOAT
    }
  }
  attr {
    key: "shape"
    value {
      shape {
        dim {
          size: 384
        }
      }
    }
  }
  attr {
    key: "shared_name"
    value {
      s: ""
    }
  }
  experimental_debug_info {
    original_node_names: "incept_v3_e0/conv79/batchnorm79/beta"
  }
}
node {
  name: "incept_v3_a0/conv25/conv2d/kernel"
  op: "VariableV2"
  device: "/job:localhost/replica:0/task:0/device:GPU:0"
  attr {
    key: "_class"
    value {
      list {
        s: "loc:@GradientDescent/update_incept_v3_a0/conv25/conv2d/kernel/ApplyGradientDescent"
      }
    }
  }
  attr {
    key: "_output_shapes"
    value {
      list {
        shape {
          dim {
            size: 1
          }
          dim {
            size: 1
          }
          dim {
            size: 288
          }
          dim {
            size: 64
          }
        }
      }
    }
  }
  attr {
    key: "container"
    value {
      s: ""
    }
  }
  attr {
    key: "dtype"
    value {
      type: DT_FLOAT
    }
  }
  attr {
    key: "shape"
    value {
      shape {
        dim {
          size: 1
        }
        dim {
          size: 1
        }
        dim {
          size: 288
        }
        dim {
          size: 64
        }
      }
    }
  }
  attr {
    key: "shared_name"
    value {
      s: ""
    }
  }
  experimental_debug_info {
    original_node_names: "incept_v3_a0/conv25/conv2d/kernel"
  }
}
node {
  name: "incept_v3_a0/conv25/batchnorm25/beta"
  op: "VariableV2"
  device: "/job:localhost/replica:0/task:0/device:GPU:0"
  attr {
    key: "_class"
    value {
      list {
        s: "loc:@GradientDescent/update_incept_v3_a0/conv25/batchnorm25/beta/ApplyGradientDescent"
      }
    }
  }
  attr {
    key: "_output_shapes"
    value {
      list {
        shape {
          dim {
            size: 64
          }
        }
      }
    }
  }
  attr {
    key: "container"
    value {
      s: ""
    }
  }
  attr {
    key: "dtype"
    value {
      type: DT_FLOAT
    }
  }
  attr {
    key: "shape"
    value {
      shape {
        dim {
          size: 64
        }
      }
    }
  }
  attr {
    key: "shared_name"
    value {
      s: ""
    }
  }
  experimental_debug_info {
    original_node_names: "incept_v3_a0/conv25/batchnorm25/beta"
  }
}
node {
  name: "incept_v3_e0/conv80/conv2d/kernel"
  op: "VariableV2"
  device: "/job:localhost/replica:0/task:0/device:GPU:0"
  attr {
    key: "_class"
    value {
      list {
        s: "loc:@GradientDescent/update_incept_v3_e0/conv80/conv2d/kernel/ApplyGradientDescent"
      }
    }
  }
  attr {
    key: "_output_shapes"
    value {
      list {
        shape {
          dim {
            size: 1
          }
          dim {
            size: 1
          }
          dim {
            size: 1280
          }
          dim {
            size: 448
          }
        }
      }
    }
  }
  attr {
    key: "container"
    value {
      s: ""
    }
  }
  attr {
    key: "dtype"
    value {
      type: DT_FLOAT
    }
  }
  attr {
    key: "shape"
    value {
      shape {
        dim {
          size: 1
        }
        dim {
          size: 1
        }
        dim {
          size: 1280
        }
        dim {
          size: 448
        }
      }
    }
  }
  attr {
    key: "shared_name"
    value {
      s: ""
    }
  }
  experimental_debug_info {
    original_node_names: "incept_v3_e0/conv80/conv2d/kernel"
  }
}
node {
  name: "incept_v3_b0/conv26/conv2d/kernel"
  op: "VariableV2"
  device: "/job:localhost/replica:0/task:0/device:GPU:0"
  attr {
    key: "_class"
    value {
      list {
        s: "loc:@GradientDescent/update_incept_v3_b0/conv26/conv2d/kernel/ApplyGradientDescent"
      }
    }
  }
  attr {
    key: "_output_shapes"
    value {
      list {
        shape {
          dim {
            size: 3
          }
          dim {
            size: 3
          }
          dim {
            size: 288
          }
          dim {
            size: 384
          }
        }
      }
    }
  }
  attr {
    key: "container"
    value {
      s: ""
    }
  }
  attr {
    key: "dtype"
    value {
      type: DT_FLOAT
    }
  }
  attr {
    key: "shape"
    value {
      shape {
        dim {
          size: 3
        }
        dim {
          size: 3
        }
        dim {
          size: 288
        }
        dim {
          size: 384
        }
      }
    }
  }
  attr {
    key: "shared_name"
    value {
      s: ""
    }
  }
  experimental_debug_info {
    original_node_names: "incept_v3_b0/conv26/conv2d/kernel"
  }
}
node {
  name: "incept_v3_e0/conv80/batchnorm80/Const"
  op: "Const"
  device: "/job:localhost/replica:0/task:0/device:GPU:0"
  attr {
    key: "_output_shapes"
    value {
      list {
        shape {
          dim {
            size: 448
          }
        }
      }
    }
  }
  attr {
    key: "dtype"
    value {
      type: DT_FLOAT
    }
  }
  attr {
    key: "value"
    value {
      tensor {
        dtype: DT_FLOAT
        tensor_shape {
          dim {
            size: 448
          }
        }
        float_val: 1.0
      }
    }
  }
  experimental_debug_info {
    original_node_names: "incept_v3_e0/conv80/batchnorm80/Const"
  }
}
node {
  name: "incept_v3_e0/conv80/batchnorm80/beta"
  op: "VariableV2"
  device: "/job:localhost/replica:0/task:0/device:GPU:0"
  attr {
    key: "_class"
    value {
      list {
        s: "loc:@GradientDescent/update_incept_v3_e0/conv80/batchnorm80/beta/ApplyGradientDescent"
      }
    }
  }
  attr {
    key: "_output_shapes"
    value {
      list {
        shape {
          dim {
            size: 448
          }
        }
      }
    }
  }
  attr {
    key: "container"
    value {
      s: ""
    }
  }
  attr {
    key: "dtype"
    value {
      type: DT_FLOAT
    }
  }
  attr {
    key: "shape"
    value {
      shape {
        dim {
          size: 448
        }
      }
    }
  }
  attr {
    key: "shared_name"
    value {
      s: ""
    }
  }
  experimental_debug_info {
    original_node_names: "incept_v3_e0/conv80/batchnorm80/beta"
  }
}
node {
  name: "incept_v3_b0/conv26/batchnorm26/beta"
  op: "VariableV2"
  device: "/job:localhost/replica:0/task:0/device:GPU:0"
  attr {
    key: "_class"
    value {
      list {
        s: "loc:@GradientDescent/update_incept_v3_b0/conv26/batchnorm26/beta/ApplyGradientDescent"
      }
    }
  }
  attr {
    key: "_output_shapes"
    value {
      list {
        shape {
          dim {
            size: 384
          }
        }
      }
    }
  }
  attr {
    key: "container"
    value {
      s: ""
    }
  }
  attr {
    key: "dtype"
    value {
      type: DT_FLOAT
    }
  }
  attr {
    key: "shape"
    value {
      shape {
        dim {
          size: 384
        }
      }
    }
  }
  attr {
    key: "shared_name"
    value {
      s: ""
    }
  }
  experimental_debug_info {
    original_node_names: "incept_v3_b0/conv26/batchnorm26/beta"
  }
}
node {
  name: "incept_v3_b0/conv27/conv2d/kernel"
  op: "VariableV2"
  device: "/job:localhost/replica:0/task:0/device:GPU:0"
  attr {
    key: "_class"
    value {
      list {
        s: "loc:@GradientDescent/update_incept_v3_b0/conv27/conv2d/kernel/ApplyGradientDescent"
      }
    }
  }
  attr {
    key: "_output_shapes"
    value {
      list {
        shape {
          dim {
            size: 1
          }
          dim {
            size: 1
          }
          dim {
            size: 288
          }
          dim {
            size: 64
          }
        }
      }
    }
  }
  attr {
    key: "container"
    value {
      s: ""
    }
  }
  attr {
    key: "dtype"
    value {
      type: DT_FLOAT
    }
  }
  attr {
    key: "shape"
    value {
      shape {
        dim {
          size: 1
        }
        dim {
          size: 1
        }
        dim {
          size: 288
        }
        dim {
          size: 64
        }
      }
    }
  }
  attr {
    key: "shared_name"
    value {
      s: ""
    }
  }
  experimental_debug_info {
    original_node_names: "incept_v3_b0/conv27/conv2d/kernel"
  }
}
node {
  name: "incept_v3_b0/conv27/batchnorm27/beta"
  op: "VariableV2"
  device: "/job:localhost/replica:0/task:0/device:GPU:0"
  attr {
    key: "_class"
    value {
      list {
        s: "loc:@GradientDescent/update_incept_v3_b0/conv27/batchnorm27/beta/ApplyGradientDescent"
      }
    }
  }
  attr {
    key: "_output_shapes"
    value {
      list {
        shape {
          dim {
            size: 64
          }
        }
      }
    }
  }
  attr {
    key: "container"
    value {
      s: ""
    }
  }
  attr {
    key: "dtype"
    value {
      type: DT_FLOAT
    }
  }
  attr {
    key: "shape"
    value {
      shape {
        dim {
          size: 64
        }
      }
    }
  }
  attr {
    key: "shared_name"
    value {
      s: ""
    }
  }
  experimental_debug_info {
    original_node_names: "incept_v3_b0/conv27/batchnorm27/beta"
  }
}
node {
  name: "incept_v3_e0/conv81/conv2d/kernel"
  op: "VariableV2"
  device: "/job:localhost/replica:0/task:0/device:GPU:0"
  attr {
    key: "_class"
    value {
      list {
        s: "loc:@GradientDescent/update_incept_v3_e0/conv81/conv2d/kernel/ApplyGradientDescent"
      }
    }
  }
  attr {
    key: "_output_shapes"
    value {
      list {
        shape {
          dim {
            size: 3
          }
          dim {
            size: 3
          }
          dim {
            size: 448
          }
          dim {
            size: 384
          }
        }
      }
    }
  }
  attr {
    key: "container"
    value {
      s: ""
    }
  }
  attr {
    key: "dtype"
    value {
      type: DT_FLOAT
    }
  }
  attr {
    key: "shape"
    value {
      shape {
        dim {
          size: 3
        }
        dim {
          size: 3
        }
        dim {
          size: 448
        }
        dim {
          size: 384
        }
      }
    }
  }
  attr {
    key: "shared_name"
    value {
      s: ""
    }
  }
  experimental_debug_info {
    original_node_names: "incept_v3_e0/conv81/conv2d/kernel"
  }
}
node {
  name: "incept_v3_e0/conv81/batchnorm81/beta"
  op: "VariableV2"
  device: "/job:localhost/replica:0/task:0/device:GPU:0"
  attr {
    key: "_class"
    value {
      list {
        s: "loc:@GradientDescent/update_incept_v3_e0/conv81/batchnorm81/beta/ApplyGradientDescent"
      }
    }
  }
  attr {
    key: "_output_shapes"
    value {
      list {
        shape {
          dim {
            size: 384
          }
        }
      }
    }
  }
  attr {
    key: "container"
    value {
      s: ""
    }
  }
  attr {
    key: "dtype"
    value {
      type: DT_FLOAT
    }
  }
  attr {
    key: "shape"
    value {
      shape {
        dim {
          size: 384
        }
      }
    }
  }
  attr {
    key: "shared_name"
    value {
      s: ""
    }
  }
  experimental_debug_info {
    original_node_names: "incept_v3_e0/conv81/batchnorm81/beta"
  }
}
node {
  name: "incept_v3_b0/conv28/conv2d/kernel"
  op: "VariableV2"
  device: "/job:localhost/replica:0/task:0/device:GPU:0"
  attr {
    key: "_class"
    value {
      list {
        s: "loc:@GradientDescent/update_incept_v3_b0/conv28/conv2d/kernel/ApplyGradientDescent"
      }
    }
  }
  attr {
    key: "_output_shapes"
    value {
      list {
        shape {
          dim {
            size: 3
          }
          dim {
            size: 3
          }
          dim {
            size: 64
          }
          dim {
            size: 96
          }
        }
      }
    }
  }
  attr {
    key: "container"
    value {
      s: ""
    }
  }
  attr {
    key: "dtype"
    value {
      type: DT_FLOAT
    }
  }
  attr {
    key: "shape"
    value {
      shape {
        dim {
          size: 3
        }
        dim {
          size: 3
        }
        dim {
          size: 64
        }
        dim {
          size: 96
        }
      }
    }
  }
  attr {
    key: "shared_name"
    value {
      s: ""
    }
  }
  experimental_debug_info {
    original_node_names: "incept_v3_b0/conv28/conv2d/kernel"
  }
}
node {
  name: "incept_v3_b0/conv28/batchnorm28/beta"
  op: "VariableV2"
  device: "/job:localhost/replica:0/task:0/device:GPU:0"
  attr {
    key: "_class"
    value {
      list {
        s: "loc:@GradientDescent/update_incept_v3_b0/conv28/batchnorm28/beta/ApplyGradientDescent"
      }
    }
  }
  attr {
    key: "_output_shapes"
    value {
      list {
        shape {
          dim {
            size: 96
          }
        }
      }
    }
  }
  attr {
    key: "container"
    value {
      s: ""
    }
  }
  attr {
    key: "dtype"
    value {
      type: DT_FLOAT
    }
  }
  attr {
    key: "shape"
    value {
      shape {
        dim {
          size: 96
        }
      }
    }
  }
  attr {
    key: "shared_name"
    value {
      s: ""
    }
  }
  experimental_debug_info {
    original_node_names: "incept_v3_b0/conv28/batchnorm28/beta"
  }
}
node {
  name: "incept_v3_e0/conv82/conv2d/kernel"
  op: "VariableV2"
  device: "/job:localhost/replica:0/task:0/device:GPU:0"
  attr {
    key: "_class"
    value {
      list {
        s: "loc:@GradientDescent/update_incept_v3_e0/conv82/conv2d/kernel/ApplyGradientDescent"
      }
    }
  }
  attr {
    key: "_output_shapes"
    value {
      list {
        shape {
          dim {
            size: 1
          }
          dim {
            size: 3
          }
          dim {
            size: 384
          }
          dim {
            size: 384
          }
        }
      }
    }
  }
  attr {
    key: "container"
    value {
      s: ""
    }
  }
  attr {
    key: "dtype"
    value {
      type: DT_FLOAT
    }
  }
  attr {
    key: "shape"
    value {
      shape {
        dim {
          size: 1
        }
        dim {
          size: 3
        }
        dim {
          size: 384
        }
        dim {
          size: 384
        }
      }
    }
  }
  attr {
    key: "shared_name"
    value {
      s: ""
    }
  }
  experimental_debug_info {
    original_node_names: "incept_v3_e0/conv82/conv2d/kernel"
  }
}
node {
  name: "incept_v3_e0/conv82/batchnorm82/beta"
  op: "VariableV2"
  device: "/job:localhost/replica:0/task:0/device:GPU:0"
  attr {
    key: "_class"
    value {
      list {
        s: "loc:@GradientDescent/update_incept_v3_e0/conv82/batchnorm82/beta/ApplyGradientDescent"
      }
    }
  }
  attr {
    key: "_output_shapes"
    value {
      list {
        shape {
          dim {
            size: 384
          }
        }
      }
    }
  }
  attr {
    key: "container"
    value {
      s: ""
    }
  }
  attr {
    key: "dtype"
    value {
      type: DT_FLOAT
    }
  }
  attr {
    key: "shape"
    value {
      shape {
        dim {
          size: 384
        }
      }
    }
  }
  attr {
    key: "shared_name"
    value {
      s: ""
    }
  }
  experimental_debug_info {
    original_node_names: "incept_v3_e0/conv82/batchnorm82/beta"
  }
}
node {
  name: "incept_v3_b0/conv29/conv2d/kernel"
  op: "VariableV2"
  device: "/job:localhost/replica:0/task:0/device:GPU:0"
  attr {
    key: "_class"
    value {
      list {
        s: "loc:@GradientDescent/update_incept_v3_b0/conv29/conv2d/kernel/ApplyGradientDescent"
      }
    }
  }
  attr {
    key: "_output_shapes"
    value {
      list {
        shape {
          dim {
            size: 3
          }
          dim {
            size: 3
          }
          dim {
            size: 96
          }
          dim {
            size: 96
          }
        }
      }
    }
  }
  attr {
    key: "container"
    value {
      s: ""
    }
  }
  attr {
    key: "dtype"
    value {
      type: DT_FLOAT
    }
  }
  attr {
    key: "shape"
    value {
      shape {
        dim {
          size: 3
        }
        dim {
          size: 3
        }
        dim {
          size: 96
        }
        dim {
          size: 96
        }
      }
    }
  }
  attr {
    key: "shared_name"
    value {
      s: ""
    }
  }
  experimental_debug_info {
    original_node_names: "incept_v3_b0/conv29/conv2d/kernel"
  }
}
node {
  name: "gradients/incept_v3_a0/apool0/AvgPool_grad/AvgPoolGrad-0-DataFormatVecPermuteNHWCToNCHW-LayoutOptimizer"
  op: "Const"
  device: "/job:localhost/replica:0/task:0/device:GPU:0"
  attr {
    key: "_output_shapes"
    value {
      list {
        shape {
          dim {
            size: 4
          }
        }
      }
    }
  }
  attr {
    key: "dtype"
    value {
      type: DT_INT32
    }
  }
  attr {
    key: "value"
    value {
      tensor {
        dtype: DT_INT32
        tensor_shape {
          dim {
            size: 4
          }
        }
        tensor_content: " \000\000\000\300\000\000\000#\000\000\000#\000\000\000"
      }
    }
  }
  experimental_debug_info {
    original_node_names: "gradients/incept_v3_a0/apool0/AvgPool_grad/AvgPoolGrad-0-DataFormatVecPermuteNHWCToNCHW-LayoutOptimizer"
  }
}
node {
  name: "incept_v3_b0/conv29/batchnorm29/beta"
  op: "VariableV2"
  device: "/job:localhost/replica:0/task:0/device:GPU:0"
  attr {
    key: "_class"
    value {
      list {
        s: "loc:@GradientDescent/update_incept_v3_b0/conv29/batchnorm29/beta/ApplyGradientDescent"
      }
    }
  }
  attr {
    key: "_output_shapes"
    value {
      list {
        shape {
          dim {
            size: 96
          }
        }
      }
    }
  }
  attr {
    key: "container"
    value {
      s: ""
    }
  }
  attr {
    key: "dtype"
    value {
      type: DT_FLOAT
    }
  }
  attr {
    key: "shape"
    value {
      shape {
        dim {
          size: 96
        }
      }
    }
  }
  attr {
    key: "shared_name"
    value {
      s: ""
    }
  }
  experimental_debug_info {
    original_node_names: "incept_v3_b0/conv29/batchnorm29/beta"
  }
}
node {
  name: "incept_v3_e0/conv83/conv2d/kernel"
  op: "VariableV2"
  device: "/job:localhost/replica:0/task:0/device:GPU:0"
  attr {
    key: "_class"
    value {
      list {
        s: "loc:@GradientDescent/update_incept_v3_e0/conv83/conv2d/kernel/ApplyGradientDescent"
      }
    }
  }
  attr {
    key: "_output_shapes"
    value {
      list {
        shape {
          dim {
            size: 3
          }
          dim {
            size: 1
          }
          dim {
            size: 384
          }
          dim {
            size: 384
          }
        }
      }
    }
  }
  attr {
    key: "container"
    value {
      s: ""
    }
  }
  attr {
    key: "dtype"
    value {
      type: DT_FLOAT
    }
  }
  attr {
    key: "shape"
    value {
      shape {
        dim {
          size: 3
        }
        dim {
          size: 1
        }
        dim {
          size: 384
        }
        dim {
          size: 384
        }
      }
    }
  }
  attr {
    key: "shared_name"
    value {
      s: ""
    }
  }
  experimental_debug_info {
    original_node_names: "incept_v3_e0/conv83/conv2d/kernel"
  }
}
node {
  name: "incept_v3_c0/conv30/conv2d/kernel"
  op: "VariableV2"
  device: "/job:localhost/replica:0/task:0/device:GPU:0"
  attr {
    key: "_class"
    value {
      list {
        s: "loc:@GradientDescent/update_incept_v3_c0/conv30/conv2d/kernel/ApplyGradientDescent"
      }
    }
  }
  attr {
    key: "_output_shapes"
    value {
      list {
        shape {
          dim {
            size: 1
          }
          dim {
            size: 1
          }
          dim {
            size: 768
          }
          dim {
            size: 192
          }
        }
      }
    }
  }
  attr {
    key: "container"
    value {
      s: ""
    }
  }
  attr {
    key: "dtype"
    value {
      type: DT_FLOAT
    }
  }
  attr {
    key: "shape"
    value {
      shape {
        dim {
          size: 1
        }
        dim {
          size: 1
        }
        dim {
          size: 768
        }
        dim {
          size: 192
        }
      }
    }
  }
  attr {
    key: "shared_name"
    value {
      s: ""
    }
  }
  experimental_debug_info {
    original_node_names: "incept_v3_c0/conv30/conv2d/kernel"
  }
}
node {
  name: "incept_v3_e0/conv83/batchnorm83/beta"
  op: "VariableV2"
  device: "/job:localhost/replica:0/task:0/device:GPU:0"
  attr {
    key: "_class"
    value {
      list {
        s: "loc:@GradientDescent/update_incept_v3_e0/conv83/batchnorm83/beta/ApplyGradientDescent"
      }
    }
  }
  attr {
    key: "_output_shapes"
    value {
      list {
        shape {
          dim {
            size: 384
          }
        }
      }
    }
  }
  attr {
    key: "container"
    value {
      s: ""
    }
  }
  attr {
    key: "dtype"
    value {
      type: DT_FLOAT
    }
  }
  attr {
    key: "shape"
    value {
      shape {
        dim {
          size: 384
        }
      }
    }
  }
  attr {
    key: "shared_name"
    value {
      s: ""
    }
  }
  experimental_debug_info {
    original_node_names: "incept_v3_e0/conv83/batchnorm83/beta"
  }
}
node {
  name: "incept_v3_c0/conv30/batchnorm30/beta"
  op: "VariableV2"
  device: "/job:localhost/replica:0/task:0/device:GPU:0"
  attr {
    key: "_class"
    value {
      list {
        s: "loc:@GradientDescent/update_incept_v3_c0/conv30/batchnorm30/beta/ApplyGradientDescent"
      }
    }
  }
  attr {
    key: "_output_shapes"
    value {
      list {
        shape {
          dim {
            size: 192
          }
        }
      }
    }
  }
  attr {
    key: "container"
    value {
      s: ""
    }
  }
  attr {
    key: "dtype"
    value {
      type: DT_FLOAT
    }
  }
  attr {
    key: "shape"
    value {
      shape {
        dim {
          size: 192
        }
      }
    }
  }
  attr {
    key: "shared_name"
    value {
      s: ""
    }
  }
  experimental_debug_info {
    original_node_names: "incept_v3_c0/conv30/batchnorm30/beta"
  }
}
node {
  name: "incept_v3_c0/conv31/conv2d/kernel"
  op: "VariableV2"
  device: "/job:localhost/replica:0/task:0/device:GPU:0"
  attr {
    key: "_class"
    value {
      list {
        s: "loc:@GradientDescent/update_incept_v3_c0/conv31/conv2d/kernel/ApplyGradientDescent"
      }
    }
  }
  attr {
    key: "_output_shapes"
    value {
      list {
        shape {
          dim {
            size: 1
          }
          dim {
            size: 1
          }
          dim {
            size: 768
          }
          dim {
            size: 128
          }
        }
      }
    }
  }
  attr {
    key: "container"
    value {
      s: ""
    }
  }
  attr {
    key: "dtype"
    value {
      type: DT_FLOAT
    }
  }
  attr {
    key: "shape"
    value {
      shape {
        dim {
          size: 1
        }
        dim {
          size: 1
        }
        dim {
          size: 768
        }
        dim {
          size: 128
        }
      }
    }
  }
  attr {
    key: "shared_name"
    value {
      s: ""
    }
  }
  experimental_debug_info {
    original_node_names: "incept_v3_c0/conv31/conv2d/kernel"
  }
}
node {
  name: "incept_v3_c0/conv31/batchnorm31/Const"
  op: "Const"
  device: "/job:localhost/replica:0/task:0/device:GPU:0"
  attr {
    key: "_output_shapes"
    value {
      list {
        shape {
          dim {
            size: 128
          }
        }
      }
    }
  }
  attr {
    key: "dtype"
    value {
      type: DT_FLOAT
    }
  }
  attr {
    key: "value"
    value {
      tensor {
        dtype: DT_FLOAT
        tensor_shape {
          dim {
            size: 128
          }
        }
        float_val: 1.0
      }
    }
  }
  experimental_debug_info {
    original_node_names: "incept_v3_c0/conv31/batchnorm31/Const"
  }
}
node {
  name: "incept_v3_c0/conv31/batchnorm31/beta"
  op: "VariableV2"
  device: "/job:localhost/replica:0/task:0/device:GPU:0"
  attr {
    key: "_class"
    value {
      list {
        s: "loc:@GradientDescent/update_incept_v3_c0/conv31/batchnorm31/beta/ApplyGradientDescent"
      }
    }
  }
  attr {
    key: "_output_shapes"
    value {
      list {
        shape {
          dim {
            size: 128
          }
        }
      }
    }
  }
  attr {
    key: "container"
    value {
      s: ""
    }
  }
  attr {
    key: "dtype"
    value {
      type: DT_FLOAT
    }
  }
  attr {
    key: "shape"
    value {
      shape {
        dim {
          size: 128
        }
      }
    }
  }
  attr {
    key: "shared_name"
    value {
      s: ""
    }
  }
  experimental_debug_info {
    original_node_names: "incept_v3_c0/conv31/batchnorm31/beta"
  }
}
node {
  name: "incept_v3_e0/conv84/conv2d/kernel"
  op: "VariableV2"
  device: "/job:localhost/replica:0/task:0/device:GPU:0"
  attr {
    key: "_class"
    value {
      list {
        s: "loc:@GradientDescent/update_incept_v3_e0/conv84/conv2d/kernel/ApplyGradientDescent"
      }
    }
  }
  attr {
    key: "_output_shapes"
    value {
      list {
        shape {
          dim {
            size: 1
          }
          dim {
            size: 1
          }
          dim {
            size: 1280
          }
          dim {
            size: 192
          }
        }
      }
    }
  }
  attr {
    key: "container"
    value {
      s: ""
    }
  }
  attr {
    key: "dtype"
    value {
      type: DT_FLOAT
    }
  }
  attr {
    key: "shape"
    value {
      shape {
        dim {
          size: 1
        }
        dim {
          size: 1
        }
        dim {
          size: 1280
        }
        dim {
          size: 192
        }
      }
    }
  }
  attr {
    key: "shared_name"
    value {
      s: ""
    }
  }
  experimental_debug_info {
    original_node_names: "incept_v3_e0/conv84/conv2d/kernel"
  }
}
node {
  name: "incept_v3_e0/conv84/batchnorm84/beta"
  op: "VariableV2"
  device: "/job:localhost/replica:0/task:0/device:GPU:0"
  attr {
    key: "_class"
    value {
      list {
        s: "loc:@GradientDescent/update_incept_v3_e0/conv84/batchnorm84/beta/ApplyGradientDescent"
      }
    }
  }
  attr {
    key: "_output_shapes"
    value {
      list {
        shape {
          dim {
            size: 192
          }
        }
      }
    }
  }
  attr {
    key: "container"
    value {
      s: ""
    }
  }
  attr {
    key: "dtype"
    value {
      type: DT_FLOAT
    }
  }
  attr {
    key: "shape"
    value {
      shape {
        dim {
          size: 192
        }
      }
    }
  }
  attr {
    key: "shared_name"
    value {
      s: ""
    }
  }
  experimental_debug_info {
    original_node_names: "incept_v3_e0/conv84/batchnorm84/beta"
  }
}
node {
  name: "incept_v3_c0/conv32/conv2d/kernel"
  op: "VariableV2"
  device: "/job:localhost/replica:0/task:0/device:GPU:0"
  attr {
    key: "_class"
    value {
      list {
        s: "loc:@GradientDescent/update_incept_v3_c0/conv32/conv2d/kernel/ApplyGradientDescent"
      }
    }
  }
  attr {
    key: "_output_shapes"
    value {
      list {
        shape {
          dim {
            size: 1
          }
          dim {
            size: 7
          }
          dim {
            size: 128
          }
          dim {
            size: 128
          }
        }
      }
    }
  }
  attr {
    key: "container"
    value {
      s: ""
    }
  }
  attr {
    key: "dtype"
    value {
      type: DT_FLOAT
    }
  }
  attr {
    key: "shape"
    value {
      shape {
        dim {
          size: 1
        }
        dim {
          size: 7
        }
        dim {
          size: 128
        }
        dim {
          size: 128
        }
      }
    }
  }
  attr {
    key: "shared_name"
    value {
      s: ""
    }
  }
  experimental_debug_info {
    original_node_names: "incept_v3_c0/conv32/conv2d/kernel"
  }
}
node {
  name: "incept_v3_c0/conv32/batchnorm32/beta"
  op: "VariableV2"
  device: "/job:localhost/replica:0/task:0/device:GPU:0"
  attr {
    key: "_class"
    value {
      list {
        s: "loc:@GradientDescent/update_incept_v3_c0/conv32/batchnorm32/beta/ApplyGradientDescent"
      }
    }
  }
  attr {
    key: "_output_shapes"
    value {
      list {
        shape {
          dim {
            size: 128
          }
        }
      }
    }
  }
  attr {
    key: "container"
    value {
      s: ""
    }
  }
  attr {
    key: "dtype"
    value {
      type: DT_FLOAT
    }
  }
  attr {
    key: "shape"
    value {
      shape {
        dim {
          size: 128
        }
      }
    }
  }
  attr {
    key: "shared_name"
    value {
      s: ""
    }
  }
  experimental_debug_info {
    original_node_names: "incept_v3_c0/conv32/batchnorm32/beta"
  }
}
node {
  name: "incept_v3_e0/conv85/conv2d/kernel"
  op: "VariableV2"
  device: "/job:localhost/replica:0/task:0/device:GPU:0"
  attr {
    key: "_class"
    value {
      list {
        s: "loc:@GradientDescent/update_incept_v3_e0/conv85/conv2d/kernel/ApplyGradientDescent"
      }
    }
  }
  attr {
    key: "_output_shapes"
    value {
      list {
        shape {
          dim {
            size: 1
          }
          dim {
            size: 1
          }
          dim {
            size: 2048
          }
          dim {
            size: 320
          }
        }
      }
    }
  }
  attr {
    key: "container"
    value {
      s: ""
    }
  }
  attr {
    key: "dtype"
    value {
      type: DT_FLOAT
    }
  }
  attr {
    key: "shape"
    value {
      shape {
        dim {
          size: 1
        }
        dim {
          size: 1
        }
        dim {
          size: 2048
        }
        dim {
          size: 320
        }
      }
    }
  }
  attr {
    key: "shared_name"
    value {
      s: ""
    }
  }
  experimental_debug_info {
    original_node_names: "incept_v3_e0/conv85/conv2d/kernel"
  }
}
node {
  name: "incept_v3_e0/conv85/batchnorm85/beta"
  op: "VariableV2"
  device: "/job:localhost/replica:0/task:0/device:GPU:0"
  attr {
    key: "_class"
    value {
      list {
        s: "loc:@GradientDescent/update_incept_v3_e0/conv85/batchnorm85/beta/ApplyGradientDescent"
      }
    }
  }
  attr {
    key: "_output_shapes"
    value {
      list {
        shape {
          dim {
            size: 320
          }
        }
      }
    }
  }
  attr {
    key: "container"
    value {
      s: ""
    }
  }
  attr {
    key: "dtype"
    value {
      type: DT_FLOAT
    }
  }
  attr {
    key: "shape"
    value {
      shape {
        dim {
          size: 320
        }
      }
    }
  }
  attr {
    key: "shared_name"
    value {
      s: ""
    }
  }
  experimental_debug_info {
    original_node_names: "incept_v3_e0/conv85/batchnorm85/beta"
  }
}
node {
  name: "incept_v3_c0/conv33/conv2d/kernel"
  op: "VariableV2"
  device: "/job:localhost/replica:0/task:0/device:GPU:0"
  attr {
    key: "_class"
    value {
      list {
        s: "loc:@GradientDescent/update_incept_v3_c0/conv33/conv2d/kernel/ApplyGradientDescent"
      }
    }
  }
  attr {
    key: "_output_shapes"
    value {
      list {
        shape {
          dim {
            size: 7
          }
          dim {
            size: 1
          }
          dim {
            size: 128
          }
          dim {
            size: 192
          }
        }
      }
    }
  }
  attr {
    key: "container"
    value {
      s: ""
    }
  }
  attr {
    key: "dtype"
    value {
      type: DT_FLOAT
    }
  }
  attr {
    key: "shape"
    value {
      shape {
        dim {
          size: 7
        }
        dim {
          size: 1
        }
        dim {
          size: 128
        }
        dim {
          size: 192
        }
      }
    }
  }
  attr {
    key: "shared_name"
    value {
      s: ""
    }
  }
  experimental_debug_info {
    original_node_names: "incept_v3_c0/conv33/conv2d/kernel"
  }
}
node {
  name: "incept_v3_c0/conv33/batchnorm33/beta"
  op: "VariableV2"
  device: "/job:localhost/replica:0/task:0/device:GPU:0"
  attr {
    key: "_class"
    value {
      list {
        s: "loc:@GradientDescent/update_incept_v3_c0/conv33/batchnorm33/beta/ApplyGradientDescent"
      }
    }
  }
  attr {
    key: "_output_shapes"
    value {
      list {
        shape {
          dim {
            size: 192
          }
        }
      }
    }
  }
  attr {
    key: "container"
    value {
      s: ""
    }
  }
  attr {
    key: "dtype"
    value {
      type: DT_FLOAT
    }
  }
  attr {
    key: "shape"
    value {
      shape {
        dim {
          size: 192
        }
      }
    }
  }
  attr {
    key: "shared_name"
    value {
      s: ""
    }
  }
  experimental_debug_info {
    original_node_names: "incept_v3_c0/conv33/batchnorm33/beta"
  }
}
node {
  name: "incept_v3_e0/conv86/conv2d/kernel"
  op: "VariableV2"
  device: "/job:localhost/replica:0/task:0/device:GPU:0"
  attr {
    key: "_class"
    value {
      list {
        s: "loc:@GradientDescent/update_incept_v3_e0/conv86/conv2d/kernel/ApplyGradientDescent"
      }
    }
  }
  attr {
    key: "_output_shapes"
    value {
      list {
        shape {
          dim {
            size: 1
          }
          dim {
            size: 1
          }
          dim {
            size: 2048
          }
          dim {
            size: 384
          }
        }
      }
    }
  }
  attr {
    key: "container"
    value {
      s: ""
    }
  }
  attr {
    key: "dtype"
    value {
      type: DT_FLOAT
    }
  }
  attr {
    key: "shape"
    value {
      shape {
        dim {
          size: 1
        }
        dim {
          size: 1
        }
        dim {
          size: 2048
        }
        dim {
          size: 384
        }
      }
    }
  }
  attr {
    key: "shared_name"
    value {
      s: ""
    }
  }
  experimental_debug_info {
    original_node_names: "incept_v3_e0/conv86/conv2d/kernel"
  }
}
node {
  name: "incept_v3_c0/conv34/conv2d/kernel"
  op: "VariableV2"
  device: "/job:localhost/replica:0/task:0/device:GPU:0"
  attr {
    key: "_class"
    value {
      list {
        s: "loc:@GradientDescent/update_incept_v3_c0/conv34/conv2d/kernel/ApplyGradientDescent"
      }
    }
  }
  attr {
    key: "_output_shapes"
    value {
      list {
        shape {
          dim {
            size: 1
          }
          dim {
            size: 1
          }
          dim {
            size: 768
          }
          dim {
            size: 128
          }
        }
      }
    }
  }
  attr {
    key: "container"
    value {
      s: ""
    }
  }
  attr {
    key: "dtype"
    value {
      type: DT_FLOAT
    }
  }
  attr {
    key: "shape"
    value {
      shape {
        dim {
          size: 1
        }
        dim {
          size: 1
        }
        dim {
          size: 768
        }
        dim {
          size: 128
        }
      }
    }
  }
  attr {
    key: "shared_name"
    value {
      s: ""
    }
  }
  experimental_debug_info {
    original_node_names: "incept_v3_c0/conv34/conv2d/kernel"
  }
}
node {
  name: "incept_v3_c0/conv34/batchnorm34/beta"
  op: "VariableV2"
  device: "/job:localhost/replica:0/task:0/device:GPU:0"
  attr {
    key: "_class"
    value {
      list {
        s: "loc:@GradientDescent/update_incept_v3_c0/conv34/batchnorm34/beta/ApplyGradientDescent"
      }
    }
  }
  attr {
    key: "_output_shapes"
    value {
      list {
        shape {
          dim {
            size: 128
          }
        }
      }
    }
  }
  attr {
    key: "container"
    value {
      s: ""
    }
  }
  attr {
    key: "dtype"
    value {
      type: DT_FLOAT
    }
  }
  attr {
    key: "shape"
    value {
      shape {
        dim {
          size: 128
        }
      }
    }
  }
  attr {
    key: "shared_name"
    value {
      s: ""
    }
  }
  experimental_debug_info {
    original_node_names: "incept_v3_c0/conv34/batchnorm34/beta"
  }
}
node {
  name: "incept_v3_e0/conv86/batchnorm86/beta"
  op: "VariableV2"
  device: "/job:localhost/replica:0/task:0/device:GPU:0"
  attr {
    key: "_class"
    value {
      list {
        s: "loc:@GradientDescent/update_incept_v3_e0/conv86/batchnorm86/beta/ApplyGradientDescent"
      }
    }
  }
  attr {
    key: "_output_shapes"
    value {
      list {
        shape {
          dim {
            size: 384
          }
        }
      }
    }
  }
  attr {
    key: "container"
    value {
      s: ""
    }
  }
  attr {
    key: "dtype"
    value {
      type: DT_FLOAT
    }
  }
  attr {
    key: "shape"
    value {
      shape {
        dim {
          size: 384
        }
      }
    }
  }
  attr {
    key: "shared_name"
    value {
      s: ""
    }
  }
  experimental_debug_info {
    original_node_names: "incept_v3_e0/conv86/batchnorm86/beta"
  }
}
node {
  name: "incept_v3_c0/conv35/conv2d/kernel"
  op: "VariableV2"
  device: "/job:localhost/replica:0/task:0/device:GPU:0"
  attr {
    key: "_class"
    value {
      list {
        s: "loc:@GradientDescent/update_incept_v3_c0/conv35/conv2d/kernel/ApplyGradientDescent"
      }
    }
  }
  attr {
    key: "_output_shapes"
    value {
      list {
        shape {
          dim {
            size: 7
          }
          dim {
            size: 1
          }
          dim {
            size: 128
          }
          dim {
            size: 128
          }
        }
      }
    }
  }
  attr {
    key: "container"
    value {
      s: ""
    }
  }
  attr {
    key: "dtype"
    value {
      type: DT_FLOAT
    }
  }
  attr {
    key: "shape"
    value {
      shape {
        dim {
          size: 7
        }
        dim {
          size: 1
        }
        dim {
          size: 128
        }
        dim {
          size: 128
        }
      }
    }
  }
  attr {
    key: "shared_name"
    value {
      s: ""
    }
  }
  experimental_debug_info {
    original_node_names: "incept_v3_c0/conv35/conv2d/kernel"
  }
}
node {
  name: "incept_v3_c0/conv35/batchnorm35/beta"
  op: "VariableV2"
  device: "/job:localhost/replica:0/task:0/device:GPU:0"
  attr {
    key: "_class"
    value {
      list {
        s: "loc:@GradientDescent/update_incept_v3_c0/conv35/batchnorm35/beta/ApplyGradientDescent"
      }
    }
  }
  attr {
    key: "_output_shapes"
    value {
      list {
        shape {
          dim {
            size: 128
          }
        }
      }
    }
  }
  attr {
    key: "container"
    value {
      s: ""
    }
  }
  attr {
    key: "dtype"
    value {
      type: DT_FLOAT
    }
  }
  attr {
    key: "shape"
    value {
      shape {
        dim {
          size: 128
        }
      }
    }
  }
  attr {
    key: "shared_name"
    value {
      s: ""
    }
  }
  experimental_debug_info {
    original_node_names: "incept_v3_c0/conv35/batchnorm35/beta"
  }
}
node {
  name: "incept_v3_e0/conv87/conv2d/kernel"
  op: "VariableV2"
  device: "/job:localhost/replica:0/task:0/device:GPU:0"
  attr {
    key: "_class"
    value {
      list {
        s: "loc:@GradientDescent/update_incept_v3_e0/conv87/conv2d/kernel/ApplyGradientDescent"
      }
    }
  }
  attr {
    key: "_output_shapes"
    value {
      list {
        shape {
          dim {
            size: 1
          }
          dim {
            size: 3
          }
          dim {
            size: 384
          }
          dim {
            size: 384
          }
        }
      }
    }
  }
  attr {
    key: "container"
    value {
      s: ""
    }
  }
  attr {
    key: "dtype"
    value {
      type: DT_FLOAT
    }
  }
  attr {
    key: "shape"
    value {
      shape {
        dim {
          size: 1
        }
        dim {
          size: 3
        }
        dim {
          size: 384
        }
        dim {
          size: 384
        }
      }
    }
  }
  attr {
    key: "shared_name"
    value {
      s: ""
    }
  }
  experimental_debug_info {
    original_node_names: "incept_v3_e0/conv87/conv2d/kernel"
  }
}
node {
  name: "incept_v3_e0/conv87/batchnorm87/beta"
  op: "VariableV2"
  device: "/job:localhost/replica:0/task:0/device:GPU:0"
  attr {
    key: "_class"
    value {
      list {
        s: "loc:@GradientDescent/update_incept_v3_e0/conv87/batchnorm87/beta/ApplyGradientDescent"
      }
    }
  }
  attr {
    key: "_output_shapes"
    value {
      list {
        shape {
          dim {
            size: 384
          }
        }
      }
    }
  }
  attr {
…
      type: DT_FLOAT
    }
  }
  attr {
    key: "_output_shapes"
    value {
      list {
        shape {
          dim {
            size: 32
          }
          dim {
            size: 192
          }
          dim {
            size: 71
          }
          dim {
            size: 71
          }
        }
      }
    }
  }
  experimental_debug_info {
    original_node_names: "gradients/conv4/Relu_grad/ReluGrad"
  }
}
node {
  name: "gradients/conv4/batchnorm4/FusedBatchNormV3_grad/FusedBatchNormGradV3"
  op: "FusedBatchNormGradV3"
  input: "gradients/conv4/Relu_grad/ReluGrad"
  input: "conv4/conv2d/Conv2D"
  input: "incept_v3_c0_3/conv61/batchnorm61/Const"
  input: "conv4/batchnorm4/FusedBatchNormV3:3"
  input: "conv4/batchnorm4/FusedBatchNormV3:4"
  input: "conv4/batchnorm4/FusedBatchNormV3:5"
  device: "/job:localhost/replica:0/task:0/device:GPU:0"
  attr {
    key: "T"
    value {
      type: DT_FLOAT
    }
  }
  attr {
    key: "U"
    value {
      type: DT_FLOAT
    }
  }
  attr {
    key: "_output_shapes"
    value {
      list {
        shape {
          dim {
            size: 32
          }
          dim {
            size: 192
          }
          dim {
            size: 71
          }
          dim {
            size: 71
          }
        }
        shape {
          dim {
            size: 192
          }
        }
        shape {
          dim {
            size: 192
          }
        }
        shape {
          dim {
          }
        }
        shape {
          dim {
          }
        }
      }
    }
  }
  attr {
    key: "data_format"
    value {
      s: "NCHW"
    }
  }
  attr {
    key: "epsilon"
    value {
      f: 0.0010000000474974513
    }
  }
  attr {
    key: "is_training"
    value {
      b: true
    }
  }
  experimental_debug_info {
    original_node_names: "gradients/conv4/batchnorm4/FusedBatchNormV3_grad/FusedBatchNormGradV3"
  }
}
node {
  name: "gradients/conv4/conv2d/Conv2D_grad/Conv2DBackpropFilter"
  op: "Conv2DBackpropFilter"
  input: "conv3/Relu"
  input: "ConstantFolding/gradients/conv4/conv2d/Conv2D_grad/ShapeN-matshapes-1"
  input: "gradients/conv4/batchnorm4/FusedBatchNormV3_grad/FusedBatchNormGradV3"
  device: "/job:localhost/replica:0/task:0/device:GPU:0"
  attr {
    key: "T"
    value {
      type: DT_FLOAT
    }
  }
  attr {
    key: "_output_shapes"
    value {
      list {
        shape {
          dim {
            size: 3
          }
          dim {
            size: 3
          }
          dim {
            size: 80
          }
          dim {
            size: 192
          }
        }
      }
    }
  }
  attr {
    key: "data_format"
    value {
      s: "NCHW"
    }
  }
  attr {
    key: "dilations"
    value {
      list {
        i: 1
        i: 1
        i: 1
        i: 1
      }
    }
  }
  attr {
    key: "explicit_paddings"
    value {
      list {
      }
    }
  }
  attr {
    key: "padding"
    value {
      s: "VALID"
    }
  }
  attr {
    key: "strides"
    value {
      list {
        i: 1
        i: 1
        i: 1
        i: 1
      }
    }
  }
  attr {
    key: "use_cudnn_on_gpu"
    value {
      b: true
    }
  }
  experimental_debug_info {
    original_node_names: "gradients/conv4/conv2d/Conv2D_grad/Conv2DBackpropFilter"
  }
}
node {
  name: "gradients/conv4/conv2d/Conv2D_grad/Conv2DBackpropInput"
  op: "Conv2DBackpropInput"
  input: "gradients/conv4/conv2d/Conv2D_grad/Conv2DBackpropInput-0-DataFormatVecPermuteNHWCToNCHW-LayoutOptimizer"
  input: "conv4/conv2d/kernel/read"
  input: "gradients/conv4/batchnorm4/FusedBatchNormV3_grad/FusedBatchNormGradV3"
  device: "/job:localhost/replica:0/task:0/device:GPU:0"
  attr {
    key: "T"
    value {
      type: DT_FLOAT
    }
  }
  attr {
    key: "_output_shapes"
    value {
      list {
        shape {
          dim {
            size: 32
          }
          dim {
            size: 80
          }
          dim {
            size: 73
          }
          dim {
            size: 73
          }
        }
      }
    }
  }
  attr {
    key: "data_format"
    value {
      s: "NCHW"
    }
  }
  attr {
    key: "dilations"
    value {
      list {
        i: 1
        i: 1
        i: 1
        i: 1
      }
    }
  }
  attr {
    key: "explicit_paddings"
    value {
      list {
      }
    }
  }
  attr {
    key: "padding"
    value {
      s: "VALID"
    }
  }
  attr {
    key: "strides"
    value {
      list {
        i: 1
        i: 1
        i: 1
        i: 1
      }
    }
  }
  attr {
    key: "use_cudnn_on_gpu"
    value {
      b: true
    }
  }
  experimental_debug_info {
    original_node_names: "gradients/conv4/conv2d/Conv2D_grad/Conv2DBackpropInput"
  }
}
node {
  name: "GradientDescent/update_conv4/batchnorm4/beta/ApplyGradientDescent"
  op: "ApplyGradientDescent"
  input: "conv4/batchnorm4/beta"
  input: "GradientDescent/learning_rate"
  input: "gradients/conv4/batchnorm4/FusedBatchNormV3_grad/FusedBatchNormGradV3:2"
  device: "/job:localhost/replica:0/task:0/device:GPU:0"
  attr {
    key: "T"
    value {
      type: DT_FLOAT
    }
  }
  attr {
    key: "_output_shapes"
    value {
      list {
        shape {
          dim {
            size: 192
          }
        }
      }
    }
  }
  attr {
    key: "use_locking"
    value {
      b: false
    }
  }
  experimental_debug_info {
    original_node_names: "GradientDescent/update_conv4/batchnorm4/beta/ApplyGradientDescent"
  }
}
node {
  name: "gradients/conv3/Relu_grad/ReluGrad"
  op: "ReluGrad"
  input: "gradients/conv4/conv2d/Conv2D_grad/Conv2DBackpropInput"
  input: "conv3/Relu"
  input: "^gradients/conv4/conv2d/Conv2D_grad/Conv2DBackpropFilter"
  device: "/job:localhost/replica:0/task:0/device:GPU:0"
  attr {
    key: "T"
    value {
      type: DT_FLOAT
    }
  }
  attr {
    key: "_output_shapes"
    value {
      list {
        shape {
          dim {
            size: 32
          }
          dim {
            size: 80
          }
          dim {
            size: 73
          }
          dim {
            size: 73
          }
        }
      }
    }
  }
  experimental_debug_info {
    original_node_names: "gradients/conv3/Relu_grad/ReluGrad"
  }
}
node {
  name: "GradientDescent/update_conv4/conv2d/kernel/ApplyGradientDescent"
  op: "ApplyGradientDescent"
  input: "conv4/conv2d/kernel"
  input: "GradientDescent/learning_rate"
  input: "gradients/conv4/conv2d/Conv2D_grad/Conv2DBackpropFilter"
  input: "^gradients/conv4/conv2d/Conv2D_grad/Conv2DBackpropInput"
  device: "/job:localhost/replica:0/task:0/device:GPU:0"
  attr {
    key: "T"
    value {
      type: DT_FLOAT
    }
  }
  attr {
    key: "_output_shapes"
    value {
      list {
        shape {
          dim {
            size: 3
          }
          dim {
            size: 3
          }
          dim {
            size: 80
          }
          dim {
            size: 192
          }
        }
      }
    }
  }
  attr {
    key: "use_locking"
    value {
      b: false
    }
  }
  experimental_debug_info {
    original_node_names: "GradientDescent/update_conv4/conv2d/kernel/ApplyGradientDescent"
  }
}
node {
  name: "gradients/conv3/batchnorm3/FusedBatchNormV3_grad/FusedBatchNormGradV3"
  op: "FusedBatchNormGradV3"
  input: "gradients/conv3/Relu_grad/ReluGrad"
  input: "conv3/conv2d/Conv2D"
  input: "conv3/batchnorm3/Const"
  input: "conv3/batchnorm3/FusedBatchNormV3:3"
  input: "conv3/batchnorm3/FusedBatchNormV3:4"
  input: "conv3/batchnorm3/FusedBatchNormV3:5"
  device: "/job:localhost/replica:0/task:0/device:GPU:0"
  attr {
    key: "T"
    value {
      type: DT_FLOAT
    }
  }
  attr {
    key: "U"
    value {
      type: DT_FLOAT
    }
  }
  attr {
    key: "_output_shapes"
    value {
      list {
        shape {
          dim {
            size: 32
          }
          dim {
            size: 80
          }
          dim {
            size: 73
          }
          dim {
            size: 73
          }
        }
        shape {
          dim {
            size: 80
          }
        }
        shape {
          dim {
            size: 80
          }
        }
        shape {
          dim {
          }
        }
        shape {
          dim {
          }
        }
      }
    }
  }
  attr {
    key: "data_format"
    value {
      s: "NCHW"
    }
  }
  attr {
    key: "epsilon"
    value {
      f: 0.0010000000474974513
    }
  }
  attr {
    key: "is_training"
    value {
      b: true
    }
  }
  experimental_debug_info {
    original_node_names: "gradients/conv3/batchnorm3/FusedBatchNormV3_grad/FusedBatchNormGradV3"
  }
}
node {
  name: "gradients/conv3/conv2d/Conv2D_grad/Conv2DBackpropFilter"
  op: "Conv2DBackpropFilter"
  input: "mpool0/MaxPool"
  input: "ConstantFolding/gradients/conv3/conv2d/Conv2D_grad/ShapeN-matshapes-1"
  input: "gradients/conv3/batchnorm3/FusedBatchNormV3_grad/FusedBatchNormGradV3"
  device: "/job:localhost/replica:0/task:0/device:GPU:0"
  attr {
    key: "T"
    value {
      type: DT_FLOAT
    }
  }
  attr {
    key: "_output_shapes"
    value {
      list {
        shape {
          dim {
            size: 1
          }
          dim {
            size: 1
          }
          dim {
            size: 64
          }
          dim {
            size: 80
          }
        }
      }
    }
  }
  attr {
    key: "data_format"
    value {
      s: "NCHW"
    }
  }
  attr {
    key: "dilations"
    value {
      list {
        i: 1
        i: 1
        i: 1
        i: 1
      }
    }
  }
  attr {
    key: "explicit_paddings"
    value {
      list {
      }
    }
  }
  attr {
    key: "padding"
    value {
      s: "VALID"
    }
  }
  attr {
    key: "strides"
    value {
      list {
        i: 1
        i: 1
        i: 1
        i: 1
      }
    }
  }
  attr {
    key: "use_cudnn_on_gpu"
    value {
      b: true
    }
  }
  experimental_debug_info {
    original_node_names: "gradients/conv3/conv2d/Conv2D_grad/Conv2DBackpropFilter"
  }
}
node {
  name: "gradients/conv3/conv2d/Conv2D_grad/Conv2DBackpropInput"
  op: "Conv2DBackpropInput"
  input: "gradients/conv3/conv2d/Conv2D_grad/Conv2DBackpropInput-0-DataFormatVecPermuteNHWCToNCHW-LayoutOptimizer"
  input: "conv3/conv2d/kernel/read"
  input: "gradients/conv3/batchnorm3/FusedBatchNormV3_grad/FusedBatchNormGradV3"
  device: "/job:localhost/replica:0/task:0/device:GPU:0"
  attr {
    key: "T"
    value {
      type: DT_FLOAT
    }
  }
  attr {
    key: "_output_shapes"
    value {
      list {
        shape {
          dim {
            size: 32
          }
          dim {
            size: 64
          }
          dim {
            size: 73
          }
          dim {
            size: 73
          }
        }
      }
    }
  }
  attr {
    key: "data_format"
    value {
      s: "NCHW"
    }
  }
  attr {
    key: "dilations"
    value {
      list {
        i: 1
        i: 1
        i: 1
        i: 1
      }
    }
  }
  attr {
    key: "explicit_paddings"
    value {
      list {
      }
    }
  }
  attr {
    key: "padding"
    value {
      s: "VALID"
    }
  }
  attr {
    key: "strides"
    value {
      list {
        i: 1
        i: 1
        i: 1
        i: 1
      }
    }
  }
  attr {
    key: "use_cudnn_on_gpu"
    value {
      b: true
    }
  }
  experimental_debug_info {
    original_node_names: "gradients/conv3/conv2d/Conv2D_grad/Conv2DBackpropInput"
  }
}
node {
  name: "GradientDescent/update_conv3/batchnorm3/beta/ApplyGradientDescent"
  op: "ApplyGradientDescent"
  input: "conv3/batchnorm3/beta"
  input: "GradientDescent/learning_rate"
  input: "gradients/conv3/batchnorm3/FusedBatchNormV3_grad/FusedBatchNormGradV3:2"
  device: "/job:localhost/replica:0/task:0/device:GPU:0"
  attr {
    key: "T"
    value {
      type: DT_FLOAT
    }
  }
  attr {
    key: "_output_shapes"
    value {
      list {
        shape {
          dim {
            size: 80
          }
        }
      }
    }
  }
  attr {
    key: "use_locking"
    value {
      b: false
    }
  }
  experimental_debug_info {
    original_node_names: "GradientDescent/update_conv3/batchnorm3/beta/ApplyGradientDescent"
  }
}
node {
  name: "gradients/mpool0/MaxPool_grad/MaxPoolGrad"
  op: "MaxPoolGrad"
  input: "conv2/Relu"
  input: "mpool0/MaxPool"
  input: "gradients/conv3/conv2d/Conv2D_grad/Conv2DBackpropInput"
  input: "^gradients/conv3/conv2d/Conv2D_grad/Conv2DBackpropFilter"
  device: "/job:localhost/replica:0/task:0/device:GPU:0"
  attr {
    key: "T"
    value {
      type: DT_FLOAT
    }
  }
  attr {
    key: "_output_shapes"
    value {
      list {
        shape {
          dim {
            size: 32
          }
          dim {
            size: 64
          }
          dim {
            size: 147
          }
          dim {
            size: 147
          }
        }
      }
    }
  }
  attr {
    key: "data_format"
    value {
      s: "NCHW"
    }
  }
  attr {
    key: "ksize"
    value {
      list {
        i: 1
        i: 1
        i: 3
        i: 3
      }
    }
  }
  attr {
    key: "padding"
    value {
      s: "VALID"
    }
  }
  attr {
    key: "strides"
    value {
      list {
        i: 1
        i: 1
        i: 2
        i: 2
      }
    }
  }
  experimental_debug_info {
    original_node_names: "gradients/mpool0/MaxPool_grad/MaxPoolGrad"
  }
}
node {
  name: "GradientDescent/update_conv3/conv2d/kernel/ApplyGradientDescent"
  op: "ApplyGradientDescent"
  input: "conv3/conv2d/kernel"
  input: "GradientDescent/learning_rate"
  input: "gradients/conv3/conv2d/Conv2D_grad/Conv2DBackpropFilter"
  input: "^gradients/conv3/conv2d/Conv2D_grad/Conv2DBackpropInput"
  device: "/job:localhost/replica:0/task:0/device:GPU:0"
  attr {
    key: "T"
    value {
      type: DT_FLOAT
    }
  }
  attr {
    key: "_output_shapes"
    value {
      list {
        shape {
          dim {
            size: 1
          }
          dim {
            size: 1
          }
          dim {
            size: 64
          }
          dim {
            size: 80
          }
        }
      }
    }
  }
  attr {
    key: "use_locking"
    value {
      b: false
    }
  }
  experimental_debug_info {
    original_node_names: "GradientDescent/update_conv3/conv2d/kernel/ApplyGradientDescent"
  }
}
node {
  name: "gradients/conv2/Relu_grad/ReluGrad"
  op: "ReluGrad"
  input: "gradients/mpool0/MaxPool_grad/MaxPoolGrad"
  input: "conv2/Relu"
  device: "/job:localhost/replica:0/task:0/device:GPU:0"
  attr {
    key: "T"
    value {
      type: DT_FLOAT
    }
  }
  attr {
    key: "_output_shapes"
    value {
      list {
        shape {
          dim {
            size: 32
          }
          dim {
            size: 64
          }
          dim {
            size: 147
          }
          dim {
            size: 147
          }
        }
      }
    }
  }
  experimental_debug_info {
    original_node_names: "gradients/conv2/Relu_grad/ReluGrad"
  }
}
node {
  name: "gradients/conv2/batchnorm2/FusedBatchNormV3_grad/FusedBatchNormGradV3"
  op: "FusedBatchNormGradV3"
  input: "gradients/conv2/Relu_grad/ReluGrad"
  input: "conv2/conv2d/Conv2D"
  input: "conv2/batchnorm2/Const"
  input: "conv2/batchnorm2/FusedBatchNormV3:3"
  input: "conv2/batchnorm2/FusedBatchNormV3:4"
  input: "conv2/batchnorm2/FusedBatchNormV3:5"
  device: "/job:localhost/replica:0/task:0/device:GPU:0"
  attr {
    key: "T"
    value {
      type: DT_FLOAT
    }
  }
  attr {
    key: "U"
    value {
      type: DT_FLOAT
    }
  }
  attr {
    key: "_output_shapes"
    value {
      list {
        shape {
          dim {
            size: 32
          }
          dim {
            size: 64
          }
          dim {
            size: 147
          }
          dim {
            size: 147
          }
        }
        shape {
          dim {
            size: 64
          }
        }
        shape {
          dim {
            size: 64
          }
        }
        shape {
          dim {
          }
        }
        shape {
          dim {
          }
        }
      }
    }
  }
  attr {
    key: "data_format"
    value {
      s: "NCHW"
    }
  }
  attr {
    key: "epsilon"
    value {
      f: 0.0010000000474974513
    }
  }
  attr {
    key: "is_training"
    value {
      b: true
    }
  }
  experimental_debug_info {
    original_node_names: "gradients/conv2/batchnorm2/FusedBatchNormV3_grad/FusedBatchNormGradV3"
  }
}
node {
  name: "gradients/conv2/conv2d/Conv2D_grad/Conv2DBackpropFilter"
  op: "Conv2DBackpropFilter"
  input: "conv1/Relu"
  input: "ConstantFolding/gradients/conv2/conv2d/Conv2D_grad/ShapeN-matshapes-1"
  input: "gradients/conv2/batchnorm2/FusedBatchNormV3_grad/FusedBatchNormGradV3"
  device: "/job:localhost/replica:0/task:0/device:GPU:0"
  attr {
    key: "T"
    value {
      type: DT_FLOAT
    }
  }
  attr {
    key: "_output_shapes"
    value {
      list {
        shape {
          dim {
            size: 3
          }
          dim {
            size: 3
          }
          dim {
            size: 32
          }
          dim {
            size: 64
          }
        }
      }
    }
  }
  attr {
    key: "data_format"
    value {
      s: "NCHW"
    }
  }
  attr {
    key: "dilations"
    value {
      list {
        i: 1
        i: 1
        i: 1
        i: 1
      }
    }
  }
  attr {
    key: "explicit_paddings"
    value {
      list {
      }
    }
  }
  attr {
    key: "padding"
    value {
      s: "SAME"
    }
  }
  attr {
    key: "strides"
    value {
      list {
        i: 1
        i: 1
        i: 1
        i: 1
      }
    }
  }
  attr {
    key: "use_cudnn_on_gpu"
    value {
      b: true
    }
  }
  experimental_debug_info {
    original_node_names: "gradients/conv2/conv2d/Conv2D_grad/Conv2DBackpropFilter"
  }
}
node {
  name: "gradients/conv2/conv2d/Conv2D_grad/Conv2DBackpropInput"
  op: "Conv2DBackpropInput"
  input: "gradients/conv2/conv2d/Conv2D_grad/Conv2DBackpropInput-0-DataFormatVecPermuteNHWCToNCHW-LayoutOptimizer"
  input: "conv2/conv2d/kernel/read"
  input: "gradients/conv2/batchnorm2/FusedBatchNormV3_grad/FusedBatchNormGradV3"
  device: "/job:localhost/replica:0/task:0/device:GPU:0"
  attr {
    key: "T"
    value {
      type: DT_FLOAT
    }
  }
  attr {
    key: "_output_shapes"
    value {
      list {
        shape {
          dim {
            size: 32
          }
          dim {
            size: 32
          }
          dim {
            size: 147
          }
          dim {
            size: 147
          }
        }
      }
    }
  }
  attr {
    key: "data_format"
    value {
      s: "NCHW"
    }
  }
  attr {
    key: "dilations"
    value {
      list {
        i: 1
        i: 1
        i: 1
        i: 1
      }
    }
  }
  attr {
    key: "explicit_paddings"
    value {
      list {
      }
    }
  }
  attr {
    key: "padding"
    value {
      s: "SAME"
    }
  }
  attr {
    key: "strides"
    value {
      list {
        i: 1
        i: 1
        i: 1
        i: 1
      }
    }
  }
  attr {
    key: "use_cudnn_on_gpu"
    value {
      b: true
    }
  }
  experimental_debug_info {
    original_node_names: "gradients/conv2/conv2d/Conv2D_grad/Conv2DBackpropInput"
  }
}
node {
  name: "GradientDescent/update_conv2/batchnorm2/beta/ApplyGradientDescent"
  op: "ApplyGradientDescent"
  input: "conv2/batchnorm2/beta"
  input: "GradientDescent/learning_rate"
  input: "gradients/conv2/batchnorm2/FusedBatchNormV3_grad/FusedBatchNormGradV3:2"
  device: "/job:localhost/replica:0/task:0/device:GPU:0"
  attr {
    key: "T"
    value {
      type: DT_FLOAT
    }
  }
  attr {
    key: "_output_shapes"
    value {
      list {
        shape {
          dim {
            size: 64
          }
        }
      }
    }
  }
  attr {
    key: "use_locking"
    value {
      b: false
    }
  }
  experimental_debug_info {
    original_node_names: "GradientDescent/update_conv2/batchnorm2/beta/ApplyGradientDescent"
  }
}
node {
  name: "gradients/conv1/Relu_grad/ReluGrad"
  op: "ReluGrad"
  input: "gradients/conv2/conv2d/Conv2D_grad/Conv2DBackpropInput"
  input: "conv1/Relu"
  input: "^gradients/conv2/conv2d/Conv2D_grad/Conv2DBackpropFilter"
  device: "/job:localhost/replica:0/task:0/device:GPU:0"
  attr {
    key: "T"
    value {
      type: DT_FLOAT
    }
  }
  attr {
    key: "_output_shapes"
    value {
      list {
        shape {
          dim {
            size: 32
          }
          dim {
            size: 32
          }
          dim {
            size: 147
          }
          dim {
            size: 147
          }
        }
      }
    }
  }
  experimental_debug_info {
    original_node_names: "gradients/conv1/Relu_grad/ReluGrad"
  }
}
node {
  name: "GradientDescent/update_conv2/conv2d/kernel/ApplyGradientDescent"
  op: "ApplyGradientDescent"
  input: "conv2/conv2d/kernel"
  input: "GradientDescent/learning_rate"
  input: "gradients/conv2/conv2d/Conv2D_grad/Conv2DBackpropFilter"
  input: "^gradients/conv2/conv2d/Conv2D_grad/Conv2DBackpropInput"
  device: "/job:localhost/replica:0/task:0/device:GPU:0"
  attr {
    key: "T"
    value {
      type: DT_FLOAT
    }
  }
  attr {
    key: "_output_shapes"
    value {
      list {
        shape {
          dim {
            size: 3
          }
          dim {
            size: 3
          }
          dim {
            size: 32
          }
          dim {
            size: 64
          }
        }
      }
    }
  }
  attr {
    key: "use_locking"
    value {
      b: false
    }
  }
  experimental_debug_info {
    original_node_names: "GradientDescent/update_conv2/conv2d/kernel/ApplyGradientDescent"
  }
}
node {
  name: "gradients/conv1/batchnorm1/FusedBatchNormV3_grad/FusedBatchNormGradV3"
  op: "FusedBatchNormGradV3"
  input: "gradients/conv1/Relu_grad/ReluGrad"
  input: "conv1/conv2d/Conv2D"
  input: "conv0/batchnorm0/Const"
  input: "conv1/batchnorm1/FusedBatchNormV3:3"
  input: "conv1/batchnorm1/FusedBatchNormV3:4"
  input: "conv1/batchnorm1/FusedBatchNormV3:5"
  device: "/job:localhost/replica:0/task:0/device:GPU:0"
  attr {
    key: "T"
    value {
      type: DT_FLOAT
    }
  }
  attr {
    key: "U"
    value {
      type: DT_FLOAT
    }
  }
  attr {
    key: "_output_shapes"
    value {
      list {
        shape {
          dim {
            size: 32
          }
          dim {
            size: 32
          }
          dim {
            size: 147
          }
          dim {
            size: 147
          }
        }
        shape {
          dim {
            size: 32
          }
        }
        shape {
          dim {
            size: 32
          }
        }
        shape {
          dim {
          }
        }
        shape {
          dim {
          }
        }
      }
    }
  }
  attr {
    key: "data_format"
    value {
      s: "NCHW"
    }
  }
  attr {
    key: "epsilon"
    value {
      f: 0.0010000000474974513
    }
  }
  attr {
    key: "is_training"
    value {
      b: true
    }
  }
  experimental_debug_info {
    original_node_names: "gradients/conv1/batchnorm1/FusedBatchNormV3_grad/FusedBatchNormGradV3"
  }
}
node {
  name: "gradients/conv1/conv2d/Conv2D_grad/Conv2DBackpropFilter"
  op: "Conv2DBackpropFilter"
  input: "conv0/Relu"
  input: "ConstantFolding/gradients/conv1/conv2d/Conv2D_grad/ShapeN-matshapes-1"
  input: "gradients/conv1/batchnorm1/FusedBatchNormV3_grad/FusedBatchNormGradV3"
  device: "/job:localhost/replica:0/task:0/device:GPU:0"
  attr {
    key: "T"
    value {
      type: DT_FLOAT
    }
  }
  attr {
    key: "_output_shapes"
    value {
      list {
        shape {
          dim {
            size: 3
          }
          dim {
            size: 3
          }
          dim {
            size: 32
          }
          dim {
            size: 32
          }
        }
      }
    }
  }
  attr {
    key: "data_format"
    value {
      s: "NCHW"
    }
  }
  attr {
    key: "dilations"
    value {
      list {
        i: 1
        i: 1
        i: 1
        i: 1
      }
    }
  }
  attr {
    key: "explicit_paddings"
    value {
      list {
      }
    }
  }
  attr {
    key: "padding"
    value {
      s: "VALID"
    }
  }
  attr {
    key: "strides"
    value {
      list {
        i: 1
        i: 1
        i: 1
        i: 1
      }
    }
  }
  attr {
    key: "use_cudnn_on_gpu"
    value {
      b: true
    }
  }
  experimental_debug_info {
    original_node_names: "gradients/conv1/conv2d/Conv2D_grad/Conv2DBackpropFilter"
  }
}
node {
  name: "gradients/conv1/conv2d/Conv2D_grad/Conv2DBackpropInput"
  op: "Conv2DBackpropInput"
  input: "gradients/conv1/conv2d/Conv2D_grad/Conv2DBackpropInput-0-DataFormatVecPermuteNHWCToNCHW-LayoutOptimizer"
  input: "conv1/conv2d/kernel/read"
  input: "gradients/conv1/batchnorm1/FusedBatchNormV3_grad/FusedBatchNormGradV3"
  device: "/job:localhost/replica:0/task:0/device:GPU:0"
  attr {
    key: "T"
    value {
      type: DT_FLOAT
    }
  }
  attr {
    key: "_output_shapes"
    value {
      list {
        shape {
          dim {
            size: 32
          }
          dim {
            size: 32
          }
          dim {
            size: 149
          }
          dim {
            size: 149
          }
        }
      }
    }
  }
  attr {
    key: "data_format"
    value {
      s: "NCHW"
    }
  }
  attr {
    key: "dilations"
    value {
      list {
        i: 1
        i: 1
        i: 1
        i: 1
      }
    }
  }
  attr {
    key: "explicit_paddings"
    value {
      list {
      }
    }
  }
  attr {
    key: "padding"
    value {
      s: "VALID"
    }
  }
  attr {
    key: "strides"
    value {
      list {
        i: 1
        i: 1
        i: 1
        i: 1
      }
    }
  }
  attr {
    key: "use_cudnn_on_gpu"
    value {
      b: true
    }
  }
  experimental_debug_info {
    original_node_names: "gradients/conv1/conv2d/Conv2D_grad/Conv2DBackpropInput"
  }
}
node {
  name: "GradientDescent/update_conv1/batchnorm1/beta/ApplyGradientDescent"
  op: "ApplyGradientDescent"
  input: "conv1/batchnorm1/beta"
  input: "GradientDescent/learning_rate"
  input: "gradients/conv1/batchnorm1/FusedBatchNormV3_grad/FusedBatchNormGradV3:2"
  device: "/job:localhost/replica:0/task:0/device:GPU:0"
  attr {
    key: "T"
    value {
      type: DT_FLOAT
    }
  }
  attr {
    key: "_output_shapes"
    value {
      list {
        shape {
          dim {
            size: 32
          }
        }
      }
    }
  }
  attr {
    key: "use_locking"
    value {
      b: false
    }
  }
  experimental_debug_info {
    original_node_names: "GradientDescent/update_conv1/batchnorm1/beta/ApplyGradientDescent"
  }
}
node {
  name: "gradients/conv0/Relu_grad/ReluGrad"
  op: "ReluGrad"
  input: "gradients/conv1/conv2d/Conv2D_grad/Conv2DBackpropInput"
  input: "conv0/Relu"
  input: "^gradients/conv1/conv2d/Conv2D_grad/Conv2DBackpropFilter"
  device: "/job:localhost/replica:0/task:0/device:GPU:0"
  attr {
    key: "T"
    value {
      type: DT_FLOAT
    }
  }
  attr {
    key: "_output_shapes"
    value {
      list {
        shape {
          dim {
            size: 32
          }
          dim {
            size: 32
          }
          dim {
            size: 149
          }
          dim {
            size: 149
          }
        }
      }
    }
  }
  experimental_debug_info {
    original_node_names: "gradients/conv0/Relu_grad/ReluGrad"
  }
}
node {
  name: "GradientDescent/update_conv1/conv2d/kernel/ApplyGradientDescent"
  op: "ApplyGradientDescent"
  input: "conv1/conv2d/kernel"
  input: "GradientDescent/learning_rate"
  input: "gradients/conv1/conv2d/Conv2D_grad/Conv2DBackpropFilter"
  input: "^gradients/conv1/conv2d/Conv2D_grad/Conv2DBackpropInput"
  device: "/job:localhost/replica:0/task:0/device:GPU:0"
  attr {
    key: "T"
    value {
      type: DT_FLOAT
    }
  }
  attr {
    key: "_output_shapes"
    value {
      list {
        shape {
          dim {
            size: 3
          }
          dim {
            size: 3
          }
          dim {
            size: 32
          }
          dim {
            size: 32
          }
        }
      }
    }
  }
  attr {
    key: "use_locking"
    value {
      b: false
    }
  }
  experimental_debug_info {
    original_node_names: "GradientDescent/update_conv1/conv2d/kernel/ApplyGradientDescent"
  }
}
node {
  name: "gradients/conv0/batchnorm0/FusedBatchNormV3_grad/FusedBatchNormGradV3"
  op: "FusedBatchNormGradV3"
  input: "gradients/conv0/Relu_grad/ReluGrad"
  input: "conv0/conv2d/Conv2D"
  input: "conv0/batchnorm0/Const"
  input: "conv0/batchnorm0/FusedBatchNormV3:3"
  input: "conv0/batchnorm0/FusedBatchNormV3:4"
  input: "conv0/batchnorm0/FusedBatchNormV3:5"
  device: "/job:localhost/replica:0/task:0/device:GPU:0"
  attr {
    key: "T"
    value {
      type: DT_FLOAT
    }
  }
  attr {
    key: "U"
    value {
      type: DT_FLOAT
    }
  }
  attr {
    key: "_output_shapes"
    value {
      list {
        shape {
          dim {
            size: 32
          }
          dim {
            size: 32
          }
          dim {
            size: 149
          }
          dim {
            size: 149
          }
        }
        shape {
          dim {
            size: 32
          }
        }
        shape {
          dim {
            size: 32
          }
        }
        shape {
          dim {
          }
        }
        shape {
          dim {
          }
        }
      }
    }
  }
  attr {
    key: "data_format"
    value {
      s: "NCHW"
    }
  }
  attr {
    key: "epsilon"
    value {
      f: 0.0010000000474974513
    }
  }
  attr {
    key: "is_training"
    value {
      b: true
    }
  }
  experimental_debug_info {
    original_node_names: "gradients/conv0/batchnorm0/FusedBatchNormV3_grad/FusedBatchNormGradV3"
  }
}
node {
  name: "gradients/conv0/conv2d/Conv2D_grad/Conv2DBackpropFilter"
  op: "Conv2DBackpropFilter"
  input: "conv0/conv2d/Conv2D-0-TransposeNHWCToNCHW-LayoutOptimizer"
  input: "ConstantFolding/gradients/conv0/conv2d/Conv2D_grad/ShapeN-matshapes-1"
  input: "gradients/conv0/batchnorm0/FusedBatchNormV3_grad/FusedBatchNormGradV3"
  device: "/job:localhost/replica:0/task:0/device:GPU:0"
  attr {
    key: "T"
    value {
      type: DT_FLOAT
    }
  }
  attr {
    key: "_output_shapes"
    value {
      list {
        shape {
          dim {
            size: 3
          }
          dim {
            size: 3
          }
          dim {
            size: 3
          }
          dim {
            size: 32
          }
        }
      }
    }
  }
  attr {
    key: "data_format"
    value {
      s: "NCHW"
    }
  }
  attr {
    key: "dilations"
    value {
      list {
        i: 1
        i: 1
        i: 1
        i: 1
      }
    }
  }
  attr {
    key: "explicit_paddings"
    value {
      list {
      }
    }
  }
  attr {
    key: "padding"
    value {
      s: "VALID"
    }
  }
  attr {
    key: "strides"
    value {
      list {
        i: 1
        i: 1
        i: 2
        i: 2
      }
    }
  }
  attr {
    key: "use_cudnn_on_gpu"
    value {
      b: true
    }
  }
  experimental_debug_info {
    original_node_names: "gradients/conv0/conv2d/Conv2D_grad/Conv2DBackpropFilter"
  }
}
node {
  name: "GradientDescent/update_conv0/batchnorm0/beta/ApplyGradientDescent"
  op: "ApplyGradientDescent"
  input: "conv0/batchnorm0/beta"
  input: "GradientDescent/learning_rate"
  input: "gradients/conv0/batchnorm0/FusedBatchNormV3_grad/FusedBatchNormGradV3:2"
  device: "/job:localhost/replica:0/task:0/device:GPU:0"
  attr {
    key: "T"
    value {
      type: DT_FLOAT
    }
  }
  attr {
    key: "_output_shapes"
    value {
      list {
        shape {
          dim {
            size: 32
          }
        }
      }
    }
  }
  attr {
    key: "use_locking"
    value {
      b: false
    }
  }
  experimental_debug_info {
    original_node_names: "GradientDescent/update_conv0/batchnorm0/beta/ApplyGradientDescent"
  }
}
node {
  name: "GradientDescent/update_conv0/conv2d/kernel/ApplyGradientDescent"
  op: "ApplyGradientDescent"
  input: "conv0/conv2d/kernel"
  input: "GradientDescent/learning_rate"
  input: "gradients/conv0/conv2d/Conv2D_grad/Conv2DBackpropFilter"
  device: "/job:localhost/replica:0/task:0/device:GPU:0"
  attr {
    key: "T"
    value {
      type: DT_FLOAT
    }
  }
  attr {
    key: "_output_shapes"
    value {
      list {
        shape {
          dim {
            size: 3
          }
          dim {
            size: 3
          }
          dim {
            size: 3
          }
          dim {
            size: 32
          }
        }
      }
    }
  }
  attr {
    key: "use_locking"
    value {
      b: false
    }
  }
  experimental_debug_info {
    original_node_names: "GradientDescent/update_conv0/conv2d/kernel/ApplyGradientDescent"
  }
}
node {
  name: "GradientDescent"
  op: "NoOp"
  input: "^GradientDescent/update_affine0/biases/ApplyGradientDescent"
  input: "^GradientDescent/update_affine0/weights/ApplyGradientDescent"
  input: "^GradientDescent/update_conv0/batchnorm0/beta/ApplyGradientDescent"
  input: "^GradientDescent/update_conv0/conv2d/kernel/ApplyGradientDescent"
  input: "^GradientDescent/update_conv1/batchnorm1/beta/ApplyGradientDescent"
  input: "^GradientDescent/update_conv1/conv2d/kernel/ApplyGradientDescent"
  input: "^GradientDescent/update_conv2/batchnorm2/beta/ApplyGradientDescent"
  input: "^GradientDescent/update_conv2/conv2d/kernel/ApplyGradientDescent"
  input: "^GradientDescent/update_conv3/batchnorm3/beta/ApplyGradientDescent"
  input: "^GradientDescent/update_conv3/conv2d/kernel/ApplyGradientDescent"
  input: "^GradientDescent/update_conv4/batchnorm4/beta/ApplyGradientDescent"
  input: "^GradientDescent/update_conv4/conv2d/kernel/ApplyGradientDescent"
  input: "^GradientDescent/update_incept_v3_a0/conv10/batchnorm10/beta/ApplyGradientDescent"
  input: "^GradientDescent/update_incept_v3_a0/conv10/conv2d/kernel/ApplyGradientDescent"
  input: "^GradientDescent/update_incept_v3_a0/conv11/batchnorm11/beta/ApplyGradientDescent"
  input: "^GradientDescent/update_incept_v3_a0/conv11/conv2d/kernel/ApplyGradientDescent"
  input: "^GradientDescent/update_incept_v3_a0/conv12/batchnorm12/beta/ApplyGradientDescent"
  input: "^GradientDescent/update_incept_v3_a0/conv12/conv2d/kernel/ApplyGradientDescent"
  input: "^GradientDescent/update_incept_v3_a0/conv13/batchnorm13/beta/ApplyGradientDescent"
  input: "^GradientDescent/update_incept_v3_a0/conv13/conv2d/kernel/ApplyGradientDescent"
  input: "^GradientDescent/update_incept_v3_a0/conv14/batchnorm14/beta/ApplyGradientDescent"
  input: "^GradientDescent/update_incept_v3_a0/conv14/conv2d/kernel/ApplyGradientDescent"
  input: "^GradientDescent/update_incept_v3_a0/conv15/batchnorm15/beta/ApplyGradientDescent"
  input: "^GradientDescent/update_incept_v3_a0/conv15/conv2d/kernel/ApplyGradientDescent"
  input: "^GradientDescent/update_incept_v3_a0/conv16/batchnorm16/beta/ApplyGradientDescent"
  input: "^GradientDescent/update_incept_v3_a0/conv16/conv2d/kernel/ApplyGradientDescent"
  input: "^GradientDescent/update_incept_v3_a0/conv17/batchnorm17/beta/ApplyGradientDescent"
  input: "^GradientDescent/update_incept_v3_a0/conv17/conv2d/kernel/ApplyGradientDescent"
  input: "^GradientDescent/update_incept_v3_a0/conv18/batchnorm18/beta/ApplyGradientDescent"
  input: "^GradientDescent/update_incept_v3_a0/conv18/conv2d/kernel/ApplyGradientDescent"
  input: "^GradientDescent/update_incept_v3_a0/conv19/batchnorm19/beta/ApplyGradientDescent"
  input: "^GradientDescent/update_incept_v3_a0/conv19/conv2d/kernel/ApplyGradientDescent"
  input: "^GradientDescent/update_incept_v3_a0/conv20/batchnorm20/beta/ApplyGradientDescent"
  input: "^GradientDescent/update_incept_v3_a0/conv20/conv2d/kernel/ApplyGradientDescent"
  input: "^GradientDescent/update_incept_v3_a0/conv21/batchnorm21/beta/ApplyGradientDescent"
  input: "^GradientDescent/update_incept_v3_a0/conv21/conv2d/kernel/ApplyGradientDescent"
  input: "^GradientDescent/update_incept_v3_a0/conv22/batchnorm22/beta/ApplyGradientDescent"
  input: "^GradientDescent/update_incept_v3_a0/conv22/conv2d/kernel/ApplyGradientDescent"
  input: "^GradientDescent/update_incept_v3_a0/conv23/batchnorm23/beta/ApplyGradientDescent"
  input: "^GradientDescent/update_incept_v3_a0/conv23/conv2d/kernel/ApplyGradientDescent"
  input: "^GradientDescent/update_incept_v3_a0/conv24/batchnorm24/beta/ApplyGradientDescent"
  input: "^GradientDescent/update_incept_v3_a0/conv24/conv2d/kernel/ApplyGradientDescent"
  input: "^GradientDescent/update_incept_v3_a0/conv25/batchnorm25/beta/ApplyGradientDescent"
  input: "^GradientDescent/update_incept_v3_a0/conv25/conv2d/kernel/ApplyGradientDescent"
  input: "^GradientDescent/update_incept_v3_a0/conv5/batchnorm5/beta/ApplyGradientDescent"
  input: "^GradientDescent/update_incept_v3_a0/conv5/conv2d/kernel/ApplyGradientDescent"
  input: "^GradientDescent/update_incept_v3_a0/conv6/batchnorm6/beta/ApplyGradientDescent"
  input: "^GradientDescent/update_incept_v3_a0/conv6/conv2d/kernel/ApplyGradientDescent"
  input: "^GradientDescent/update_incept_v3_a0/conv7/batchnorm7/beta/ApplyGradientDescent"
  input: "^GradientDescent/update_incept_v3_a0/conv7/conv2d/kernel/ApplyGradientDescent"
  input: "^GradientDescent/update_incept_v3_a0/conv8/batchnorm8/beta/ApplyGradientDescent"
  input: "^GradientDescent/update_incept_v3_a0/conv8/conv2d/kernel/ApplyGradientDescent"
  input: "^GradientDescent/update_incept_v3_a0/conv9/batchnorm9/beta/ApplyGradientDescent"
  input: "^GradientDescent/update_incept_v3_a0/conv9/conv2d/kernel/ApplyGradientDescent"
  input: "^GradientDescent/update_incept_v3_b0/conv26/batchnorm26/beta/ApplyGradientDescent"
  input: "^GradientDescent/update_incept_v3_b0/conv26/conv2d/kernel/ApplyGradientDescent"
  input: "^GradientDescent/update_incept_v3_b0/conv27/batchnorm27/beta/ApplyGradientDescent"
  input: "^GradientDescent/update_incept_v3_b0/conv27/conv2d/kernel/ApplyGradientDescent"
  input: "^GradientDescent/update_incept_v3_b0/conv28/batchnorm28/beta/ApplyGradientDescent"
  input: "^GradientDescent/update_incept_v3_b0/conv28/conv2d/kernel/ApplyGradientDescent"
  input: "^GradientDescent/update_incept_v3_b0/conv29/batchnorm29/beta/ApplyGradientDescent"
  input: "^GradientDescent/update_incept_v3_b0/conv29/conv2d/kernel/ApplyGradientDescent"
  input: "^GradientDescent/update_incept_v3_c0/conv30/batchnorm30/beta/ApplyGradientDescent"
  input: "^GradientDescent/update_incept_v3_c0/conv30/conv2d/kernel/ApplyGradientDescent"
  input: "^GradientDescent/update_incept_v3_c0/conv31/batchnorm31/beta/ApplyGradientDescent"
  input: "^GradientDescent/update_incept_v3_c0/conv31/conv2d/kernel/ApplyGradientDescent"
  input: "^GradientDescent/update_incept_v3_c0/conv32/batchnorm32/beta/ApplyGradientDescent"
  input: "^GradientDescent/update_incept_v3_c0/conv32/conv2d/kernel/ApplyGradientDescent"
  input: "^GradientDescent/update_incept_v3_c0/conv33/batchnorm33/beta/ApplyGradientDescent"
  input: "^GradientDescent/update_incept_v3_c0/conv33/conv2d/kernel/ApplyGradientDescent"
  input: "^GradientDescent/update_incept_v3_c0/conv34/batchnorm34/beta/ApplyGradientDescent"
  input: "^GradientDescent/update_incept_v3_c0/conv34/conv2d/kernel/ApplyGradientDescent"
  input: "^GradientDescent/update_incept_v3_c0/conv35/batchnorm35/beta/ApplyGradientDescent"
  input: "^GradientDescent/update_incept_v3_c0/conv35/conv2d/kernel/ApplyGradientDescent"
  input: "^GradientDescent/update_incept_v3_c0/conv36/batchnorm36/beta/ApplyGradientDescent"
  input: "^GradientDescent/update_incept_v3_c0/conv36/conv2d/kernel/ApplyGradientDescent"
  input: "^GradientDescent/update_incept_v3_c0/conv37/batchnorm37/beta/ApplyGradientDescent"
  input: "^GradientDescent/update_incept_v3_c0/conv37/conv2d/kernel/ApplyGradientDescent"
  input: "^GradientDescent/update_incept_v3_c0/conv38/batchnorm38/beta/ApplyGradientDescent"
  input: "^GradientDescent/update_incept_v3_c0/conv38/conv2d/kernel/ApplyGradientDescent"
  input: "^GradientDescent/update_incept_v3_c0/conv39/batchnorm39/beta/ApplyGradientDescent"
  input: "^GradientDescent/update_incept_v3_c0/conv39/conv2d/kernel/ApplyGradientDescent"
  input: "^GradientDescent/update_incept_v3_c0/conv40/batchnorm40/beta/ApplyGradientDescent"
  input: "^GradientDescent/update_incept_v3_c0/conv40/conv2d/kernel/ApplyGradientDescent"
  input: "^GradientDescent/update_incept_v3_c0/conv41/batchnorm41/beta/ApplyGradientDescent"
  input: "^GradientDescent/update_incept_v3_c0/conv41/conv2d/kernel/ApplyGradientDescent"
  input: "^GradientDescent/update_incept_v3_c0/conv42/batchnorm42/beta/ApplyGradientDescent"
  input: "^GradientDescent/update_incept_v3_c0/conv42/conv2d/kernel/ApplyGradientDescent"
  input: "^GradientDescent/update_incept_v3_c0/conv43/batchnorm43/beta/ApplyGradientDescent"
  input: "^GradientDescent/update_incept_v3_c0/conv43/conv2d/kernel/ApplyGradientDescent"
  input: "^GradientDescent/update_incept_v3_c0/conv44/batchnorm44/beta/ApplyGradientDescent"
  input: "^GradientDescent/update_incept_v3_c0/conv44/conv2d/kernel/ApplyGradientDescent"
  input: "^GradientDescent/update_incept_v3_c0/conv45/batchnorm45/beta/ApplyGradientDescent"
  input: "^GradientDescent/update_incept_v3_c0/conv45/conv2d/kernel/ApplyGradientDescent"
  input: "^GradientDescent/update_incept_v3_c0/conv46/batchnorm46/beta/ApplyGradientDescent"
  input: "^GradientDescent/update_incept_v3_c0/conv46/conv2d/kernel/ApplyGradientDescent"
  input: "^GradientDescent/update_incept_v3_c0/conv47/batchnorm47/beta/ApplyGradientDescent"
  input: "^GradientDescent/update_incept_v3_c0/conv47/conv2d/kernel/ApplyGradientDescent"
  input: "^GradientDescent/update_incept_v3_c0/conv48/batchnorm48/beta/ApplyGradientDescent"
  input: "^GradientDescent/update_incept_v3_c0/conv48/conv2d/kernel/ApplyGradientDescent"
  input: "^GradientDescent/update_incept_v3_c0/conv49/batchnorm49/beta/ApplyGradientDescent"
  input: "^GradientDescent/update_incept_v3_c0/conv49/conv2d/kernel/ApplyGradientDescent"
  input: "^GradientDescent/update_incept_v3_c0/conv50/batchnorm50/beta/ApplyGradientDescent"
  input: "^GradientDescent/update_incept_v3_c0/conv50/conv2d/kernel/ApplyGradientDescent"
  input: "^GradientDescent/update_incept_v3_c0/conv51/batchnorm51/beta/ApplyGradientDescent"
  input: "^GradientDescent/update_incept_v3_c0/conv51/conv2d/kernel/ApplyGradientDescent"
  input: "^GradientDescent/update_incept_v3_c0/conv52/batchnorm52/beta/ApplyGradientDescent"
  input: "^GradientDescent/update_incept_v3_c0/conv52/conv2d/kernel/ApplyGradientDescent"
  input: "^GradientDescent/update_incept_v3_c0/conv53/batchnorm53/beta/ApplyGradientDescent"
  input: "^GradientDescent/update_incept_v3_c0/conv53/conv2d/kernel/ApplyGradientDescent"
  input: "^GradientDescent/update_incept_v3_c0/conv54/batchnorm54/beta/ApplyGradientDescent"
  input: "^GradientDescent/update_incept_v3_c0/conv54/conv2d/kernel/ApplyGradientDescent"
  input: "^GradientDescent/update_incept_v3_c0/conv55/batchnorm55/beta/ApplyGradientDescent"
  input: "^GradientDescent/update_incept_v3_c0/conv55/conv2d/kernel/ApplyGradientDescent"
  input: "^GradientDescent/update_incept_v3_c0/conv56/batchnorm56/beta/ApplyGradientDescent"
  input: "^GradientDescent/update_incept_v3_c0/conv56/conv2d/kernel/ApplyGradientDescent"
  input: "^GradientDescent/update_incept_v3_c0/conv57/batchnorm57/beta/ApplyGradientDescent"
  input: "^GradientDescent/update_incept_v3_c0/conv57/conv2d/kernel/ApplyGradientDescent"
  input: "^GradientDescent/update_incept_v3_c0/conv58/batchnorm58/beta/ApplyGradientDescent"
  input: "^GradientDescent/update_incept_v3_c0/conv58/conv2d/kernel/ApplyGradientDescent"
  input: "^GradientDescent/update_incept_v3_c0/conv59/batchnorm59/beta/ApplyGradientDescent"
  input: "^GradientDescent/update_incept_v3_c0/conv59/conv2d/kernel/ApplyGradientDescent"
  input: "^GradientDescent/update_incept_v3_c0/conv60/batchnorm60/beta/ApplyGradientDescent"
  input: "^GradientDescent/update_incept_v3_c0/conv60/conv2d/kernel/ApplyGradientDescent"
  input: "^GradientDescent/update_incept_v3_c0/conv61/batchnorm61/beta/ApplyGradientDescent"
  input: "^GradientDescent/update_incept_v3_c0/conv61/conv2d/kernel/ApplyGradientDescent"
  input: "^GradientDescent/update_incept_v3_c0/conv62/batchnorm62/beta/ApplyGradientDescent"
  input: "^GradientDescent/update_incept_v3_c0/conv62/conv2d/kernel/ApplyGradientDescent"
  input: "^GradientDescent/update_incept_v3_c0/conv63/batchnorm63/beta/ApplyGradientDescent"
  input: "^GradientDescent/update_incept_v3_c0/conv63/conv2d/kernel/ApplyGradientDescent"
  input: "^GradientDescent/update_incept_v3_c0/conv64/batchnorm64/beta/ApplyGradientDescent"
  input: "^GradientDescent/update_incept_v3_c0/conv64/conv2d/kernel/ApplyGradientDescent"
  input: "^GradientDescent/update_incept_v3_c0/conv65/batchnorm65/beta/ApplyGradientDescent"
  input: "^GradientDescent/update_incept_v3_c0/conv65/conv2d/kernel/ApplyGradientDescent"
  input: "^GradientDescent/update_incept_v3_c0/conv66/batchnorm66/beta/ApplyGradientDescent"
  input: "^GradientDescent/update_incept_v3_c0/conv66/conv2d/kernel/ApplyGradientDescent"
  input: "^GradientDescent/update_incept_v3_c0/conv67/batchnorm67/beta/ApplyGradientDescent"
  input: "^GradientDescent/update_incept_v3_c0/conv67/conv2d/kernel/ApplyGradientDescent"
  input: "^GradientDescent/update_incept_v3_c0/conv68/batchnorm68/beta/ApplyGradientDescent"
  input: "^GradientDescent/update_incept_v3_c0/conv68/conv2d/kernel/ApplyGradientDescent"
  input: "^GradientDescent/update_incept_v3_c0/conv69/batchnorm69/beta/ApplyGradientDescent"
  input: "^GradientDescent/update_incept_v3_c0/conv69/conv2d/kernel/ApplyGradientDescent"
  input: "^GradientDescent/update_incept_v3_d0/conv70/batchnorm70/beta/ApplyGradientDescent"
  input: "^GradientDescent/update_incept_v3_d0/conv70/conv2d/kernel/ApplyGradientDescent"
  input: "^GradientDescent/update_incept_v3_d0/conv71/batchnorm71/beta/ApplyGradientDescent"
  input: "^GradientDescent/update_incept_v3_d0/conv71/conv2d/kernel/ApplyGradientDescent"
  input: "^GradientDescent/update_incept_v3_d0/conv72/batchnorm72/beta/ApplyGradientDescent"
  input: "^GradientDescent/update_incept_v3_d0/conv72/conv2d/kernel/ApplyGradientDescent"
  input: "^GradientDescent/update_incept_v3_d0/conv73/batchnorm73/beta/ApplyGradientDescent"
  input: "^GradientDescent/update_incept_v3_d0/conv73/conv2d/kernel/ApplyGradientDescent"
  input: "^GradientDescent/update_incept_v3_d0/conv74/batchnorm74/beta/ApplyGradientDescent"
  input: "^GradientDescent/update_incept_v3_d0/conv74/conv2d/kernel/ApplyGradientDescent"
  input: "^GradientDescent/update_incept_v3_d0/conv75/batchnorm75/beta/ApplyGradientDescent"
  input: "^GradientDescent/update_incept_v3_d0/conv75/conv2d/kernel/ApplyGradientDescent"
  input: "^GradientDescent/update_incept_v3_e0/conv76/batchnorm76/beta/ApplyGradientDescent"
  input: "^GradientDescent/update_incept_v3_e0/conv76/conv2d/kernel/ApplyGradientDescent"
  input: "^GradientDescent/update_incept_v3_e0/conv77/batchnorm77/beta/ApplyGradientDescent"
  input: "^GradientDescent/update_incept_v3_e0/conv77/conv2d/kernel/ApplyGradientDescent"
  input: "^GradientDescent/update_incept_v3_e0/conv78/batchnorm78/beta/ApplyGradientDescent"
  input: "^GradientDescent/update_incept_v3_e0/conv78/conv2d/kernel/ApplyGradientDescent"
  input: "^GradientDescent/update_incept_v3_e0/conv79/batchnorm79/beta/ApplyGradientDescent"
  input: "^GradientDescent/update_incept_v3_e0/conv79/conv2d/kernel/ApplyGradientDescent"
  input: "^GradientDescent/update_incept_v3_e0/conv80/batchnorm80/beta/ApplyGradientDescent"
  input: "^GradientDescent/update_incept_v3_e0/conv80/conv2d/kernel/ApplyGradientDescent"
  input: "^GradientDescent/update_incept_v3_e0/conv81/batchnorm81/beta/ApplyGradientDescent"
  input: "^GradientDescent/update_incept_v3_e0/conv81/conv2d/kernel/ApplyGradientDescent"
  input: "^GradientDescent/update_incept_v3_e0/conv82/batchnorm82/beta/ApplyGradientDescent"
  input: "^GradientDescent/update_incept_v3_e0/conv82/conv2d/kernel/ApplyGradientDescent"
  input: "^GradientDescent/update_incept_v3_e0/conv83/batchnorm83/beta/ApplyGradientDescent"
  input: "^GradientDescent/update_incept_v3_e0/conv83/conv2d/kernel/ApplyGradientDescent"
  input: "^GradientDescent/update_incept_v3_e0/conv84/batchnorm84/beta/ApplyGradientDescent"
  input: "^GradientDescent/update_incept_v3_e0/conv84/conv2d/kernel/ApplyGradientDescent"
  input: "^GradientDescent/update_incept_v3_e0/conv85/batchnorm85/beta/ApplyGradientDescent"
  input: "^GradientDescent/update_incept_v3_e0/conv85/conv2d/kernel/ApplyGradientDescent"
  input: "^GradientDescent/update_incept_v3_e0/conv86/batchnorm86/beta/ApplyGradientDescent"
  input: "^GradientDescent/update_incept_v3_e0/conv86/conv2d/kernel/ApplyGradientDescent"
  input: "^GradientDescent/update_incept_v3_e0/conv87/batchnorm87/beta/ApplyGradientDescent"
  input: "^GradientDescent/update_incept_v3_e0/conv87/conv2d/kernel/ApplyGradientDescent"
  input: "^GradientDescent/update_incept_v3_e0/conv88/batchnorm88/beta/ApplyGradientDescent"
  input: "^GradientDescent/update_incept_v3_e0/conv88/conv2d/kernel/ApplyGradientDescent"
  input: "^GradientDescent/update_incept_v3_e0/conv89/batchnorm89/beta/ApplyGradientDescent"
  input: "^GradientDescent/update_incept_v3_e0/conv89/conv2d/kernel/ApplyGradientDescent"
  input: "^GradientDescent/update_incept_v3_e0/conv90/batchnorm90/beta/ApplyGradientDescent"
  input: "^GradientDescent/update_incept_v3_e0/conv90/conv2d/kernel/ApplyGradientDescent"
  input: "^GradientDescent/update_incept_v3_e0/conv91/batchnorm91/beta/ApplyGradientDescent"
  input: "^GradientDescent/update_incept_v3_e0/conv91/conv2d/kernel/ApplyGradientDescent"
  input: "^GradientDescent/update_incept_v3_e0/conv92/batchnorm92/beta/ApplyGradientDescent"
  input: "^GradientDescent/update_incept_v3_e0/conv92/conv2d/kernel/ApplyGradientDescent"
  input: "^GradientDescent/update_incept_v3_e0/conv93/batchnorm93/beta/ApplyGradientDescent"
  input: "^GradientDescent/update_incept_v3_e0/conv93/conv2d/kernel/ApplyGradientDescent"
  device: "/job:localhost/replica:0/task:0/device:GPU:0"
  experimental_debug_info {
    original_node_names: "GradientDescent"
  }
}
versions {
  producer: 134
}
