node {
  name: "labels_cast"
  op: "Const"
  device: "/job:localhost/replica:0/task:0/device:GPU:0"
  attr {
    key: "_output_shapes"
    value {
      list {
        shape {
          dim {
            size: 64
          }
        }
      }
    }
  }
  attr {
    key: "dtype"
    value {
      type: DT_INT64
    }
  }
  attr {
    key: "value"
    value {
      tensor {
        dtype: DT_INT64
        tensor_shape {
          dim {
            size: 64
          }
        }
        int64_val: 0
      }
    }
  }
  experimental_debug_info {
    original_node_names: "labels_cast"
  }
}
node {
  name: "conv0/conv2d/kernel"
  op: "VariableV2"
  device: "/job:localhost/replica:0/task:0/device:GPU:0"
  attr {
    key: "_class"
    value {
      list {
        s: "loc:@GradientDescent/update_conv0/conv2d/kernel/ApplyGradientDescent"
      }
    }
  }
  attr {
    key: "_output_shapes"
    value {
      list {
        shape {
          dim {
            size: 3
          }
          dim {
            size: 3
          }
          dim {
            size: 3
          }
          dim {
            size: 64
          }
        }
      }
    }
  }
  attr {
    key: "container"
    value {
      s: ""
    }
  }
  attr {
    key: "dtype"
    value {
      type: DT_FLOAT
    }
  }
  attr {
    key: "shape"
    value {
      shape {
        dim {
          size: 3
        }
        dim {
          size: 3
        }
        dim {
          size: 3
        }
        dim {
          size: 64
        }
      }
    }
  }
  attr {
    key: "shared_name"
    value {
      s: ""
    }
  }
  experimental_debug_info {
    original_node_names: "conv0/conv2d/kernel"
  }
}
node {
  name: "conv0/biases"
  op: "VariableV2"
  device: "/job:localhost/replica:0/task:0/device:GPU:0"
  attr {
    key: "_class"
    value {
      list {
        s: "loc:@GradientDescent/update_conv0/biases/ApplyGradientDescent"
      }
    }
  }
  attr {
    key: "_output_shapes"
    value {
      list {
        shape {
          dim {
            size: 64
          }
        }
      }
    }
  }
  attr {
    key: "container"
    value {
      s: ""
    }
  }
  attr {
    key: "dtype"
    value {
      type: DT_FLOAT
    }
  }
  attr {
    key: "shape"
    value {
      shape {
        dim {
          size: 64
        }
      }
    }
  }
  attr {
    key: "shared_name"
    value {
      s: ""
    }
  }
  experimental_debug_info {
    original_node_names: "conv0/biases"
  }
}
node {
  name: "conv1/conv2d/kernel"
  op: "VariableV2"
  device: "/job:localhost/replica:0/task:0/device:GPU:0"
  attr {
    key: "_class"
    value {
      list {
        s: "loc:@GradientDescent/update_conv1/conv2d/kernel/ApplyGradientDescent"
      }
    }
  }
  attr {
    key: "_output_shapes"
    value {
      list {
        shape {
          dim {
            size: 3
          }
          dim {
            size: 3
          }
          dim {
            size: 64
          }
          dim {
            size: 64
          }
        }
      }
    }
  }
  attr {
    key: "container"
    value {
      s: ""
    }
  }
  attr {
    key: "dtype"
    value {
      type: DT_FLOAT
    }
  }
  attr {
    key: "shape"
    value {
      shape {
        dim {
          size: 3
        }
        dim {
          size: 3
        }
        dim {
          size: 64
        }
        dim {
          size: 64
        }
      }
    }
  }
  attr {
    key: "shared_name"
    value {
      s: ""
    }
  }
  experimental_debug_info {
    original_node_names: "conv1/conv2d/kernel"
  }
}
node {
  name: "conv1/biases"
  op: "VariableV2"
  device: "/job:localhost/replica:0/task:0/device:GPU:0"
  attr {
    key: "_class"
    value {
      list {
        s: "loc:@GradientDescent/update_conv1/biases/ApplyGradientDescent"
      }
    }
  }
  attr {
    key: "_output_shapes"
    value {
      list {
        shape {
          dim {
            size: 64
          }
        }
      }
    }
  }
  attr {
    key: "container"
    value {
      s: ""
    }
  }
  attr {
    key: "dtype"
    value {
      type: DT_FLOAT
    }
  }
  attr {
    key: "shape"
    value {
      shape {
        dim {
          size: 64
        }
      }
    }
  }
  attr {
    key: "shared_name"
    value {
      s: ""
    }
  }
  experimental_debug_info {
    original_node_names: "conv1/biases"
  }
}
node {
  name: "conv2/conv2d/kernel"
  op: "VariableV2"
  device: "/job:localhost/replica:0/task:0/device:GPU:0"
  attr {
    key: "_class"
    value {
      list {
        s: "loc:@GradientDescent/update_conv2/conv2d/kernel/ApplyGradientDescent"
      }
    }
  }
  attr {
    key: "_output_shapes"
    value {
      list {
        shape {
          dim {
            size: 3
          }
          dim {
            size: 3
          }
          dim {
            size: 64
          }
          dim {
            size: 128
          }
        }
      }
    }
  }
  attr {
    key: "container"
    value {
      s: ""
    }
  }
  attr {
    key: "dtype"
    value {
      type: DT_FLOAT
    }
  }
  attr {
    key: "shape"
    value {
      shape {
        dim {
          size: 3
        }
        dim {
          size: 3
        }
        dim {
          size: 64
        }
        dim {
          size: 128
        }
      }
    }
  }
  attr {
    key: "shared_name"
    value {
      s: ""
    }
  }
  experimental_debug_info {
    original_node_names: "conv2/conv2d/kernel"
  }
}
node {
  name: "conv2/biases"
  op: "VariableV2"
  device: "/job:localhost/replica:0/task:0/device:GPU:0"
  attr {
    key: "_class"
    value {
      list {
        s: "loc:@GradientDescent/update_conv2/biases/ApplyGradientDescent"
      }
    }
  }
  attr {
    key: "_output_shapes"
    value {
      list {
        shape {
          dim {
            size: 128
          }
        }
      }
    }
  }
  attr {
    key: "container"
    value {
      s: ""
    }
  }
  attr {
    key: "dtype"
    value {
      type: DT_FLOAT
    }
  }
  attr {
    key: "shape"
    value {
      shape {
        dim {
          size: 128
        }
      }
    }
  }
  attr {
    key: "shared_name"
    value {
      s: ""
    }
  }
  experimental_debug_info {
    original_node_names: "conv2/biases"
  }
}
node {
  name: "conv3/conv2d/kernel"
  op: "VariableV2"
  device: "/job:localhost/replica:0/task:0/device:GPU:0"
  attr {
    key: "_class"
    value {
      list {
        s: "loc:@GradientDescent/update_conv3/conv2d/kernel/ApplyGradientDescent"
      }
    }
  }
  attr {
    key: "_output_shapes"
    value {
      list {
        shape {
          dim {
            size: 3
          }
          dim {
            size: 3
          }
          dim {
            size: 128
          }
          dim {
            size: 128
          }
        }
      }
    }
  }
  attr {
    key: "container"
    value {
      s: ""
    }
  }
  attr {
    key: "dtype"
    value {
      type: DT_FLOAT
    }
  }
  attr {
    key: "shape"
    value {
      shape {
        dim {
          size: 3
        }
        dim {
          size: 3
        }
        dim {
          size: 128
        }
        dim {
          size: 128
        }
      }
    }
  }
  attr {
    key: "shared_name"
    value {
      s: ""
    }
  }
  experimental_debug_info {
    original_node_names: "conv3/conv2d/kernel"
  }
}
node {
  name: "conv3/biases"
  op: "VariableV2"
  device: "/job:localhost/replica:0/task:0/device:GPU:0"
  attr {
    key: "_class"
    value {
      list {
        s: "loc:@GradientDescent/update_conv3/biases/ApplyGradientDescent"
      }
    }
  }
  attr {
    key: "_output_shapes"
    value {
      list {
        shape {
          dim {
            size: 128
          }
        }
      }
    }
  }
  attr {
    key: "container"
    value {
      s: ""
    }
  }
  attr {
    key: "dtype"
    value {
      type: DT_FLOAT
    }
  }
  attr {
    key: "shape"
    value {
      shape {
        dim {
          size: 128
        }
      }
    }
  }
  attr {
    key: "shared_name"
    value {
      s: ""
    }
  }
  experimental_debug_info {
    original_node_names: "conv3/biases"
  }
}
node {
  name: "conv4/conv2d/kernel"
  op: "VariableV2"
  device: "/job:localhost/replica:0/task:0/device:GPU:0"
  attr {
    key: "_class"
    value {
      list {
        s: "loc:@GradientDescent/update_conv4/conv2d/kernel/ApplyGradientDescent"
      }
    }
  }
  attr {
    key: "_output_shapes"
    value {
      list {
        shape {
          dim {
            size: 3
          }
          dim {
            size: 3
          }
          dim {
            size: 128
          }
          dim {
            size: 256
          }
        }
      }
    }
  }
  attr {
    key: "container"
    value {
      s: ""
    }
  }
  attr {
    key: "dtype"
    value {
      type: DT_FLOAT
    }
  }
  attr {
    key: "shape"
    value {
      shape {
        dim {
          size: 3
        }
        dim {
          size: 3
        }
        dim {
          size: 128
        }
        dim {
          size: 256
        }
      }
    }
  }
  attr {
    key: "shared_name"
    value {
      s: ""
    }
  }
  experimental_debug_info {
    original_node_names: "conv4/conv2d/kernel"
  }
}
node {
  name: "conv4/biases"
  op: "VariableV2"
  device: "/job:localhost/replica:0/task:0/device:GPU:0"
  attr {
    key: "_class"
    value {
      list {
        s: "loc:@GradientDescent/update_conv4/biases/ApplyGradientDescent"
      }
    }
  }
  attr {
    key: "_output_shapes"
    value {
      list {
        shape {
          dim {
            size: 256
          }
        }
      }
    }
  }
  attr {
    key: "container"
    value {
      s: ""
    }
  }
  attr {
    key: "dtype"
    value {
      type: DT_FLOAT
    }
  }
  attr {
    key: "shape"
    value {
      shape {
        dim {
          size: 256
        }
      }
    }
  }
  attr {
    key: "shared_name"
    value {
      s: ""
    }
  }
  experimental_debug_info {
    original_node_names: "conv4/biases"
  }
}
node {
  name: "conv5/conv2d/kernel"
  op: "VariableV2"
  device: "/job:localhost/replica:0/task:0/device:GPU:0"
  attr {
    key: "_class"
    value {
      list {
        s: "loc:@GradientDescent/update_conv5/conv2d/kernel/ApplyGradientDescent"
      }
    }
  }
  attr {
    key: "_output_shapes"
    value {
      list {
        shape {
          dim {
            size: 3
          }
          dim {
            size: 3
          }
          dim {
            size: 256
          }
          dim {
            size: 256
          }
        }
      }
    }
  }
  attr {
    key: "container"
    value {
      s: ""
    }
  }
  attr {
    key: "dtype"
    value {
      type: DT_FLOAT
    }
  }
  attr {
    key: "shape"
    value {
      shape {
        dim {
          size: 3
        }
        dim {
          size: 3
        }
        dim {
          size: 256
        }
        dim {
          size: 256
        }
      }
    }
  }
  attr {
    key: "shared_name"
    value {
      s: ""
    }
  }
  experimental_debug_info {
    original_node_names: "conv5/conv2d/kernel"
  }
}
node {
  name: "conv5/biases"
  op: "VariableV2"
  device: "/job:localhost/replica:0/task:0/device:GPU:0"
  attr {
    key: "_class"
    value {
      list {
        s: "loc:@GradientDescent/update_conv5/biases/ApplyGradientDescent"
      }
    }
  }
  attr {
    key: "_output_shapes"
    value {
      list {
        shape {
          dim {
            size: 256
          }
        }
      }
    }
  }
  attr {
    key: "container"
    value {
      s: ""
    }
  }
  attr {
    key: "dtype"
    value {
      type: DT_FLOAT
    }
  }
  attr {
    key: "shape"
    value {
      shape {
        dim {
          size: 256
        }
      }
    }
  }
  attr {
    key: "shared_name"
    value {
      s: ""
    }
  }
  experimental_debug_info {
    original_node_names: "conv5/biases"
  }
}
node {
  name: "conv6/conv2d/kernel"
  op: "VariableV2"
  device: "/job:localhost/replica:0/task:0/device:GPU:0"
  attr {
    key: "_class"
    value {
      list {
        s: "loc:@GradientDescent/update_conv6/conv2d/kernel/ApplyGradientDescent"
      }
    }
  }
  attr {
    key: "_output_shapes"
    value {
      list {
        shape {
          dim {
            size: 3
          }
          dim {
            size: 3
          }
          dim {
            size: 256
          }
          dim {
            size: 256
          }
        }
      }
    }
  }
  attr {
    key: "container"
    value {
      s: ""
    }
  }
  attr {
    key: "dtype"
    value {
      type: DT_FLOAT
    }
  }
  attr {
    key: "shape"
    value {
      shape {
        dim {
          size: 3
        }
        dim {
          size: 3
        }
        dim {
          size: 256
        }
        dim {
          size: 256
        }
      }
    }
  }
  attr {
    key: "shared_name"
    value {
      s: ""
    }
  }
  experimental_debug_info {
    original_node_names: "conv6/conv2d/kernel"
  }
}
node {
  name: "conv6/biases"
  op: "VariableV2"
  device: "/job:localhost/replica:0/task:0/device:GPU:0"
  attr {
    key: "_class"
    value {
      list {
        s: "loc:@GradientDescent/update_conv6/biases/ApplyGradientDescent"
      }
    }
  }
  attr {
    key: "_output_shapes"
    value {
      list {
        shape {
          dim {
            size: 256
          }
        }
      }
    }
  }
  attr {
    key: "container"
    value {
      s: ""
    }
  }
  attr {
    key: "dtype"
    value {
      type: DT_FLOAT
    }
  }
  attr {
    key: "shape"
    value {
      shape {
        dim {
          size: 256
        }
      }
    }
  }
  attr {
    key: "shared_name"
    value {
      s: ""
    }
  }
  experimental_debug_info {
    original_node_names: "conv6/biases"
  }
}
node {
  name: "conv7/conv2d/kernel"
  op: "VariableV2"
  device: "/job:localhost/replica:0/task:0/device:GPU:0"
  attr {
    key: "_class"
    value {
      list {
        s: "loc:@GradientDescent/update_conv7/conv2d/kernel/ApplyGradientDescent"
      }
    }
  }
  attr {
    key: "_output_shapes"
    value {
      list {
        shape {
          dim {
            size: 3
          }
          dim {
            size: 3
          }
          dim {
            size: 256
          }
          dim {
            size: 512
          }
        }
      }
    }
  }
  attr {
    key: "container"
    value {
      s: ""
    }
  }
  attr {
    key: "dtype"
    value {
      type: DT_FLOAT
    }
  }
  attr {
    key: "shape"
    value {
      shape {
        dim {
          size: 3
        }
        dim {
          size: 3
        }
        dim {
          size: 256
        }
        dim {
          size: 512
        }
      }
    }
  }
  attr {
    key: "shared_name"
    value {
      s: ""
    }
  }
  experimental_debug_info {
    original_node_names: "conv7/conv2d/kernel"
  }
}
node {
  name: "conv7/biases"
  op: "VariableV2"
  device: "/job:localhost/replica:0/task:0/device:GPU:0"
  attr {
    key: "_class"
    value {
      list {
        s: "loc:@GradientDescent/update_conv7/biases/ApplyGradientDescent"
      }
    }
  }
  attr {
    key: "_output_shapes"
    value {
      list {
        shape {
          dim {
            size: 512
          }
        }
      }
    }
  }
  attr {
    key: "container"
    value {
      s: ""
    }
  }
  attr {
    key: "dtype"
    value {
      type: DT_FLOAT
    }
  }
  attr {
    key: "shape"
    value {
      shape {
        dim {
          size: 512
        }
      }
    }
  }
  attr {
    key: "shared_name"
    value {
      s: ""
    }
  }
  experimental_debug_info {
    original_node_names: "conv7/biases"
  }
}
node {
  name: "conv8/conv2d/kernel"
  op: "VariableV2"
  device: "/job:localhost/replica:0/task:0/device:GPU:0"
  attr {
    key: "_class"
    value {
      list {
        s: "loc:@GradientDescent/update_conv8/conv2d/kernel/ApplyGradientDescent"
      }
    }
  }
  attr {
    key: "_output_shapes"
    value {
      list {
        shape {
          dim {
            size: 3
          }
          dim {
            size: 3
          }
          dim {
            size: 512
          }
          dim {
            size: 512
          }
        }
      }
    }
  }
  attr {
    key: "container"
    value {
      s: ""
    }
  }
  attr {
    key: "dtype"
    value {
      type: DT_FLOAT
    }
  }
  attr {
    key: "shape"
    value {
      shape {
        dim {
          size: 3
        }
        dim {
          size: 3
        }
        dim {
          size: 512
        }
        dim {
          size: 512
        }
      }
    }
  }
  attr {
    key: "shared_name"
    value {
      s: ""
    }
  }
  experimental_debug_info {
    original_node_names: "conv8/conv2d/kernel"
  }
}
node {
  name: "conv8/biases"
  op: "VariableV2"
  device: "/job:localhost/replica:0/task:0/device:GPU:0"
  attr {
    key: "_class"
    value {
      list {
        s: "loc:@GradientDescent/update_conv8/biases/ApplyGradientDescent"
      }
    }
  }
  attr {
    key: "_output_shapes"
    value {
      list {
        shape {
          dim {
            size: 512
          }
        }
      }
    }
  }
  attr {
    key: "container"
    value {
      s: ""
    }
  }
  attr {
    key: "dtype"
    value {
      type: DT_FLOAT
    }
  }
  attr {
    key: "shape"
    value {
      shape {
        dim {
          size: 512
        }
      }
    }
  }
  attr {
    key: "shared_name"
    value {
      s: ""
    }
  }
  experimental_debug_info {
    original_node_names: "conv8/biases"
  }
}
node {
  name: "conv9/conv2d/kernel"
  op: "VariableV2"
  device: "/job:localhost/replica:0/task:0/device:GPU:0"
  attr {
    key: "_class"
    value {
      list {
        s: "loc:@GradientDescent/update_conv9/conv2d/kernel/ApplyGradientDescent"
      }
    }
  }
  attr {
    key: "_output_shapes"
    value {
      list {
        shape {
          dim {
            size: 3
          }
          dim {
            size: 3
          }
          dim {
            size: 512
          }
          dim {
            size: 512
          }
        }
      }
    }
  }
  attr {
    key: "container"
    value {
      s: ""
    }
  }
  attr {
    key: "dtype"
    value {
      type: DT_FLOAT
    }
  }
  attr {
    key: "shape"
    value {
      shape {
        dim {
          size: 3
        }
        dim {
          size: 3
        }
        dim {
          size: 512
        }
        dim {
          size: 512
        }
      }
    }
  }
  attr {
    key: "shared_name"
    value {
      s: ""
    }
  }
  experimental_debug_info {
    original_node_names: "conv9/conv2d/kernel"
  }
}
node {
  name: "conv9/biases"
  op: "VariableV2"
  device: "/job:localhost/replica:0/task:0/device:GPU:0"
  attr {
    key: "_class"
    value {
      list {
        s: "loc:@GradientDescent/update_conv9/biases/ApplyGradientDescent"
      }
    }
  }
  attr {
    key: "_output_shapes"
    value {
      list {
        shape {
          dim {
            size: 512
          }
        }
      }
    }
  }
  attr {
    key: "container"
    value {
      s: ""
    }
  }
  attr {
    key: "dtype"
    value {
      type: DT_FLOAT
    }
  }
  attr {
    key: "shape"
    value {
      shape {
        dim {
          size: 512
        }
      }
    }
  }
  attr {
    key: "shared_name"
    value {
      s: ""
    }
  }
  experimental_debug_info {
    original_node_names: "conv9/biases"
  }
}
node {
  name: "conv10/conv2d/kernel"
  op: "VariableV2"
  device: "/job:localhost/replica:0/task:0/device:GPU:0"
  attr {
    key: "_class"
    value {
      list {
        s: "loc:@GradientDescent/update_conv10/conv2d/kernel/ApplyGradientDescent"
      }
    }
  }
  attr {
    key: "_output_shapes"
    value {
      list {
        shape {
          dim {
            size: 3
          }
          dim {
            size: 3
          }
          dim {
            size: 512
          }
          dim {
            size: 512
          }
        }
      }
    }
  }
  attr {
    key: "container"
    value {
      s: ""
    }
  }
  attr {
    key: "dtype"
    value {
      type: DT_FLOAT
    }
  }
  attr {
    key: "shape"
    value {
      shape {
        dim {
          size: 3
        }
        dim {
          size: 3
        }
        dim {
          size: 512
        }
        dim {
          size: 512
        }
      }
    }
  }
  attr {
    key: "shared_name"
    value {
      s: ""
    }
  }
  experimental_debug_info {
    original_node_names: "conv10/conv2d/kernel"
  }
}
node {
  name: "conv10/biases"
  op: "VariableV2"
  device: "/job:localhost/replica:0/task:0/device:GPU:0"
  attr {
    key: "_class"
    value {
      list {
        s: "loc:@GradientDescent/update_conv10/biases/ApplyGradientDescent"
      }
    }
  }
  attr {
    key: "_output_shapes"
    value {
      list {
        shape {
          dim {
            size: 512
          }
        }
      }
    }
  }
  attr {
    key: "container"
    value {
      s: ""
    }
  }
  attr {
    key: "dtype"
    value {
      type: DT_FLOAT
    }
  }
  attr {
    key: "shape"
    value {
      shape {
        dim {
          size: 512
        }
      }
    }
  }
  attr {
    key: "shared_name"
    value {
      s: ""
    }
  }
  experimental_debug_info {
    original_node_names: "conv10/biases"
  }
}
node {
  name: "conv11/conv2d/kernel"
  op: "VariableV2"
  device: "/job:localhost/replica:0/task:0/device:GPU:0"
  attr {
    key: "_class"
    value {
      list {
        s: "loc:@GradientDescent/update_conv11/conv2d/kernel/ApplyGradientDescent"
      }
    }
  }
  attr {
    key: "_output_shapes"
    value {
      list {
        shape {
          dim {
            size: 3
          }
          dim {
            size: 3
          }
          dim {
            size: 512
          }
          dim {
            size: 512
          }
        }
      }
    }
  }
  attr {
    key: "container"
    value {
      s: ""
    }
  }
  attr {
    key: "dtype"
    value {
      type: DT_FLOAT
    }
  }
  attr {
    key: "shape"
    value {
      shape {
        dim {
          size: 3
        }
        dim {
          size: 3
        }
        dim {
          size: 512
        }
        dim {
          size: 512
        }
      }
    }
  }
  attr {
    key: "shared_name"
    value {
      s: ""
    }
  }
  experimental_debug_info {
    original_node_names: "conv11/conv2d/kernel"
  }
}
node {
  name: "conv11/biases"
  op: "VariableV2"
  device: "/job:localhost/replica:0/task:0/device:GPU:0"
  attr {
    key: "_class"
    value {
      list {
        s: "loc:@GradientDescent/update_conv11/biases/ApplyGradientDescent"
      }
    }
  }
  attr {
    key: "_output_shapes"
    value {
      list {
        shape {
          dim {
            size: 512
          }
        }
      }
    }
  }
  attr {
    key: "container"
    value {
      s: ""
    }
  }
  attr {
    key: "dtype"
    value {
      type: DT_FLOAT
    }
  }
  attr {
    key: "shape"
    value {
      shape {
        dim {
          size: 512
        }
      }
    }
  }
  attr {
    key: "shared_name"
    value {
      s: ""
    }
  }
  experimental_debug_info {
    original_node_names: "conv11/biases"
  }
}
node {
  name: "conv12/conv2d/kernel"
  op: "VariableV2"
  device: "/job:localhost/replica:0/task:0/device:GPU:0"
  attr {
    key: "_class"
    value {
      list {
        s: "loc:@GradientDescent/update_conv12/conv2d/kernel/ApplyGradientDescent"
      }
    }
  }
  attr {
    key: "_output_shapes"
    value {
      list {
        shape {
          dim {
            size: 3
          }
          dim {
            size: 3
          }
          dim {
            size: 512
          }
          dim {
            size: 512
          }
        }
      }
    }
  }
  attr {
    key: "container"
    value {
      s: ""
    }
  }
  attr {
    key: "dtype"
    value {
      type: DT_FLOAT
    }
  }
  attr {
    key: "shape"
    value {
      shape {
        dim {
          size: 3
        }
        dim {
          size: 3
        }
        dim {
          size: 512
        }
        dim {
          size: 512
        }
      }
    }
  }
  attr {
    key: "shared_name"
    value {
      s: ""
    }
  }
  experimental_debug_info {
    original_node_names: "conv12/conv2d/kernel"
  }
}
node {
  name: "GradientDescent/learning_rate"
  op: "Const"
  device: "/job:localhost/replica:0/task:0/device:GPU:0"
  attr {
    key: "_output_shapes"
    value {
      list {
        shape {
        }
      }
    }
  }
  attr {
    key: "dtype"
    value {
      type: DT_FLOAT
    }
  }
  attr {
    key: "value"
    value {
      tensor {
        dtype: DT_FLOAT
        tensor_shape {
        }
        float_val: 0.12345600128173828
      }
    }
  }
  experimental_debug_info {
    original_node_names: "GradientDescent/learning_rate"
  }
}
node {
  name: "conv12/biases"
  op: "VariableV2"
  device: "/job:localhost/replica:0/task:0/device:GPU:0"
  attr {
    key: "_class"
    value {
      list {
        s: "loc:@GradientDescent/update_conv12/biases/ApplyGradientDescent"
      }
    }
  }
  attr {
    key: "_output_shapes"
    value {
      list {
        shape {
          dim {
            size: 512
          }
        }
      }
    }
  }
  attr {
    key: "container"
    value {
      s: ""
    }
  }
  attr {
    key: "dtype"
    value {
      type: DT_FLOAT
    }
  }
  attr {
    key: "shape"
    value {
      shape {
        dim {
          size: 512
        }
      }
    }
  }
  attr {
    key: "shared_name"
    value {
      s: ""
    }
  }
  experimental_debug_info {
    original_node_names: "conv12/biases"
  }
}
node {
  name: "Reshape/shape"
  op: "Const"
  device: "/job:localhost/replica:0/task:0/device:GPU:0"
  attr {
    key: "_output_shapes"
    value {
      list {
        shape {
          dim {
            size: 2
          }
        }
      }
    }
  }
  attr {
    key: "dtype"
    value {
      type: DT_INT32
    }
  }
  attr {
    key: "value"
    value {
      tensor {
        dtype: DT_INT32
        tensor_shape {
          dim {
            size: 2
          }
        }
        tensor_content: "\377\377\377\377\000b\000\000"
      }
    }
  }
  experimental_debug_info {
    original_node_names: "Reshape/shape"
  }
}
node {
  name: "affine0/weights"
  op: "VariableV2"
  device: "/job:localhost/replica:0/task:0/device:GPU:0"
  attr {
    key: "_class"
    value {
      list {
        s: "loc:@GradientDescent/update_affine0/weights/ApplyGradientDescent"
      }
    }
  }
  attr {
    key: "_output_shapes"
    value {
      list {
        shape {
          dim {
            size: 25088
          }
          dim {
            size: 4096
          }
        }
      }
    }
  }
  attr {
    key: "container"
    value {
      s: ""
    }
  }
  attr {
    key: "dtype"
    value {
      type: DT_FLOAT
    }
  }
  attr {
    key: "shape"
    value {
      shape {
        dim {
          size: 25088
        }
        dim {
          size: 4096
        }
      }
    }
  }
  attr {
    key: "shared_name"
    value {
      s: ""
    }
  }
  experimental_debug_info {
    original_node_names: "affine0/weights"
  }
}
node {
  name: "affine0/biases"
  op: "VariableV2"
  device: "/job:localhost/replica:0/task:0/device:GPU:0"
  attr {
    key: "_class"
    value {
      list {
        s: "loc:@GradientDescent/update_affine0/biases/ApplyGradientDescent"
      }
    }
  }
  attr {
    key: "_output_shapes"
    value {
      list {
        shape {
          dim {
            size: 4096
          }
        }
      }
    }
  }
  attr {
    key: "container"
    value {
      s: ""
    }
  }
  attr {
    key: "dtype"
    value {
      type: DT_FLOAT
    }
  }
  attr {
    key: "shape"
    value {
      shape {
        dim {
          size: 4096
        }
      }
    }
  }
  attr {
    key: "shared_name"
    value {
      s: ""
    }
  }
  experimental_debug_info {
    original_node_names: "affine0/biases"
  }
}
node {
  name: "affine1/weights"
  op: "VariableV2"
  device: "/job:localhost/replica:0/task:0/device:GPU:0"
  attr {
    key: "_class"
    value {
      list {
        s: "loc:@GradientDescent/update_affine1/weights/ApplyGradientDescent"
      }
    }
  }
  attr {
    key: "_output_shapes"
    value {
      list {
        shape {
          dim {
            size: 4096
          }
          dim {
            size: 4096
          }
        }
      }
    }
  }
  attr {
    key: "container"
    value {
      s: ""
    }
  }
  attr {
    key: "dtype"
    value {
      type: DT_FLOAT
    }
  }
  attr {
    key: "shape"
    value {
      shape {
        dim {
          size: 4096
        }
        dim {
          size: 4096
        }
      }
    }
  }
  attr {
    key: "shared_name"
    value {
      s: ""
    }
  }
  experimental_debug_info {
    original_node_names: "affine1/weights"
  }
}
node {
  name: "affine1/biases"
  op: "VariableV2"
  device: "/job:localhost/replica:0/task:0/device:GPU:0"
  attr {
    key: "_class"
    value {
      list {
        s: "loc:@GradientDescent/update_affine1/biases/ApplyGradientDescent"
      }
    }
  }
  attr {
    key: "_output_shapes"
    value {
      list {
        shape {
          dim {
            size: 4096
          }
        }
      }
    }
  }
  attr {
    key: "container"
    value {
      s: ""
    }
  }
  attr {
    key: "dtype"
    value {
      type: DT_FLOAT
    }
  }
  attr {
    key: "shape"
    value {
      shape {
        dim {
          size: 4096
        }
      }
    }
  }
  attr {
    key: "shared_name"
    value {
      s: ""
    }
  }
  experimental_debug_info {
    original_node_names: "affine1/biases"
  }
}
node {
  name: "affine2/weights"
  op: "VariableV2"
  device: "/job:localhost/replica:0/task:0/device:GPU:0"
  attr {
    key: "_class"
    value {
      list {
        s: "loc:@GradientDescent/update_affine2/weights/ApplyGradientDescent"
      }
    }
  }
  attr {
    key: "_output_shapes"
    value {
      list {
        shape {
          dim {
            size: 4096
          }
          dim {
            size: 1000
          }
        }
      }
    }
  }
  attr {
    key: "container"
    value {
      s: ""
    }
  }
  attr {
    key: "dtype"
    value {
      type: DT_FLOAT
    }
  }
  attr {
    key: "shape"
    value {
      shape {
        dim {
          size: 4096
        }
        dim {
          size: 1000
        }
      }
    }
  }
  attr {
    key: "shared_name"
    value {
      s: ""
    }
  }
  experimental_debug_info {
    original_node_names: "affine2/weights"
  }
}
node {
  name: "affine2/biases"
  op: "VariableV2"
  device: "/job:localhost/replica:0/task:0/device:GPU:0"
  attr {
    key: "_class"
    value {
      list {
        s: "loc:@GradientDescent/update_affine2/biases/ApplyGradientDescent"
      }
    }
  }
  attr {
    key: "_output_shapes"
    value {
      list {
        shape {
          dim {
            size: 1000
          }
        }
      }
    }
  }
  attr {
    key: "container"
    value {
      s: ""
    }
  }
  attr {
    key: "dtype"
    value {
      type: DT_FLOAT
    }
  }
  attr {
    key: "shape"
    value {
      shape {
        dim {
          size: 1000
        }
      }
    }
  }
  attr {
    key: "shared_name"
    value {
      s: ""
    }
  }
  experimental_debug_info {
    original_node_names: "affine2/biases"
  }
}
node {
  name: "gradients/Reshape_grad/Shape"
  op: "Const"
  device: "/job:localhost/replica:0/task:0/device:GPU:0"
  attr {
    key: "_output_shapes"
    value {
      list {
        shape {
          dim {
            size: 4
          }
        }
      }
    }
  }
  attr {
    key: "dtype"
    value {
      type: DT_INT32
    }
  }
  attr {
    key: "value"
    value {
      tensor {
        dtype: DT_INT32
        tensor_shape {
          dim {
            size: 4
          }
        }
        tensor_content: "@\000\000\000\007\000\000\000\007\000\000\000\000\002\000\000"
      }
    }
  }
  experimental_debug_info {
    original_node_names: "gradients/Reshape_grad/Shape"
  }
}
node {
  name: "gradients/cross_entropy_per_example/cross_entropy_per_example_grad/ExpandDims"
  op: "Const"
  device: "/job:localhost/replica:0/task:0/device:GPU:0"
  attr {
    key: "_output_shapes"
    value {
      list {
        shape {
          dim {
            size: 64
          }
          dim {
            size: 1
          }
        }
      }
    }
  }
  attr {
    key: "dtype"
    value {
      type: DT_FLOAT
    }
  }
  attr {
    key: "value"
    value {
      tensor {
        dtype: DT_FLOAT
        tensor_shape {
          dim {
            size: 64
          }
          dim {
            size: 1
          }
        }
        float_val: 0.015625
      }
    }
  }
  experimental_debug_info {
    original_node_names: "gradients/cross_entropy_per_example/cross_entropy_per_example_grad/ExpandDims"
  }
}
node {
  name: "conv0/conv2d/Conv2D-0-TransposeNHWCToNCHW-LayoutOptimizer"
  op: "Const"
  device: "/job:localhost/replica:0/task:0/device:GPU:0"
  attr {
    key: "_output_shapes"
    value {
      list {
        shape {
          dim {
            size: 64
          }
          dim {
            size: 3
          }
          dim {
            size: 224
          }
          dim {
            size: 224
          }
        }
      }
    }
  }
  attr {
    key: "dtype"
    value {
      type: DT_FLOAT
    }
  }
  attr {
    key: "value"
    value {
      tensor {
        dtype: DT_FLOAT
        tensor_shape {
          dim {
            size: 64
          }
          dim {
            size: 3
          }
          dim {
            size: 224
          }
          dim {
            size: 224
          }
        }
        float_val: 1.0
      }
    }
  }
  experimental_debug_info {
    original_node_names: "conv0/conv2d/Conv2D-0-TransposeNHWCToNCHW-LayoutOptimizer"
  }
}
node {
  name: "gradients/mpool4/MaxPool_grad/MaxPoolGrad-2-PermConstNHWCToNCHW-LayoutOptimizer"
  op: "Const"
  device: "/job:localhost/replica:0/task:0/device:GPU:0"
  attr {
    key: "_output_shapes"
    value {
      list {
        shape {
          dim {
            size: 4
          }
        }
      }
    }
  }
  attr {
    key: "dtype"
    value {
      type: DT_INT32
    }
  }
  attr {
    key: "value"
    value {
      tensor {
        dtype: DT_INT32
        tensor_shape {
          dim {
            size: 4
          }
        }
        tensor_content: "\000\000\000\000\003\000\000\000\001\000\000\000\002\000\000\000"
      }
    }
  }
  experimental_debug_info {
    original_node_names: "gradients/mpool4/MaxPool_grad/MaxPoolGrad-2-PermConstNHWCToNCHW-LayoutOptimizer"
  }
}
node {
  name: "mpool4/MaxPool-0-0-PermConstNCHWToNHWC-LayoutOptimizer"
  op: "Const"
  device: "/job:localhost/replica:0/task:0/device:GPU:0"
  attr {
    key: "_output_shapes"
    value {
      list {
        shape {
          dim {
            size: 4
          }
        }
      }
    }
  }
  attr {
    key: "dtype"
    value {
      type: DT_INT32
    }
  }
  attr {
    key: "value"
    value {
      tensor {
        dtype: DT_INT32
        tensor_shape {
          dim {
            size: 4
          }
        }
        tensor_content: "\000\000\000\000\002\000\000\000\003\000\000\000\001\000\000\000"
      }
    }
  }
  experimental_debug_info {
    original_node_names: "mpool4/MaxPool-0-0-PermConstNCHWToNHWC-LayoutOptimizer"
  }
}
node {
  name: "conv0/conv2d/kernel/read"
  op: "Identity"
  input: "conv0/conv2d/kernel"
  device: "/job:localhost/replica:0/task:0/device:GPU:0"
  attr {
    key: "T"
    value {
      type: DT_FLOAT
    }
  }
  attr {
    key: "_class"
    value {
      list {
        s: "loc:@GradientDescent/update_conv0/conv2d/kernel/ApplyGradientDescent"
      }
    }
  }
  attr {
    key: "_output_shapes"
    value {
      list {
        shape {
          dim {
            size: 3
          }
          dim {
            size: 3
          }
          dim {
            size: 3
          }
          dim {
            size: 64
          }
        }
      }
    }
  }
  experimental_debug_info {
    original_node_names: "conv0/conv2d/kernel/read"
  }
}
node {
  name: "conv0/biases/read"
  op: "Identity"
  input: "conv0/biases"
  device: "/job:localhost/replica:0/task:0/device:GPU:0"
  attr {
    key: "T"
    value {
      type: DT_FLOAT
    }
  }
  attr {
    key: "_class"
    value {
      list {
        s: "loc:@GradientDescent/update_conv0/biases/ApplyGradientDescent"
      }
    }
  }
  attr {
    key: "_output_shapes"
    value {
      list {
        shape {
          dim {
            size: 64
          }
        }
      }
    }
  }
  experimental_debug_info {
    original_node_names: "conv0/biases/read"
  }
}
node {
  name: "conv1/conv2d/kernel/read"
  op: "Identity"
  input: "conv1/conv2d/kernel"
  device: "/job:localhost/replica:0/task:0/device:GPU:0"
  attr {
    key: "T"
    value {
      type: DT_FLOAT
    }
  }
  attr {
    key: "_class"
    value {
      list {
        s: "loc:@GradientDescent/update_conv1/conv2d/kernel/ApplyGradientDescent"
      }
    }
  }
  attr {
    key: "_output_shapes"
    value {
      list {
        shape {
          dim {
            size: 3
          }
          dim {
            size: 3
          }
          dim {
            size: 64
          }
          dim {
            size: 64
          }
        }
      }
    }
  }
  experimental_debug_info {
    original_node_names: "conv1/conv2d/kernel/read"
  }
}
node {
  name: "conv1/biases/read"
  op: "Identity"
  input: "conv1/biases"
  device: "/job:localhost/replica:0/task:0/device:GPU:0"
  attr {
    key: "T"
    value {
      type: DT_FLOAT
    }
  }
  attr {
    key: "_class"
    value {
      list {
        s: "loc:@GradientDescent/update_conv1/biases/ApplyGradientDescent"
      }
    }
  }
  attr {
    key: "_output_shapes"
    value {
      list {
        shape {
          dim {
            size: 64
          }
        }
      }
    }
  }
  experimental_debug_info {
    original_node_names: "conv1/biases/read"
  }
}
node {
  name: "conv2/conv2d/kernel/read"
  op: "Identity"
  input: "conv2/conv2d/kernel"
  device: "/job:localhost/replica:0/task:0/device:GPU:0"
  attr {
    key: "T"
    value {
      type: DT_FLOAT
    }
  }
  attr {
    key: "_class"
    value {
      list {
        s: "loc:@GradientDescent/update_conv2/conv2d/kernel/ApplyGradientDescent"
      }
    }
  }
  attr {
    key: "_output_shapes"
    value {
      list {
        shape {
          dim {
            size: 3
          }
          dim {
            size: 3
          }
          dim {
            size: 64
          }
          dim {
            size: 128
          }
        }
      }
    }
  }
  experimental_debug_info {
    original_node_names: "conv2/conv2d/kernel/read"
  }
}
node {
  name: "conv2/biases/read"
  op: "Identity"
  input: "conv2/biases"
  device: "/job:localhost/replica:0/task:0/device:GPU:0"
  attr {
    key: "T"
    value {
      type: DT_FLOAT
    }
  }
  attr {
    key: "_class"
    value {
      list {
        s: "loc:@GradientDescent/update_conv2/biases/ApplyGradientDescent"
      }
    }
  }
  attr {
    key: "_output_shapes"
    value {
      list {
        shape {
          dim {
            size: 128
          }
        }
      }
    }
  }
  experimental_debug_info {
    original_node_names: "conv2/biases/read"
  }
}
node {
  name: "conv3/conv2d/kernel/read"
  op: "Identity"
  input: "conv3/conv2d/kernel"
  device: "/job:localhost/replica:0/task:0/device:GPU:0"
  attr {
    key: "T"
    value {
      type: DT_FLOAT
    }
  }
  attr {
    key: "_class"
    value {
      list {
        s: "loc:@GradientDescent/update_conv3/conv2d/kernel/ApplyGradientDescent"
      }
    }
  }
  attr {
    key: "_output_shapes"
    value {
      list {
        shape {
          dim {
            size: 3
          }
          dim {
            size: 3
          }
          dim {
            size: 128
          }
          dim {
            size: 128
          }
        }
      }
    }
  }
  experimental_debug_info {
    original_node_names: "conv3/conv2d/kernel/read"
  }
}
node {
  name: "conv3/biases/read"
  op: "Identity"
  input: "conv3/biases"
  device: "/job:localhost/replica:0/task:0/device:GPU:0"
  attr {
    key: "T"
    value {
      type: DT_FLOAT
    }
  }
  attr {
    key: "_class"
    value {
      list {
        s: "loc:@GradientDescent/update_conv3/biases/ApplyGradientDescent"
      }
    }
  }
  attr {
    key: "_output_shapes"
    value {
      list {
        shape {
          dim {
            size: 128
          }
        }
      }
    }
  }
  experimental_debug_info {
    original_node_names: "conv3/biases/read"
  }
}
node {
  name: "conv4/conv2d/kernel/read"
  op: "Identity"
  input: "conv4/conv2d/kernel"
  device: "/job:localhost/replica:0/task:0/device:GPU:0"
  attr {
    key: "T"
    value {
      type: DT_FLOAT
    }
  }
  attr {
    key: "_class"
    value {
      list {
        s: "loc:@GradientDescent/update_conv4/conv2d/kernel/ApplyGradientDescent"
      }
    }
  }
  attr {
    key: "_output_shapes"
    value {
      list {
        shape {
          dim {
            size: 3
          }
          dim {
            size: 3
          }
          dim {
            size: 128
          }
          dim {
            size: 256
          }
        }
      }
    }
  }
  experimental_debug_info {
    original_node_names: "conv4/conv2d/kernel/read"
  }
}
node {
  name: "conv4/biases/read"
  op: "Identity"
  input: "conv4/biases"
  device: "/job:localhost/replica:0/task:0/device:GPU:0"
  attr {
    key: "T"
    value {
      type: DT_FLOAT
    }
  }
  attr {
    key: "_class"
    value {
      list {
        s: "loc:@GradientDescent/update_conv4/biases/ApplyGradientDescent"
      }
    }
  }
  attr {
    key: "_output_shapes"
    value {
      list {
        shape {
          dim {
            size: 256
          }
        }
      }
    }
  }
  experimental_debug_info {
    original_node_names: "conv4/biases/read"
  }
}
node {
  name: "conv5/conv2d/kernel/read"
  op: "Identity"
  input: "conv5/conv2d/kernel"
  device: "/job:localhost/replica:0/task:0/device:GPU:0"
  attr {
    key: "T"
    value {
      type: DT_FLOAT
    }
  }
  attr {
    key: "_class"
    value {
      list {
        s: "loc:@GradientDescent/update_conv5/conv2d/kernel/ApplyGradientDescent"
      }
    }
  }
  attr {
    key: "_output_shapes"
    value {
      list {
        shape {
          dim {
            size: 3
          }
          dim {
            size: 3
          }
          dim {
            size: 256
          }
          dim {
            size: 256
          }
        }
      }
    }
  }
  experimental_debug_info {
    original_node_names: "conv5/conv2d/kernel/read"
  }
}
node {
  name: "conv5/biases/read"
  op: "Identity"
  input: "conv5/biases"
  device: "/job:localhost/replica:0/task:0/device:GPU:0"
  attr {
    key: "T"
    value {
      type: DT_FLOAT
    }
  }
  attr {
    key: "_class"
    value {
      list {
        s: "loc:@GradientDescent/update_conv5/biases/ApplyGradientDescent"
      }
    }
  }
  attr {
    key: "_output_shapes"
    value {
      list {
        shape {
          dim {
            size: 256
          }
        }
      }
    }
  }
  experimental_debug_info {
    original_node_names: "conv5/biases/read"
  }
}
node {
  name: "conv6/conv2d/kernel/read"
  op: "Identity"
  input: "conv6/conv2d/kernel"
  device: "/job:localhost/replica:0/task:0/device:GPU:0"
  attr {
    key: "T"
    value {
      type: DT_FLOAT
    }
  }
  attr {
    key: "_class"
    value {
      list {
        s: "loc:@GradientDescent/update_conv6/conv2d/kernel/ApplyGradientDescent"
      }
    }
  }
  attr {
    key: "_output_shapes"
    value {
      list {
        shape {
          dim {
            size: 3
          }
          dim {
            size: 3
          }
          dim {
            size: 256
          }
          dim {
            size: 256
          }
        }
      }
    }
  }
  experimental_debug_info {
    original_node_names: "conv6/conv2d/kernel/read"
  }
}
node {
  name: "conv6/biases/read"
  op: "Identity"
  input: "conv6/biases"
  device: "/job:localhost/replica:0/task:0/device:GPU:0"
  attr {
    key: "T"
    value {
      type: DT_FLOAT
    }
  }
  attr {
    key: "_class"
    value {
      list {
        s: "loc:@GradientDescent/update_conv6/biases/ApplyGradientDescent"
      }
    }
  }
  attr {
    key: "_output_shapes"
    value {
      list {
        shape {
          dim {
            size: 256
          }
        }
      }
    }
  }
  experimental_debug_info {
    original_node_names: "conv6/biases/read"
  }
}
node {
  name: "conv7/conv2d/kernel/read"
  op: "Identity"
  input: "conv7/conv2d/kernel"
  device: "/job:localhost/replica:0/task:0/device:GPU:0"
  attr {
    key: "T"
    value {
      type: DT_FLOAT
    }
  }
  attr {
    key: "_class"
    value {
      list {
        s: "loc:@GradientDescent/update_conv7/conv2d/kernel/ApplyGradientDescent"
      }
    }
  }
  attr {
    key: "_output_shapes"
    value {
      list {
        shape {
          dim {
            size: 3
          }
          dim {
            size: 3
          }
          dim {
            size: 256
          }
          dim {
            size: 512
          }
        }
      }
    }
  }
  experimental_debug_info {
    original_node_names: "conv7/conv2d/kernel/read"
  }
}
node {
  name: "conv7/biases/read"
  op: "Identity"
  input: "conv7/biases"
  device: "/job:localhost/replica:0/task:0/device:GPU:0"
  attr {
    key: "T"
    value {
      type: DT_FLOAT
    }
  }
  attr {
    key: "_class"
    value {
      list {
        s: "loc:@GradientDescent/update_conv7/biases/ApplyGradientDescent"
      }
    }
  }
  attr {
    key: "_output_shapes"
    value {
      list {
        shape {
          dim {
            size: 512
          }
        }
      }
    }
  }
  experimental_debug_info {
    original_node_names: "conv7/biases/read"
  }
}
node {
  name: "conv8/conv2d/kernel/read"
  op: "Identity"
  input: "conv8/conv2d/kernel"
  device: "/job:localhost/replica:0/task:0/device:GPU:0"
  attr {
    key: "T"
    value {
      type: DT_FLOAT
    }
  }
  attr {
    key: "_class"
    value {
      list {
        s: "loc:@GradientDescent/update_conv8/conv2d/kernel/ApplyGradientDescent"
      }
    }
  }
  attr {
    key: "_output_shapes"
    value {
      list {
        shape {
          dim {
            size: 3
          }
          dim {
            size: 3
          }
          dim {
            size: 512
          }
          dim {
            size: 512
          }
        }
      }
    }
  }
  experimental_debug_info {
    original_node_names: "conv8/conv2d/kernel/read"
  }
}
node {
  name: "conv8/biases/read"
  op: "Identity"
  input: "conv8/biases"
  device: "/job:localhost/replica:0/task:0/device:GPU:0"
  attr {
    key: "T"
    value {
      type: DT_FLOAT
    }
  }
  attr {
    key: "_class"
    value {
      list {
        s: "loc:@GradientDescent/update_conv8/biases/ApplyGradientDescent"
      }
    }
  }
  attr {
    key: "_output_shapes"
    value {
      list {
        shape {
          dim {
            size: 512
          }
        }
      }
    }
  }
  experimental_debug_info {
    original_node_names: "conv8/biases/read"
  }
}
node {
  name: "conv9/conv2d/kernel/read"
  op: "Identity"
  input: "conv9/conv2d/kernel"
  device: "/job:localhost/replica:0/task:0/device:GPU:0"
  attr {
    key: "T"
    value {
      type: DT_FLOAT
    }
  }
  attr {
    key: "_class"
    value {
      list {
        s: "loc:@GradientDescent/update_conv9/conv2d/kernel/ApplyGradientDescent"
      }
    }
  }
  attr {
    key: "_output_shapes"
    value {
      list {
        shape {
          dim {
            size: 3
          }
          dim {
            size: 3
          }
          dim {
            size: 512
          }
          dim {
            size: 512
          }
        }
      }
    }
  }
  experimental_debug_info {
    original_node_names: "conv9/conv2d/kernel/read"
  }
}
node {
  name: "conv9/biases/read"
  op: "Identity"
  input: "conv9/biases"
  device: "/job:localhost/replica:0/task:0/device:GPU:0"
  attr {
    key: "T"
    value {
      type: DT_FLOAT
    }
  }
  attr {
    key: "_class"
    value {
      list {
        s: "loc:@GradientDescent/update_conv9/biases/ApplyGradientDescent"
      }
    }
  }
  attr {
    key: "_output_shapes"
    value {
      list {
        shape {
          dim {
            size: 512
          }
        }
      }
    }
  }
  experimental_debug_info {
    original_node_names: "conv9/biases/read"
  }
}
node {
  name: "conv10/conv2d/kernel/read"
  op: "Identity"
  input: "conv10/conv2d/kernel"
  device: "/job:localhost/replica:0/task:0/device:GPU:0"
  attr {
    key: "T"
    value {
      type: DT_FLOAT
    }
  }
  attr {
    key: "_class"
    value {
      list {
        s: "loc:@GradientDescent/update_conv10/conv2d/kernel/ApplyGradientDescent"
      }
    }
  }
  attr {
    key: "_output_shapes"
    value {
      list {
        shape {
          dim {
            size: 3
          }
          dim {
            size: 3
          }
          dim {
            size: 512
          }
          dim {
            size: 512
          }
        }
      }
    }
  }
  experimental_debug_info {
    original_node_names: "conv10/conv2d/kernel/read"
  }
}
node {
  name: "conv10/biases/read"
  op: "Identity"
  input: "conv10/biases"
  device: "/job:localhost/replica:0/task:0/device:GPU:0"
  attr {
    key: "T"
    value {
      type: DT_FLOAT
    }
  }
  attr {
    key: "_class"
    value {
      list {
        s: "loc:@GradientDescent/update_conv10/biases/ApplyGradientDescent"
      }
    }
  }
  attr {
    key: "_output_shapes"
    value {
      list {
        shape {
          dim {
            size: 512
          }
        }
      }
    }
  }
  experimental_debug_info {
    original_node_names: "conv10/biases/read"
  }
}
node {
  name: "conv11/conv2d/kernel/read"
  op: "Identity"
  input: "conv11/conv2d/kernel"
  device: "/job:localhost/replica:0/task:0/device:GPU:0"
  attr {
    key: "T"
    value {
      type: DT_FLOAT
    }
  }
  attr {
    key: "_class"
    value {
      list {
        s: "loc:@GradientDescent/update_conv11/conv2d/kernel/ApplyGradientDescent"
      }
    }
  }
  attr {
    key: "_output_shapes"
    value {
      list {
        shape {
          dim {
            size: 3
          }
          dim {
            size: 3
          }
          dim {
            size: 512
          }
          dim {
            size: 512
          }
        }
      }
    }
  }
  experimental_debug_info {
    original_node_names: "conv11/conv2d/kernel/read"
  }
}
node {
  name: "conv11/biases/read"
  op: "Identity"
  input: "conv11/biases"
  device: "/job:localhost/replica:0/task:0/device:GPU:0"
  attr {
    key: "T"
    value {
      type: DT_FLOAT
    }
  }
  attr {
    key: "_class"
    value {
      list {
        s: "loc:@GradientDescent/update_conv11/biases/ApplyGradientDescent"
      }
    }
  }
  attr {
    key: "_output_shapes"
    value {
      list {
        shape {
          dim {
            size: 512
          }
        }
      }
    }
  }
  experimental_debug_info {
    original_node_names: "conv11/biases/read"
  }
}
node {
  name: "conv12/conv2d/kernel/read"
  op: "Identity"
  input: "conv12/conv2d/kernel"
  device: "/job:localhost/replica:0/task:0/device:GPU:0"
  attr {
    key: "T"
    value {
      type: DT_FLOAT
    }
  }
  attr {
    key: "_class"
    value {
      list {
        s: "loc:@GradientDescent/update_conv12/conv2d/kernel/ApplyGradientDescent"
      }
    }
  }
  attr {
    key: "_output_shapes"
    value {
      list {
        shape {
          dim {
            size: 3
          }
          dim {
            size: 3
          }
          dim {
            size: 512
          }
          dim {
            size: 512
          }
        }
      }
    }
  }
  experimental_debug_info {
    original_node_names: "conv12/conv2d/kernel/read"
  }
}
node {
  name: "conv12/biases/read"
  op: "Identity"
  input: "conv12/biases"
  device: "/job:localhost/replica:0/task:0/device:GPU:0"
  attr {
    key: "T"
    value {
      type: DT_FLOAT
    }
  }
  attr {
    key: "_class"
    value {
      list {
        s: "loc:@GradientDescent/update_conv12/biases/ApplyGradientDescent"
      }
    }
  }
  attr {
    key: "_output_shapes"
    value {
      list {
        shape {
          dim {
            size: 512
          }
        }
      }
    }
  }
  experimental_debug_info {
    original_node_names: "conv12/biases/read"
  }
}
node {
  name: "affine0/weights/read"
  op: "Identity"
  input: "affine0/weights"
  device: "/job:localhost/replica:0/task:0/device:GPU:0"
  attr {
    key: "T"
    value {
      type: DT_FLOAT
    }
  }
  attr {
    key: "_class"
    value {
      list {
        s: "loc:@GradientDescent/update_affine0/weights/ApplyGradientDescent"
      }
    }
  }
  attr {
    key: "_output_shapes"
    value {
      list {
        shape {
          dim {
            size: 25088
          }
          dim {
            size: 4096
          }
        }
      }
    }
  }
  experimental_debug_info {
    original_node_names: "affine0/weights/read"
  }
}
node {
  name: "affine0/biases/read"
  op: "Identity"
  input: "affine0/biases"
  device: "/job:localhost/replica:0/task:0/device:GPU:0"
  attr {
    key: "T"
    value {
      type: DT_FLOAT
    }
  }
  attr {
    key: "_class"
    value {
      list {
        s: "loc:@GradientDescent/update_affine0/biases/ApplyGradientDescent"
      }
    }
  }
  attr {
    key: "_output_shapes"
    value {
      list {
        shape {
          dim {
            size: 4096
          }
        }
      }
    }
  }
  experimental_debug_info {
    original_node_names: "affine0/biases/read"
  }
}
node {
  name: "affine1/weights/read"
  op: "Identity"
  input: "affine1/weights"
  device: "/job:localhost/replica:0/task:0/device:GPU:0"
  attr {
    key: "T"
    value {
      type: DT_FLOAT
    }
  }
  attr {
    key: "_class"
    value {
      list {
        s: "loc:@GradientDescent/update_affine1/weights/ApplyGradientDescent"
      }
    }
  }
  attr {
    key: "_output_shapes"
    value {
      list {
        shape {
          dim {
            size: 4096
          }
          dim {
            size: 4096
          }
        }
      }
    }
  }
  experimental_debug_info {
    original_node_names: "affine1/weights/read"
  }
}
node {
  name: "affine1/biases/read"
  op: "Identity"
  input: "affine1/biases"
  device: "/job:localhost/replica:0/task:0/device:GPU:0"
  attr {
    key: "T"
    value {
      type: DT_FLOAT
    }
  }
  attr {
    key: "_class"
    value {
      list {
        s: "loc:@GradientDescent/update_affine1/biases/ApplyGradientDescent"
      }
    }
  }
  attr {
    key: "_output_shapes"
    value {
      list {
        shape {
          dim {
            size: 4096
          }
        }
      }
    }
  }
  experimental_debug_info {
    original_node_names: "affine1/biases/read"
  }
}
node {
  name: "affine2/weights/read"
  op: "Identity"
  input: "affine2/weights"
  device: "/job:localhost/replica:0/task:0/device:GPU:0"
  attr {
    key: "T"
    value {
      type: DT_FLOAT
    }
  }
  attr {
    key: "_class"
    value {
      list {
        s: "loc:@GradientDescent/update_affine2/weights/ApplyGradientDescent"
      }
    }
  }
  attr {
    key: "_output_shapes"
    value {
      list {
        shape {
          dim {
            size: 4096
          }
          dim {
            size: 1000
          }
        }
      }
    }
  }
  experimental_debug_info {
    original_node_names: "affine2/weights/read"
  }
}
node {
  name: "affine2/biases/read"
  op: "Identity"
  input: "affine2/biases"
  device: "/job:localhost/replica:0/task:0/device:GPU:0"
  attr {
    key: "T"
    value {
      type: DT_FLOAT
    }
  }
  attr {
    key: "_class"
    value {
      list {
        s: "loc:@GradientDescent/update_affine2/biases/ApplyGradientDescent"
      }
    }
  }
  attr {
    key: "_output_shapes"
    value {
      list {
        shape {
          dim {
            size: 1000
          }
        }
      }
    }
  }
  experimental_debug_info {
    original_node_names: "affine2/biases/read"
  }
}
node {
  name: "ConstantFolding/gradients/conv0/conv2d/Conv2D_grad/ShapeN-matshapes-1"
  op: "Const"
  input: "^conv0/conv2d/kernel/read"
  device: "/job:localhost/replica:0/task:0/device:GPU:0"
  attr {
    key: "_output_shapes"
    value {
      list {
        shape {
          dim {
            size: 4
          }
        }
      }
    }
  }
  attr {
    key: "dtype"
    value {
      type: DT_INT32
    }
  }
  attr {
    key: "value"
    value {
      tensor {
        dtype: DT_INT32
        tensor_shape {
          dim {
            size: 4
          }
        }
        tensor_content: "\003\000\000\000\003\000\000\000\003\000\000\000@\000\000\000"
      }
    }
  }
  experimental_debug_info {
    original_node_names: "ConstantFolding/gradients/conv0/conv2d/Conv2D_grad/ShapeN-matshapes-1"
  }
}
node {
  name: "conv0/conv2d/Conv2D"
  op: "Conv2D"
  input: "conv0/conv2d/Conv2D-0-TransposeNHWCToNCHW-LayoutOptimizer"
  input: "conv0/conv2d/kernel/read"
  device: "/job:localhost/replica:0/task:0/device:GPU:0"
  attr {
    key: "T"
    value {
      type: DT_FLOAT
    }
  }
  attr {
    key: "_output_shapes"
    value {
      list {
        shape {
          dim {
            size: 64
          }
          dim {
            size: 64
          }
          dim {
            size: 224
          }
          dim {
            size: 224
          }
        }
      }
    }
  }
  attr {
    key: "data_format"
    value {
      s: "NCHW"
    }
  }
  attr {
    key: "dilations"
    value {
      list {
        i: 1
        i: 1
        i: 1
        i: 1
      }
    }
  }
  attr {
    key: "explicit_paddings"
    value {
      list {
      }
    }
  }
  attr {
    key: "padding"
    value {
      s: "SAME"
    }
  }
  attr {
    key: "strides"
    value {
      list {
        i: 1
        i: 1
        i: 1
        i: 1
      }
    }
  }
  attr {
    key: "use_cudnn_on_gpu"
    value {
      b: true
    }
  }
  experimental_debug_info {
    original_node_names: "conv0/conv2d/Conv2D"
  }
}
node {
  name: "conv0/BiasAdd"
  op: "BiasAdd"
  input: "conv0/conv2d/Conv2D"
  input: "conv0/biases/read"
  device: "/job:localhost/replica:0/task:0/device:GPU:0"
  attr {
    key: "T"
    value {
      type: DT_FLOAT
    }
  }
  attr {
    key: "_output_shapes"
    value {
      list {
        shape {
          dim {
            size: 64
          }
          dim {
            size: 64
          }
          dim {
            size: 224
          }
          dim {
            size: 224
          }
        }
      }
    }
  }
  attr {
    key: "data_format"
    value {
      s: "NCHW"
    }
  }
  experimental_debug_info {
    original_node_names: "conv0/BiasAdd"
  }
}
node {
  name: "conv0/Relu"
  op: "Relu"
  input: "conv0/BiasAdd"
  device: "/job:localhost/replica:0/task:0/device:GPU:0"
  attr {
    key: "T"
    value {
      type: DT_FLOAT
    }
  }
  attr {
    key: "_output_shapes"
    value {
      list {
        shape {
          dim {
            size: 64
          }
          dim {
            size: 64
          }
          dim {
            size: 224
          }
          dim {
            size: 224
          }
        }
      }
    }
  }
  experimental_debug_info {
    original_node_names: "conv0/Relu"
  }
}
node {
  name: "conv1/conv2d/Conv2D"
  op: "Conv2D"
  input: "conv0/Relu"
  input: "conv1/conv2d/kernel/read"
  device: "/job:localhost/replica:0/task:0/device:GPU:0"
  attr {
    key: "T"
    value {
      type: DT_FLOAT
    }
  }
  attr {
    key: "_output_shapes"
    value {
      list {
        shape {
          dim {
            size: 64
          }
          dim {
            size: 64
          }
          dim {
            size: 224
          }
          dim {
            size: 224
          }
        }
      }
    }
  }
  attr {
    key: "data_format"
    value {
      s: "NCHW"
    }
  }
  attr {
    key: "dilations"
    value {
      list {
        i: 1
        i: 1
        i: 1
        i: 1
      }
    }
  }
  attr {
    key: "explicit_paddings"
    value {
      list {
      }
    }
  }
  attr {
    key: "padding"
    value {
      s: "SAME"
    }
  }
  attr {
    key: "strides"
    value {
      list {
        i: 1
        i: 1
        i: 1
        i: 1
      }
    }
  }
  attr {
    key: "use_cudnn_on_gpu"
    value {
      b: true
    }
  }
  experimental_debug_info {
    original_node_names: "conv1/conv2d/Conv2D"
  }
}
node {
  name: "gradients/conv1/conv2d/Conv2D_grad/Conv2DBackpropInput-0-DataFormatVecPermuteNHWCToNCHW-LayoutOptimizer"
  op: "Const"
  input: "^conv0/Relu"
  input: "^conv1/conv2d/kernel/read"
  device: "/job:localhost/replica:0/task:0/device:GPU:0"
  attr {
    key: "_output_shapes"
    value {
      list {
        shape {
          dim {
            size: 4
          }
        }
      }
    }
  }
  attr {
    key: "dtype"
    value {
      type: DT_INT32
    }
  }
  attr {
    key: "value"
    value {
      tensor {
        dtype: DT_INT32
        tensor_shape {
          dim {
            size: 4
          }
        }
        tensor_content: "@\000\000\000@\000\000\000\340\000\000\000\340\000\000\000"
      }
    }
  }
  experimental_debug_info {
    original_node_names: "gradients/conv1/conv2d/Conv2D_grad/Conv2DBackpropInput-0-DataFormatVecPermuteNHWCToNCHW-LayoutOptimizer"
  }
}
node {
  name: "ConstantFolding/gradients/conv1/conv2d/Conv2D_grad/ShapeN-matshapes-1"
  op: "Const"
  input: "^conv0/Relu"
  input: "^conv1/conv2d/kernel/read"
  device: "/job:localhost/replica:0/task:0/device:GPU:0"
  attr {
    key: "_output_shapes"
    value {
      list {
        shape {
          dim {
            size: 4
          }
        }
      }
    }
  }
  attr {
    key: "dtype"
    value {
      type: DT_INT32
    }
  }
  attr {
    key: "value"
    value {
      tensor {
        dtype: DT_INT32
        tensor_shape {
          dim {
            size: 4
          }
        }
        tensor_content: "\003\000\000\000\003\000\000\000@\000\000\000@\000\000\000"
      }
    }
  }
  experimental_debug_info {
    original_node_names: "ConstantFolding/gradients/conv1/conv2d/Conv2D_grad/ShapeN-matshapes-1"
  }
}
node {
  name: "conv1/BiasAdd"
  op: "BiasAdd"
  input: "conv1/conv2d/Conv2D"
  input: "conv1/biases/read"
  device: "/job:localhost/replica:0/task:0/device:GPU:0"
  attr {
    key: "T"
    value {
      type: DT_FLOAT
    }
  }
  attr {
    key: "_output_shapes"
    value {
      list {
        shape {
          dim {
            size: 64
          }
          dim {
            size: 64
          }
          dim {
            size: 224
          }
          dim {
            size: 224
          }
        }
      }
    }
  }
  attr {
    key: "data_format"
    value {
      s: "NCHW"
    }
  }
  experimental_debug_info {
    original_node_names: "conv1/BiasAdd"
  }
}
node {
  name: "conv1/Relu"
  op: "Relu"
  input: "conv1/BiasAdd"
  device: "/job:localhost/replica:0/task:0/device:GPU:0"
  attr {
    key: "T"
    value {
      type: DT_FLOAT
    }
  }
  attr {
    key: "_output_shapes"
    value {
      list {
        shape {
          dim {
            size: 64
          }
          dim {
            size: 64
          }
          dim {
            size: 224
          }
          dim {
            size: 224
          }
        }
      }
    }
  }
  experimental_debug_info {
    original_node_names: "conv1/Relu"
  }
}
node {
  name: "mpool0/MaxPool"
  op: "MaxPool"
  input: "conv1/Relu"
  device: "/job:localhost/replica:0/task:0/device:GPU:0"
  attr {
    key: "T"
    value {
      type: DT_FLOAT
    }
  }
  attr {
    key: "_output_shapes"
    value {
      list {
        shape {
          dim {
            size: 64
          }
          dim {
            size: 64
          }
          dim {
            size: 112
          }
          dim {
            size: 112
          }
        }
      }
    }
  }
  attr {
    key: "data_format"
    value {
      s: "NCHW"
    }
  }
  attr {
    key: "ksize"
    value {
      list {
        i: 1
        i: 1
        i: 2
        i: 2
      }
    }
  }
  attr {
    key: "padding"
    value {
      s: "VALID"
    }
  }
  attr {
    key: "strides"
    value {
      list {
        i: 1
        i: 1
        i: 2
        i: 2
      }
    }
  }
  experimental_debug_info {
    original_node_names: "mpool0/MaxPool"
  }
}
node {
  name: "conv2/conv2d/Conv2D"
  op: "Conv2D"
  input: "mpool0/MaxPool"
  input: "conv2/conv2d/kernel/read"
  device: "/job:localhost/replica:0/task:0/device:GPU:0"
  attr {
    key: "T"
    value {
      type: DT_FLOAT
    }
  }
  attr {
    key: "_output_shapes"
    value {
      list {
        shape {
          dim {
            size: 64
          }
          dim {
            size: 128
          }
          dim {
            size: 112
          }
          dim {
            size: 112
          }
        }
      }
    }
  }
  attr {
    key: "data_format"
    value {
      s: "NCHW"
    }
  }
  attr {
    key: "dilations"
    value {
      list {
        i: 1
        i: 1
        i: 1
        i: 1
      }
    }
  }
  attr {
    key: "explicit_paddings"
    value {
      list {
      }
    }
  }
  attr {
    key: "padding"
    value {
      s: "SAME"
    }
  }
  attr {
    key: "strides"
    value {
      list {
        i: 1
        i: 1
        i: 1
        i: 1
      }
    }
  }
  attr {
    key: "use_cudnn_on_gpu"
    value {
      b: true
    }
  }
  experimental_debug_info {
    original_node_names: "conv2/conv2d/Conv2D"
  }
}
node {
  name: "gradients/conv2/conv2d/Conv2D_grad/Conv2DBackpropInput-0-DataFormatVecPermuteNHWCToNCHW-LayoutOptimizer"
  op: "Const"
  input: "^conv2/conv2d/kernel/read"
  input: "^mpool0/MaxPool"
  device: "/job:localhost/replica:0/task:0/device:GPU:0"
  attr {
    key: "_output_shapes"
    value {
      list {
        shape {
          dim {
            size: 4
          }
        }
      }
    }
  }
  attr {
    key: "dtype"
    value {
      type: DT_INT32
    }
  }
  attr {
    key: "value"
    value {
      tensor {
        dtype: DT_INT32
        tensor_shape {
          dim {
            size: 4
          }
        }
        tensor_content: "@\000\000\000@\000\000\000p\000\000\000p\000\000\000"
      }
    }
  }
  experimental_debug_info {
    original_node_names: "gradients/conv2/conv2d/Conv2D_grad/Conv2DBackpropInput-0-DataFormatVecPermuteNHWCToNCHW-LayoutOptimizer"
  }
}
node {
  name: "ConstantFolding/gradients/conv2/conv2d/Conv2D_grad/ShapeN-matshapes-1"
  op: "Const"
  input: "^conv2/conv2d/kernel/read"
  input: "^mpool0/MaxPool"
  device: "/job:localhost/replica:0/task:0/device:GPU:0"
  attr {
    key: "_output_shapes"
    value {
      list {
        shape {
          dim {
            size: 4
          }
        }
      }
    }
  }
  attr {
    key: "dtype"
    value {
      type: DT_INT32
    }
  }
  attr {
    key: "value"
    value {
      tensor {
        dtype: DT_INT32
        tensor_shape {
          dim {
            size: 4
          }
        }
        tensor_content: "\003\000\000\000\003\000\000\000@\000\000\000\200\000\000\000"
      }
    }
  }
  experimental_debug_info {
    original_node_names: "ConstantFolding/gradients/conv2/conv2d/Conv2D_grad/ShapeN-matshapes-1"
  }
}
node {
  name: "conv2/BiasAdd"
  op: "BiasAdd"
  input: "conv2/conv2d/Conv2D"
  input: "conv2/biases/read"
  device: "/job:localhost/replica:0/task:0/device:GPU:0"
  attr {
    key: "T"
    value {
      type: DT_FLOAT
    }
  }
  attr {
    key: "_output_shapes"
    value {
      list {
        shape {
          dim {
            size: 64
          }
          dim {
            size: 128
          }
          dim {
            size: 112
          }
          dim {
            size: 112
          }
        }
      }
    }
  }
  attr {
    key: "data_format"
    value {
      s: "NCHW"
    }
  }
  experimental_debug_info {
    original_node_names: "conv2/BiasAdd"
  }
}
node {
  name: "conv2/Relu"
  op: "Relu"
  input: "conv2/BiasAdd"
  device: "/job:localhost/replica:0/task:0/device:GPU:0"
  attr {
    key: "T"
    value {
      type: DT_FLOAT
    }
  }
  attr {
    key: "_output_shapes"
    value {
      list {
        shape {
          dim {
            size: 64
          }
          dim {
            size: 128
          }
          dim {
            size: 112
          }
          dim {
            size: 112
          }
        }
      }
    }
  }
  experimental_debug_info {
    original_node_names: "conv2/Relu"
  }
}
node {
  name: "conv3/conv2d/Conv2D"
  op: "Conv2D"
  input: "conv2/Relu"
  input: "conv3/conv2d/kernel/read"
  device: "/job:localhost/replica:0/task:0/device:GPU:0"
  attr {
    key: "T"
    value {
      type: DT_FLOAT
    }
  }
  attr {
    key: "_output_shapes"
    value {
      list {
        shape {
          dim {
            size: 64
          }
          dim {
            size: 128
          }
          dim {
            size: 112
          }
          dim {
            size: 112
          }
        }
      }
    }
  }
  attr {
    key: "data_format"
    value {
      s: "NCHW"
    }
  }
  attr {
    key: "dilations"
    value {
      list {
        i: 1
        i: 1
        i: 1
        i: 1
      }
    }
  }
  attr {
    key: "explicit_paddings"
    value {
      list {
      }
    }
  }
  attr {
    key: "padding"
    value {
      s: "SAME"
    }
  }
  attr {
    key: "strides"
    value {
      list {
        i: 1
        i: 1
        i: 1
        i: 1
      }
    }
  }
  attr {
    key: "use_cudnn_on_gpu"
    value {
      b: true
    }
  }
  experimental_debug_info {
    original_node_names: "conv3/conv2d/Conv2D"
  }
}
node {
  name: "gradients/conv3/conv2d/Conv2D_grad/Conv2DBackpropInput-0-DataFormatVecPermuteNHWCToNCHW-LayoutOptimizer"
  op: "Const"
  input: "^conv2/Relu"
  input: "^conv3/conv2d/kernel/read"
  device: "/job:localhost/replica:0/task:0/device:GPU:0"
  attr {
    key: "_output_shapes"
    value {
      list {
        shape {
          dim {
            size: 4
          }
        }
      }
    }
  }
  attr {
    key: "dtype"
    value {
      type: DT_INT32
    }
  }
  attr {
    key: "value"
    value {
      tensor {
        dtype: DT_INT32
        tensor_shape {
          dim {
            size: 4
          }
        }
        tensor_content: "@\000\000\000\200\000\000\000p\000\000\000p\000\000\000"
      }
    }
  }
  experimental_debug_info {
    original_node_names: "gradients/conv3/conv2d/Conv2D_grad/Conv2DBackpropInput-0-DataFormatVecPermuteNHWCToNCHW-LayoutOptimizer"
  }
}
node {
  name: "ConstantFolding/gradients/conv3/conv2d/Conv2D_grad/ShapeN-matshapes-1"
  op: "Const"
  input: "^conv2/Relu"
  input: "^conv3/conv2d/kernel/read"
  device: "/job:localhost/replica:0/task:0/device:GPU:0"
  attr {
    key: "_output_shapes"
    value {
      list {
        shape {
          dim {
            size: 4
          }
        }
      }
    }
  }
  attr {
    key: "dtype"
    value {
      type: DT_INT32
    }
  }
  attr {
    key: "value"
    value {
      tensor {
        dtype: DT_INT32
        tensor_shape {
          dim {
            size: 4
          }
        }
        tensor_content: "\003\000\000\000\003\000\000\000\200\000\000\000\200\000\000\000"
      }
    }
  }
  experimental_debug_info {
    original_node_names: "ConstantFolding/gradients/conv3/conv2d/Conv2D_grad/ShapeN-matshapes-1"
  }
}
node {
  name: "conv3/BiasAdd"
  op: "BiasAdd"
  input: "conv3/conv2d/Conv2D"
  input: "conv3/biases/read"
  device: "/job:localhost/replica:0/task:0/device:GPU:0"
  attr {
    key: "T"
    value {
      type: DT_FLOAT
    }
  }
  attr {
    key: "_output_shapes"
    value {
      list {
        shape {
          dim {
            size: 64
          }
          dim {
            size: 128
          }
          dim {
            size: 112
          }
          dim {
            size: 112
          }
        }
      }
    }
  }
  attr {
    key: "data_format"
    value {
      s: "NCHW"
    }
  }
  experimental_debug_info {
    original_node_names: "conv3/BiasAdd"
  }
}
node {
  name: "conv3/Relu"
  op: "Relu"
  input: "conv3/BiasAdd"
  device: "/job:localhost/replica:0/task:0/device:GPU:0"
  attr {
    key: "T"
    value {
      type: DT_FLOAT
    }
  }
  attr {
    key: "_output_shapes"
    value {
      list {
        shape {
          dim {
            size: 64
          }
          dim {
            size: 128
          }
          dim {
            size: 112
          }
          dim {
            size: 112
          }
        }
      }
    }
  }
  experimental_debug_info {
    original_node_names: "conv3/Relu"
  }
}
node {
  name: "mpool1/MaxPool"
  op: "MaxPool"
  input: "conv3/Relu"
  device: "/job:localhost/replica:0/task:0/device:GPU:0"
  attr {
    key: "T"
    value {
      type: DT_FLOAT
    }
  }
  attr {
    key: "_output_shapes"
    value {
      list {
        shape {
          dim {
            size: 64
          }
          dim {
            size: 128
          }
          dim {
            size: 56
          }
          dim {
            size: 56
          }
        }
      }
    }
  }
  attr {
    key: "data_format"
    value {
      s: "NCHW"
    }
  }
  attr {
    key: "ksize"
    value {
      list {
        i: 1
        i: 1
        i: 2
        i: 2
      }
    }
  }
  attr {
    key: "padding"
    value {
      s: "VALID"
    }
  }
  attr {
    key: "strides"
    value {
      list {
        i: 1
        i: 1
        i: 2
        i: 2
      }
    }
  }
  experimental_debug_info {
    original_node_names: "mpool1/MaxPool"
  }
}
node {
  name: "conv4/conv2d/Conv2D"
  op: "Conv2D"
  input: "mpool1/MaxPool"
  input: "conv4/conv2d/kernel/read"
  device: "/job:localhost/replica:0/task:0/device:GPU:0"
  attr {
    key: "T"
    value {
      type: DT_FLOAT
    }
  }
  attr {
    key: "_output_shapes"
    value {
      list {
        shape {
          dim {
            size: 64
          }
          dim {
            size: 256
          }
          dim {
            size: 56
          }
          dim {
            size: 56
          }
        }
      }
    }
  }
  attr {
    key: "data_format"
    value {
      s: "NCHW"
    }
  }
  attr {
    key: "dilations"
    value {
      list {
        i: 1
        i: 1
        i: 1
        i: 1
      }
    }
  }
  attr {
    key: "explicit_paddings"
    value {
      list {
      }
    }
  }
  attr {
    key: "padding"
    value {
      s: "SAME"
    }
  }
  attr {
    key: "strides"
    value {
      list {
        i: 1
        i: 1
        i: 1
        i: 1
      }
    }
  }
  attr {
    key: "use_cudnn_on_gpu"
    value {
      b: true
    }
  }
  experimental_debug_info {
    original_node_names: "conv4/conv2d/Conv2D"
  }
}
node {
  name: "gradients/conv4/conv2d/Conv2D_grad/Conv2DBackpropInput-0-DataFormatVecPermuteNHWCToNCHW-LayoutOptimizer"
  op: "Const"
  input: "^conv4/conv2d/kernel/read"
  input: "^mpool1/MaxPool"
  device: "/job:localhost/replica:0/task:0/device:GPU:0"
  attr {
    key: "_output_shapes"
    value {
      list {
        shape {
          dim {
            size: 4
          }
        }
      }
    }
  }
  attr {
    key: "dtype"
    value {
      type: DT_INT32
    }
  }
  attr {
    key: "value"
    value {
      tensor {
        dtype: DT_INT32
        tensor_shape {
          dim {
            size: 4
          }
        }
        tensor_content: "@\000\000\000\200\000\000\0008\000\000\0008\000\000\000"
      }
    }
  }
  experimental_debug_info {
    original_node_names: "gradients/conv4/conv2d/Conv2D_grad/Conv2DBackpropInput-0-DataFormatVecPermuteNHWCToNCHW-LayoutOptimizer"
  }
}
node {
  name: "ConstantFolding/gradients/conv4/conv2d/Conv2D_grad/ShapeN-matshapes-1"
  op: "Const"
  input: "^conv4/conv2d/kernel/read"
  input: "^mpool1/MaxPool"
  device: "/job:localhost/replica:0/task:0/device:GPU:0"
  attr {
    key: "_output_shapes"
    value {
      list {
        shape {
          dim {
            size: 4
          }
        }
      }
    }
  }
  attr {
    key: "dtype"
    value {
      type: DT_INT32
    }
  }
  attr {
    key: "value"
    value {
      tensor {
        dtype: DT_INT32
        tensor_shape {
          dim {
            size: 4
          }
        }
        tensor_content: "\003\000\000\000\003\000\000\000\200\000\000\000\000\001\000\000"
      }
    }
  }
  experimental_debug_info {
    original_node_names: "ConstantFolding/gradients/conv4/conv2d/Conv2D_grad/ShapeN-matshapes-1"
  }
}
node {
  name: "conv4/BiasAdd"
  op: "BiasAdd"
  input: "conv4/conv2d/Conv2D"
  input: "conv4/biases/read"
  device: "/job:localhost/replica:0/task:0/device:GPU:0"
  attr {
    key: "T"
    value {
      type: DT_FLOAT
    }
  }
  attr {
    key: "_output_shapes"
    value {
      list {
        shape {
          dim {
            size: 64
          }
          dim {
            size: 256
          }
          dim {
            size: 56
          }
          dim {
            size: 56
          }
        }
      }
    }
  }
  attr {
    key: "data_format"
    value {
      s: "NCHW"
    }
  }
  experimental_debug_info {
    original_node_names: "conv4/BiasAdd"
  }
}
node {
  name: "conv4/Relu"
  op: "Relu"
  input: "conv4/BiasAdd"
  device: "/job:localhost/replica:0/task:0/device:GPU:0"
  attr {
    key: "T"
    value {
      type: DT_FLOAT
    }
  }
  attr {
    key: "_output_shapes"
    value {
      list {
        shape {
          dim {
            size: 64
          }
          dim {
            size: 256
          }
          dim {
            size: 56
          }
          dim {
            size: 56
          }
        }
      }
    }
  }
  experimental_debug_info {
    original_node_names: "conv4/Relu"
  }
}
node {
  name: "conv5/conv2d/Conv2D"
  op: "Conv2D"
  input: "conv4/Relu"
  input: "conv5/conv2d/kernel/read"
  device: "/job:localhost/replica:0/task:0/device:GPU:0"
  attr {
    key: "T"
    value {
      type: DT_FLOAT
    }
  }
  attr {
    key: "_output_shapes"
    value {
      list {
        shape {
          dim {
            size: 64
          }
          dim {
            size: 256
          }
          dim {
            size: 56
          }
          dim {
            size: 56
          }
        }
      }
    }
  }
  attr {
    key: "data_format"
    value {
      s: "NCHW"
    }
  }
  attr {
    key: "dilations"
    value {
      list {
        i: 1
        i: 1
        i: 1
        i: 1
      }
    }
  }
  attr {
    key: "explicit_paddings"
    value {
      list {
      }
    }
  }
  attr {
    key: "padding"
    value {
      s: "SAME"
    }
  }
  attr {
    key: "strides"
    value {
      list {
        i: 1
        i: 1
        i: 1
        i: 1
      }
    }
  }
  attr {
    key: "use_cudnn_on_gpu"
    value {
      b: true
    }
  }
  experimental_debug_info {
    original_node_names: "conv5/conv2d/Conv2D"
  }
}
node {
  name: "gradients/conv5/conv2d/Conv2D_grad/Conv2DBackpropInput-0-DataFormatVecPermuteNHWCToNCHW-LayoutOptimizer"
  op: "Const"
  input: "^conv4/Relu"
  input: "^conv5/conv2d/kernel/read"
  device: "/job:localhost/replica:0/task:0/device:GPU:0"
  attr {
    key: "_output_shapes"
    value {
      list {
        shape {
          dim {
            size: 4
          }
        }
      }
    }
  }
  attr {
    key: "dtype"
    value {
      type: DT_INT32
    }
  }
  attr {
    key: "value"
    value {
      tensor {
        dtype: DT_INT32
        tensor_shape {
          dim {
            size: 4
          }
        }
        tensor_content: "@\000\000\000\000\001\000\0008\000\000\0008\000\000\000"
      }
    }
  }
  experimental_debug_info {
    original_node_names: "gradients/conv5/conv2d/Conv2D_grad/Conv2DBackpropInput-0-DataFormatVecPermuteNHWCToNCHW-LayoutOptimizer"
  }
}
node {
  name: "ConstantFolding/gradients/conv5/conv2d/Conv2D_grad/ShapeN-matshapes-1"
  op: "Const"
  input: "^conv4/Relu"
  input: "^conv5/conv2d/kernel/read"
  device: "/job:localhost/replica:0/task:0/device:GPU:0"
  attr {
    key: "_output_shapes"
    value {
      list {
        shape {
          dim {
            size: 4
          }
        }
      }
    }
  }
  attr {
    key: "dtype"
    value {
      type: DT_INT32
    }
  }
  attr {
    key: "value"
    value {
      tensor {
        dtype: DT_INT32
        tensor_shape {
          dim {
            size: 4
          }
        }
        tensor_content: "\003\000\000\000\003\000\000\000\000\001\000\000\000\001\000\000"
      }
    }
  }
  experimental_debug_info {
    original_node_names: "ConstantFolding/gradients/conv5/conv2d/Conv2D_grad/ShapeN-matshapes-1"
  }
}
node {
  name: "conv5/BiasAdd"
  op: "BiasAdd"
  input: "conv5/conv2d/Conv2D"
  input: "conv5/biases/read"
  device: "/job:localhost/replica:0/task:0/device:GPU:0"
  attr {
    key: "T"
    value {
      type: DT_FLOAT
    }
  }
  attr {
    key: "_output_shapes"
    value {
      list {
        shape {
          dim {
            size: 64
          }
          dim {
            size: 256
          }
          dim {
            size: 56
          }
          dim {
            size: 56
          }
        }
      }
    }
  }
  attr {
    key: "data_format"
    value {
      s: "NCHW"
    }
  }
  experimental_debug_info {
    original_node_names: "conv5/BiasAdd"
  }
}
node {
  name: "conv5/Relu"
  op: "Relu"
  input: "conv5/BiasAdd"
  device: "/job:localhost/replica:0/task:0/device:GPU:0"
  attr {
    key: "T"
    value {
      type: DT_FLOAT
    }
  }
  attr {
    key: "_output_shapes"
    value {
      list {
        shape {
          dim {
            size: 64
          }
          dim {
            size: 256
          }
          dim {
            size: 56
          }
          dim {
            size: 56
          }
        }
      }
    }
  }
  experimental_debug_info {
    original_node_names: "conv5/Relu"
  }
}
node {
  name: "conv6/conv2d/Conv2D"
  op: "Conv2D"
  input: "conv5/Relu"
  input: "conv6/conv2d/kernel/read"
  device: "/job:localhost/replica:0/task:0/device:GPU:0"
  attr {
    key: "T"
    value {
      type: DT_FLOAT
    }
  }
  attr {
    key: "_output_shapes"
    value {
      list {
        shape {
          dim {
            size: 64
          }
          dim {
            size: 256
          }
          dim {
            size: 56
          }
          dim {
            size: 56
          }
        }
      }
    }
  }
  attr {
    key: "data_format"
    value {
      s: "NCHW"
    }
  }
  attr {
    key: "dilations"
    value {
      list {
        i: 1
        i: 1
        i: 1
        i: 1
      }
    }
  }
  attr {
    key: "explicit_paddings"
    value {
      list {
      }
    }
  }
  attr {
    key: "padding"
    value {
      s: "SAME"
    }
  }
  attr {
    key: "strides"
    value {
      list {
        i: 1
        i: 1
        i: 1
        i: 1
      }
    }
  }
  attr {
    key: "use_cudnn_on_gpu"
    value {
      b: true
    }
  }
  experimental_debug_info {
    original_node_names: "conv6/conv2d/Conv2D"
  }
}
node {
  name: "gradients/conv6/conv2d/Conv2D_grad/Conv2DBackpropInput-0-DataFormatVecPermuteNHWCToNCHW-LayoutOptimizer"
  op: "Const"
  input: "^conv5/Relu"
  input: "^conv6/conv2d/kernel/read"
  device: "/job:localhost/replica:0/task:0/device:GPU:0"
  attr {
    key: "_output_shapes"
    value {
      list {
        shape {
          dim {
            size: 4
          }
        }
      }
    }
  }
  attr {
    key: "dtype"
    value {
      type: DT_INT32
    }
  }
  attr {
    key: "value"
    value {
      tensor {
        dtype: DT_INT32
        tensor_shape {
          dim {
            size: 4
          }
        }
        tensor_content: "@\000\000\000\000\001\000\0008\000\000\0008\000\000\000"
      }
    }
  }
  experimental_debug_info {
    original_node_names: "gradients/conv6/conv2d/Conv2D_grad/Conv2DBackpropInput-0-DataFormatVecPermuteNHWCToNCHW-LayoutOptimizer"
  }
}
node {
  name: "ConstantFolding/gradients/conv6/conv2d/Conv2D_grad/ShapeN-matshapes-1"
  op: "Const"
  input: "^conv5/Relu"
  input: "^conv6/conv2d/kernel/read"
  device: "/job:localhost/replica:0/task:0/device:GPU:0"
  attr {
    key: "_output_shapes"
    value {
      list {
        shape {
          dim {
            size: 4
          }
        }
      }
    }
  }
  attr {
    key: "dtype"
    value {
      type: DT_INT32
    }
  }
  attr {
    key: "value"
    value {
      tensor {
        dtype: DT_INT32
        tensor_shape {
          dim {
            size: 4
          }
        }
        tensor_content: "\003\000\000\000\003\000\000\000\000\001\000\000\000\001\000\000"
      }
    }
  }
  experimental_debug_info {
    original_node_names: "ConstantFolding/gradients/conv6/conv2d/Conv2D_grad/ShapeN-matshapes-1"
  }
}
node {
  name: "conv6/BiasAdd"
  op: "BiasAdd"
  input: "conv6/conv2d/Conv2D"
  input: "conv6/biases/read"
  device: "/job:localhost/replica:0/task:0/device:GPU:0"
  attr {
    key: "T"
    value {
      type: DT_FLOAT
    }
  }
  attr {
    key: "_output_shapes"
    value {
      list {
        shape {
          dim {
            size: 64
          }
          dim {
            size: 256
          }
          dim {
            size: 56
          }
          dim {
            size: 56
          }
        }
      }
    }
  }
  attr {
    key: "data_format"
    value {
      s: "NCHW"
    }
  }
  experimental_debug_info {
    original_node_names: "conv6/BiasAdd"
  }
}
node {
  name: "conv6/Relu"
  op: "Relu"
  input: "conv6/BiasAdd"
  device: "/job:localhost/replica:0/task:0/device:GPU:0"
  attr {
    key: "T"
    value {
      type: DT_FLOAT
    }
  }
  attr {
    key: "_output_shapes"
    value {
      list {
        shape {
          dim {
            size: 64
          }
          dim {
            size: 256
          }
          dim {
            size: 56
          }
          dim {
            size: 56
          }
        }
      }
    }
  }
  experimental_debug_info {
    original_node_names: "conv6/Relu"
  }
}
node {
  name: "mpool2/MaxPool"
  op: "MaxPool"
  input: "conv6/Relu"
  device: "/job:localhost/replica:0/task:0/device:GPU:0"
  attr {
    key: "T"
    value {
      type: DT_FLOAT
    }
  }
  attr {
    key: "_output_shapes"
    value {
      list {
        shape {
          dim {
            size: 64
          }
          dim {
            size: 256
          }
          dim {
            size: 28
          }
          dim {
            size: 28
          }
        }
      }
    }
  }
  attr {
    key: "data_format"
    value {
      s: "NCHW"
    }
  }
  attr {
    key: "ksize"
    value {
      list {
        i: 1
        i: 1
        i: 2
        i: 2
      }
    }
  }
  attr {
    key: "padding"
    value {
      s: "VALID"
    }
  }
  attr {
    key: "strides"
    value {
      list {
        i: 1
        i: 1
        i: 2
        i: 2
      }
    }
  }
  experimental_debug_info {
    original_node_names: "mpool2/MaxPool"
  }
}
node {
  name: "conv7/conv2d/Conv2D"
  op: "Conv2D"
  input: "mpool2/MaxPool"
  input: "conv7/conv2d/kernel/read"
  device: "/job:localhost/replica:0/task:0/device:GPU:0"
  attr {
    key: "T"
    value {
      type: DT_FLOAT
    }
  }
  attr {
    key: "_output_shapes"
    value {
      list {
        shape {
          dim {
            size: 64
          }
          dim {
            size: 512
          }
          dim {
            size: 28
          }
          dim {
            size: 28
          }
        }
      }
    }
  }
  attr {
    key: "data_format"
    value {
      s: "NCHW"
    }
  }
  attr {
    key: "dilations"
    value {
      list {
        i: 1
        i: 1
        i: 1
        i: 1
      }
    }
  }
  attr {
    key: "explicit_paddings"
    value {
      list {
      }
    }
  }
  attr {
    key: "padding"
    value {
      s: "SAME"
    }
  }
  attr {
    key: "strides"
    value {
      list {
        i: 1
        i: 1
        i: 1
        i: 1
      }
    }
  }
  attr {
    key: "use_cudnn_on_gpu"
    value {
      b: true
    }
  }
  experimental_debug_info {
    original_node_names: "conv7/conv2d/Conv2D"
  }
}
node {
  name: "gradients/conv7/conv2d/Conv2D_grad/Conv2DBackpropInput-0-DataFormatVecPermuteNHWCToNCHW-LayoutOptimizer"
  op: "Const"
  input: "^conv7/conv2d/kernel/read"
  input: "^mpool2/MaxPool"
  device: "/job:localhost/replica:0/task:0/device:GPU:0"
  attr {
    key: "_output_shapes"
    value {
      list {
        shape {
          dim {
            size: 4
          }
        }
      }
    }
  }
  attr {
    key: "dtype"
    value {
      type: DT_INT32
    }
  }
  attr {
    key: "value"
    value {
      tensor {
        dtype: DT_INT32
        tensor_shape {
          dim {
            size: 4
          }
        }
        tensor_content: "@\000\000\000\000\001\000\000\034\000\000\000\034\000\000\000"
      }
    }
  }
  experimental_debug_info {
    original_node_names: "gradients/conv7/conv2d/Conv2D_grad/Conv2DBackpropInput-0-DataFormatVecPermuteNHWCToNCHW-LayoutOptimizer"
  }
}
node {
  name: "ConstantFolding/gradients/conv7/conv2d/Conv2D_grad/ShapeN-matshapes-1"
  op: "Const"
  input: "^conv7/conv2d/kernel/read"
  input: "^mpool2/MaxPool"
  device: "/job:localhost/replica:0/task:0/device:GPU:0"
  attr {
    key: "_output_shapes"
    value {
      list {
        shape {
          dim {
            size: 4
          }
        }
      }
    }
  }
  attr {
    key: "dtype"
    value {
      type: DT_INT32
    }
  }
  attr {
    key: "value"
    value {
      tensor {
        dtype: DT_INT32
        tensor_shape {
          dim {
            size: 4
          }
        }
        tensor_content: "\003\000\000\000\003\000\000\000\000\001\000\000\000\002\000\000"
      }
    }
  }
  experimental_debug_info {
    original_node_names: "ConstantFolding/gradients/conv7/conv2d/Conv2D_grad/ShapeN-matshapes-1"
  }
}
node {
  name: "conv7/BiasAdd"
  op: "BiasAdd"
  input: "conv7/conv2d/Conv2D"
  input: "conv7/biases/read"
  device: "/job:localhost/replica:0/task:0/device:GPU:0"
  attr {
    key: "T"
    value {
      type: DT_FLOAT
    }
  }
  attr {
    key: "_output_shapes"
    value {
      list {
        shape {
          dim {
            size: 64
          }
          dim {
            size: 512
          }
          dim {
            size: 28
          }
          dim {
            size: 28
          }
        }
      }
    }
  }
  attr {
    key: "data_format"
    value {
      s: "NCHW"
    }
  }
  experimental_debug_info {
    original_node_names: "conv7/BiasAdd"
  }
}
node {
  name: "conv7/Relu"
  op: "Relu"
  input: "conv7/BiasAdd"
  device: "/job:localhost/replica:0/task:0/device:GPU:0"
  attr {
    key: "T"
    value {
      type: DT_FLOAT
    }
  }
  attr {
    key: "_output_shapes"
    value {
      list {
        shape {
          dim {
            size: 64
          }
          dim {
            size: 512
          }
          dim {
            size: 28
          }
          dim {
            size: 28
          }
        }
      }
    }
  }
  experimental_debug_info {
    original_node_names: "conv7/Relu"
  }
}
node {
  name: "conv8/conv2d/Conv2D"
  op: "Conv2D"
  input: "conv7/Relu"
  input: "conv8/conv2d/kernel/read"
  device: "/job:localhost/replica:0/task:0/device:GPU:0"
  attr {
    key: "T"
    value {
      type: DT_FLOAT
    }
  }
  attr {
    key: "_output_shapes"
    value {
      list {
        shape {
          dim {
            size: 64
          }
          dim {
            size: 512
          }
          dim {
            size: 28
          }
          dim {
            size: 28
          }
        }
      }
    }
  }
  attr {
    key: "data_format"
    value {
      s: "NCHW"
    }
  }
  attr {
    key: "dilations"
    value {
      list {
        i: 1
        i: 1
        i: 1
        i: 1
      }
    }
  }
  attr {
    key: "explicit_paddings"
    value {
      list {
      }
    }
  }
  attr {
    key: "padding"
    value {
      s: "SAME"
    }
  }
  attr {
    key: "strides"
    value {
      list {
        i: 1
        i: 1
        i: 1
        i: 1
      }
    }
  }
  attr {
    key: "use_cudnn_on_gpu"
    value {
      b: true
    }
  }
  experimental_debug_info {
    original_node_names: "conv8/conv2d/Conv2D"
  }
}
node {
  name: "gradients/conv8/conv2d/Conv2D_grad/Conv2DBackpropInput-0-DataFormatVecPermuteNHWCToNCHW-LayoutOptimizer"
  op: "Const"
  input: "^conv7/Relu"
  input: "^conv8/conv2d/kernel/read"
  device: "/job:localhost/replica:0/task:0/device:GPU:0"
  attr {
    key: "_output_shapes"
    value {
      list {
        shape {
          dim {
            size: 4
          }
        }
      }
    }
  }
  attr {
    key: "dtype"
    value {
      type: DT_INT32
    }
  }
  attr {
    key: "value"
    value {
      tensor {
        dtype: DT_INT32
        tensor_shape {
          dim {
            size: 4
          }
        }
        tensor_content: "@\000\000\000\000\002\000\000\034\000\000\000\034\000\000\000"
      }
    }
  }
  experimental_debug_info {
    original_node_names: "gradients/conv8/conv2d/Conv2D_grad/Conv2DBackpropInput-0-DataFormatVecPermuteNHWCToNCHW-LayoutOptimizer"
  }
}
node {
  name: "ConstantFolding/gradients/conv8/conv2d/Conv2D_grad/ShapeN-matshapes-1"
  op: "Const"
  input: "^conv7/Relu"
  input: "^conv8/conv2d/kernel/read"
  device: "/job:localhost/replica:0/task:0/device:GPU:0"
  attr {
    key: "_output_shapes"
    value {
      list {
        shape {
          dim {
            size: 4
          }
        }
      }
    }
  }
  attr {
    key: "dtype"
    value {
      type: DT_INT32
    }
  }
  attr {
    key: "value"
    value {
      tensor {
        dtype: DT_INT32
        tensor_shape {
          dim {
            size: 4
          }
        }
        tensor_content: "\003\000\000\000\003\000\000\000\000\002\000\000\000\002\000\000"
      }
    }
  }
  experimental_debug_info {
    original_node_names: "ConstantFolding/gradients/conv8/conv2d/Conv2D_grad/ShapeN-matshapes-1"
  }
}
node {
  name: "conv8/BiasAdd"
  op: "BiasAdd"
  input: "conv8/conv2d/Conv2D"
  input: "conv8/biases/read"
  device: "/job:localhost/replica:0/task:0/device:GPU:0"
  attr {
    key: "T"
    value {
      type: DT_FLOAT
    }
  }
  attr {
    key: "_output_shapes"
    value {
      list {
        shape {
          dim {
            size: 64
          }
          dim {
            size: 512
          }
          dim {
            size: 28
          }
          dim {
            size: 28
          }
        }
      }
    }
  }
  attr {
    key: "data_format"
    value {
      s: "NCHW"
    }
  }
  experimental_debug_info {
    original_node_names: "conv8/BiasAdd"
  }
}
node {
  name: "conv8/Relu"
  op: "Relu"
  input: "conv8/BiasAdd"
  device: "/job:localhost/replica:0/task:0/device:GPU:0"
  attr {
    key: "T"
    value {
      type: DT_FLOAT
    }
  }
  attr {
    key: "_output_shapes"
    value {
      list {
        shape {
          dim {
            size: 64
          }
          dim {
            size: 512
          }
          dim {
            size: 28
          }
          dim {
            size: 28
          }
        }
      }
    }
  }
  experimental_debug_info {
    original_node_names: "conv8/Relu"
  }
}
node {
  name: "conv9/conv2d/Conv2D"
  op: "Conv2D"
  input: "conv8/Relu"
  input: "conv9/conv2d/kernel/read"
  device: "/job:localhost/replica:0/task:0/device:GPU:0"
  attr {
    key: "T"
    value {
      type: DT_FLOAT
    }
  }
  attr {
    key: "_output_shapes"
    value {
      list {
        shape {
          dim {
            size: 64
          }
          dim {
            size: 512
          }
          dim {
            size: 28
          }
          dim {
            size: 28
          }
        }
      }
    }
  }
  attr {
    key: "data_format"
    value {
      s: "NCHW"
    }
  }
  attr {
    key: "dilations"
    value {
      list {
        i: 1
        i: 1
        i: 1
        i: 1
      }
    }
  }
  attr {
    key: "explicit_paddings"
    value {
      list {
      }
    }
  }
  attr {
    key: "padding"
    value {
      s: "SAME"
    }
  }
  attr {
    key: "strides"
    value {
      list {
        i: 1
        i: 1
        i: 1
        i: 1
      }
    }
  }
  attr {
    key: "use_cudnn_on_gpu"
    value {
      b: true
    }
  }
  experimental_debug_info {
    original_node_names: "conv9/conv2d/Conv2D"
  }
}
node {
  name: "gradients/conv9/conv2d/Conv2D_grad/Conv2DBackpropInput-0-DataFormatVecPermuteNHWCToNCHW-LayoutOptimizer"
  op: "Const"
  input: "^conv8/Relu"
  input: "^conv9/conv2d/kernel/read"
  device: "/job:localhost/replica:0/task:0/device:GPU:0"
  attr {
    key: "_output_shapes"
    value {
      list {
        shape {
          dim {
            size: 4
          }
        }
      }
    }
  }
  attr {
    key: "dtype"
    value {
      type: DT_INT32
    }
  }
  attr {
    key: "value"
    value {
      tensor {
        dtype: DT_INT32
        tensor_shape {
          dim {
            size: 4
          }
        }
        tensor_content: "@\000\000\000\000\002\000\000\034\000\000\000\034\000\000\000"
      }
    }
  }
  experimental_debug_info {
    original_node_names: "gradients/conv9/conv2d/Conv2D_grad/Conv2DBackpropInput-0-DataFormatVecPermuteNHWCToNCHW-LayoutOptimizer"
  }
}
node {
  name: "ConstantFolding/gradients/conv9/conv2d/Conv2D_grad/ShapeN-matshapes-1"
  op: "Const"
  input: "^conv8/Relu"
  input: "^conv9/conv2d/kernel/read"
  device: "/job:localhost/replica:0/task:0/device:GPU:0"
  attr {
    key: "_output_shapes"
    value {
      list {
        shape {
          dim {
            size: 4
          }
        }
      }
    }
  }
  attr {
    key: "dtype"
    value {
      type: DT_INT32
    }
  }
  attr {
    key: "value"
    value {
      tensor {
        dtype: DT_INT32
        tensor_shape {
          dim {
            size: 4
          }
        }
        tensor_content: "\003\000\000\000\003\000\000\000\000\002\000\000\000\002\000\000"
      }
    }
  }
  experimental_debug_info {
    original_node_names: "ConstantFolding/gradients/conv9/conv2d/Conv2D_grad/ShapeN-matshapes-1"
  }
}
node {
  name: "conv9/BiasAdd"
  op: "BiasAdd"
  input: "conv9/conv2d/Conv2D"
  input: "conv9/biases/read"
  device: "/job:localhost/replica:0/task:0/device:GPU:0"
  attr {
    key: "T"
    value {
      type: DT_FLOAT
    }
  }
  attr {
    key: "_output_shapes"
    value {
      list {
        shape {
          dim {
            size: 64
          }
          dim {
            size: 512
          }
          dim {
            size: 28
          }
          dim {
            size: 28
          }
        }
      }
    }
  }
  attr {
    key: "data_format"
    value {
      s: "NCHW"
    }
  }
  experimental_debug_info {
    original_node_names: "conv9/BiasAdd"
  }
}
node {
  name: "conv9/Relu"
  op: "Relu"
  input: "conv9/BiasAdd"
  device: "/job:localhost/replica:0/task:0/device:GPU:0"
  attr {
    key: "T"
    value {
      type: DT_FLOAT
    }
  }
  attr {
    key: "_output_shapes"
    value {
      list {
        shape {
          dim {
            size: 64
          }
          dim {
            size: 512
          }
          dim {
            size: 28
          }
          dim {
            size: 28
          }
        }
      }
    }
  }
  experimental_debug_info {
    original_node_names: "conv9/Relu"
  }
}
node {
  name: "mpool3/MaxPool"
  op: "MaxPool"
  input: "conv9/Relu"
  device: "/job:localhost/replica:0/task:0/device:GPU:0"
  attr {
    key: "T"
    value {
      type: DT_FLOAT
    }
  }
  attr {
    key: "_output_shapes"
    value {
      list {
        shape {
          dim {
            size: 64
          }
          dim {
            size: 512
          }
          dim {
            size: 14
          }
          dim {
            size: 14
          }
        }
      }
    }
  }
  attr {
    key: "data_format"
    value {
      s: "NCHW"
    }
  }
  attr {
    key: "ksize"
    value {
      list {
        i: 1
        i: 1
        i: 2
        i: 2
      }
    }
  }
  attr {
    key: "padding"
    value {
      s: "VALID"
    }
  }
  attr {
    key: "strides"
    value {
      list {
        i: 1
        i: 1
        i: 2
        i: 2
      }
    }
  }
  experimental_debug_info {
    original_node_names: "mpool3/MaxPool"
  }
}
node {
  name: "conv10/conv2d/Conv2D"
  op: "Conv2D"
  input: "mpool3/MaxPool"
  input: "conv10/conv2d/kernel/read"
  device: "/job:localhost/replica:0/task:0/device:GPU:0"
  attr {
    key: "T"
    value {
      type: DT_FLOAT
    }
  }
  attr {
    key: "_output_shapes"
    value {
      list {
        shape {
          dim {
            size: 64
          }
          dim {
            size: 512
          }
          dim {
            size: 14
          }
          dim {
            size: 14
          }
        }
      }
    }
  }
  attr {
    key: "data_format"
    value {
      s: "NCHW"
    }
  }
  attr {
    key: "dilations"
    value {
      list {
        i: 1
        i: 1
        i: 1
        i: 1
      }
    }
  }
  attr {
    key: "explicit_paddings"
    value {
      list {
      }
    }
  }
  attr {
    key: "padding"
    value {
      s: "SAME"
    }
  }
  attr {
    key: "strides"
    value {
      list {
        i: 1
        i: 1
        i: 1
        i: 1
      }
    }
  }
  attr {
    key: "use_cudnn_on_gpu"
    value {
      b: true
    }
  }
  experimental_debug_info {
    original_node_names: "conv10/conv2d/Conv2D"
  }
}
node {
  name: "gradients/conv10/conv2d/Conv2D_grad/Conv2DBackpropInput-0-DataFormatVecPermuteNHWCToNCHW-LayoutOptimizer"
  op: "Const"
  input: "^conv10/conv2d/kernel/read"
  input: "^mpool3/MaxPool"
  device: "/job:localhost/replica:0/task:0/device:GPU:0"
  attr {
    key: "_output_shapes"
    value {
      list {
        shape {
          dim {
            size: 4
          }
        }
      }
    }
  }
  attr {
    key: "dtype"
    value {
      type: DT_INT32
    }
  }
  attr {
    key: "value"
    value {
      tensor {
        dtype: DT_INT32
        tensor_shape {
          dim {
            size: 4
          }
        }
        tensor_content: "@\000\000\000\000\002\000\000\016\000\000\000\016\000\000\000"
      }
    }
  }
  experimental_debug_info {
    original_node_names: "gradients/conv10/conv2d/Conv2D_grad/Conv2DBackpropInput-0-DataFormatVecPermuteNHWCToNCHW-LayoutOptimizer"
  }
}
node {
  name: "ConstantFolding/gradients/conv10/conv2d/Conv2D_grad/ShapeN-matshapes-1"
  op: "Const"
  input: "^conv10/conv2d/kernel/read"
  input: "^mpool3/MaxPool"
  device: "/job:localhost/replica:0/task:0/device:GPU:0"
  attr {
    key: "_output_shapes"
    value {
      list {
        shape {
          dim {
            size: 4
          }
        }
      }
    }
  }
  attr {
    key: "dtype"
    value {
      type: DT_INT32
    }
  }
  attr {
    key: "value"
    value {
      tensor {
        dtype: DT_INT32
        tensor_shape {
          dim {
            size: 4
          }
        }
        tensor_content: "\003\000\000\000\003\000\000\000\000\002\000\000\000\002\000\000"
      }
    }
  }
  experimental_debug_info {
    original_node_names: "ConstantFolding/gradients/conv10/conv2d/Conv2D_grad/ShapeN-matshapes-1"
  }
}
node {
  name: "conv10/BiasAdd"
  op: "BiasAdd"
  input: "conv10/conv2d/Conv2D"
  input: "conv10/biases/read"
  device: "/job:localhost/replica:0/task:0/device:GPU:0"
  attr {
    key: "T"
    value {
      type: DT_FLOAT
    }
  }
  attr {
    key: "_output_shapes"
    value {
      list {
        shape {
          dim {
            size: 64
          }
          dim {
            size: 512
          }
          dim {
            size: 14
          }
          dim {
            size: 14
          }
        }
      }
    }
  }
  attr {
    key: "data_format"
    value {
      s: "NCHW"
    }
  }
  experimental_debug_info {
    original_node_names: "conv10/BiasAdd"
  }
}
node {
  name: "conv10/Relu"
  op: "Relu"
  input: "conv10/BiasAdd"
  device: "/job:localhost/replica:0/task:0/device:GPU:0"
  attr {
    key: "T"
    value {
      type: DT_FLOAT
    }
  }
  attr {
    key: "_output_shapes"
    value {
      list {
        shape {
          dim {
            size: 64
          }
          dim {
            size: 512
          }
          dim {
            size: 14
          }
          dim {
            size: 14
          }
        }
      }
    }
  }
  experimental_debug_info {
    original_node_names: "conv10/Relu"
  }
}
node {
  name: "conv11/conv2d/Conv2D"
  op: "Conv2D"
  input: "conv10/Relu"
  input: "conv11/conv2d/kernel/read"
  device: "/job:localhost/replica:0/task:0/device:GPU:0"
  attr {
    key: "T"
    value {
      type: DT_FLOAT
    }
  }
  attr {
    key: "_output_shapes"
    value {
      list {
        shape {
          dim {
            size: 64
          }
          dim {
            size: 512
          }
          dim {
            size: 14
          }
          dim {
            size: 14
          }
        }
      }
    }
  }
  attr {
    key: "data_format"
    value {
      s: "NCHW"
    }
  }
  attr {
    key: "dilations"
    value {
      list {
        i: 1
        i: 1
        i: 1
        i: 1
      }
    }
  }
  attr {
    key: "explicit_paddings"
    value {
      list {
      }
    }
  }
  attr {
    key: "padding"
    value {
      s: "SAME"
    }
  }
  attr {
    key: "strides"
    value {
      list {
        i: 1
        i: 1
        i: 1
        i: 1
      }
    }
  }
  attr {
    key: "use_cudnn_on_gpu"
    value {
      b: true
    }
  }
  experimental_debug_info {
    original_node_names: "conv11/conv2d/Conv2D"
  }
}
node {
  name: "gradients/conv11/conv2d/Conv2D_grad/Conv2DBackpropInput-0-DataFormatVecPermuteNHWCToNCHW-LayoutOptimizer"
  op: "Const"
  input: "^conv10/Relu"
  input: "^conv11/conv2d/kernel/read"
  device: "/job:localhost/replica:0/task:0/device:GPU:0"
  attr {
    key: "_output_shapes"
    value {
      list {
        shape {
          dim {
            size: 4
          }
        }
      }
    }
  }
  attr {
    key: "dtype"
    value {
      type: DT_INT32
    }
  }
  attr {
    key: "value"
    value {
      tensor {
        dtype: DT_INT32
        tensor_shape {
          dim {
            size: 4
          }
        }
        tensor_content: "@\000\000\000\000\002\000\000\016\000\000\000\016\000\000\000"
      }
    }
  }
  experimental_debug_info {
    original_node_names: "gradients/conv11/conv2d/Conv2D_grad/Conv2DBackpropInput-0-DataFormatVecPermuteNHWCToNCHW-LayoutOptimizer"
  }
}
node {
  name: "ConstantFolding/gradients/conv11/conv2d/Conv2D_grad/ShapeN-matshapes-1"
  op: "Const"
  input: "^conv10/Relu"
  input: "^conv11/conv2d/kernel/read"
  device: "/job:localhost/replica:0/task:0/device:GPU:0"
  attr {
    key: "_output_shapes"
    value {
      list {
        shape {
          dim {
            size: 4
          }
        }
      }
    }
  }
  attr {
    key: "dtype"
    value {
      type: DT_INT32
    }
  }
  attr {
    key: "value"
    value {
      tensor {
        dtype: DT_INT32
        tensor_shape {
          dim {
            size: 4
          }
        }
        tensor_content: "\003\000\000\000\003\000\000\000\000\002\000\000\000\002\000\000"
      }
    }
  }
  experimental_debug_info {
    original_node_names: "ConstantFolding/gradients/conv11/conv2d/Conv2D_grad/ShapeN-matshapes-1"
  }
}
node {
  name: "conv11/BiasAdd"
  op: "BiasAdd"
  input: "conv11/conv2d/Conv2D"
  input: "conv11/biases/read"
  device: "/job:localhost/replica:0/task:0/device:GPU:0"
  attr {
    key: "T"
    value {
      type: DT_FLOAT
    }
  }
  attr {
    key: "_output_shapes"
    value {
      list {
        shape {
          dim {
            size: 64
          }
          dim {
            size: 512
          }
          dim {
            size: 14
          }
          dim {
            size: 14
          }
        }
      }
    }
  }
  attr {
    key: "data_format"
    value {
      s: "NCHW"
    }
  }
  experimental_debug_info {
    original_node_names: "conv11/BiasAdd"
  }
}
node {
  name: "conv11/Relu"
  op: "Relu"
  input: "conv11/BiasAdd"
  device: "/job:localhost/replica:0/task:0/device:GPU:0"
  attr {
    key: "T"
    value {
      type: DT_FLOAT
    }
  }
  attr {
    key: "_output_shapes"
    value {
      list {
        shape {
          dim {
            size: 64
          }
          dim {
            size: 512
          }
          dim {
            size: 14
          }
          dim {
            size: 14
          }
        }
      }
    }
  }
  experimental_debug_info {
    original_node_names: "conv11/Relu"
  }
}
node {
  name: "conv12/conv2d/Conv2D"
  op: "Conv2D"
  input: "conv11/Relu"
  input: "conv12/conv2d/kernel/read"
  device: "/job:localhost/replica:0/task:0/device:GPU:0"
  attr {
    key: "T"
    value {
      type: DT_FLOAT
    }
  }
  attr {
    key: "_output_shapes"
    value {
      list {
        shape {
          dim {
            size: 64
          }
          dim {
            size: 512
          }
          dim {
            size: 14
          }
          dim {
            size: 14
          }
        }
      }
    }
  }
  attr {
    key: "data_format"
    value {
      s: "NCHW"
    }
  }
  attr {
    key: "dilations"
    value {
      list {
        i: 1
        i: 1
        i: 1
        i: 1
      }
    }
  }
  attr {
    key: "explicit_paddings"
    value {
      list {
      }
    }
  }
  attr {
    key: "padding"
    value {
      s: "SAME"
    }
  }
  attr {
    key: "strides"
    value {
      list {
        i: 1
        i: 1
        i: 1
        i: 1
      }
    }
  }
  attr {
    key: "use_cudnn_on_gpu"
    value {
      b: true
    }
  }
  experimental_debug_info {
    original_node_names: "conv12/conv2d/Conv2D"
  }
}
node {
  name: "gradients/conv12/conv2d/Conv2D_grad/Conv2DBackpropInput-0-DataFormatVecPermuteNHWCToNCHW-LayoutOptimizer"
  op: "Const"
  input: "^conv11/Relu"
  input: "^conv12/conv2d/kernel/read"
  device: "/job:localhost/replica:0/task:0/device:GPU:0"
  attr {
    key: "_output_shapes"
    value {
      list {
        shape {
          dim {
            size: 4
          }
        }
      }
    }
  }
  attr {
    key: "dtype"
    value {
      type: DT_INT32
    }
  }
  attr {
    key: "value"
    value {
      tensor {
        dtype: DT_INT32
        tensor_shape {
          dim {
            size: 4
          }
        }
        tensor_content: "@\000\000\000\000\002\000\000\016\000\000\000\016\000\000\000"
      }
    }
  }
  experimental_debug_info {
    original_node_names: "gradients/conv12/conv2d/Conv2D_grad/Conv2DBackpropInput-0-DataFormatVecPermuteNHWCToNCHW-LayoutOptimizer"
  }
}
node {
  name: "ConstantFolding/gradients/conv12/conv2d/Conv2D_grad/ShapeN-matshapes-1"
  op: "Const"
  input: "^conv11/Relu"
  input: "^conv12/conv2d/kernel/read"
  device: "/job:localhost/replica:0/task:0/device:GPU:0"
  attr {
    key: "_output_shapes"
    value {
      list {
        shape {
          dim {
            size: 4
          }
        }
      }
    }
  }
  attr {
    key: "dtype"
    value {
      type: DT_INT32
    }
  }
  attr {
    key: "value"
    value {
      tensor {
        dtype: DT_INT32
        tensor_shape {
          dim {
            size: 4
          }
        }
        tensor_content: "\003\000\000\000\003\000\000\000\000\002\000\000\000\002\000\000"
      }
    }
  }
  experimental_debug_info {
    original_node_names: "ConstantFolding/gradients/conv12/conv2d/Conv2D_grad/ShapeN-matshapes-1"
  }
}
node {
  name: "conv12/BiasAdd"
  op: "BiasAdd"
  input: "conv12/conv2d/Conv2D"
  input: "conv12/biases/read"
  device: "/job:localhost/replica:0/task:0/device:GPU:0"
  attr {
    key: "T"
    value {
      type: DT_FLOAT
    }
  }
  attr {
    key: "_output_shapes"
    value {
      list {
        shape {
          dim {
            size: 64
          }
          dim {
            size: 512
          }
          dim {
            size: 14
          }
          dim {
            size: 14
          }
        }
      }
    }
  }
  attr {
    key: "data_format"
    value {
      s: "NCHW"
    }
  }
  experimental_debug_info {
    original_node_names: "conv12/BiasAdd"
  }
}
node {
  name: "conv12/Relu"
  op: "Relu"
  input: "conv12/BiasAdd"
  device: "/job:localhost/replica:0/task:0/device:GPU:0"
  attr {
    key: "T"
    value {
      type: DT_FLOAT
    }
  }
  attr {
    key: "_output_shapes"
    value {
      list {
        shape {
          dim {
            size: 64
          }
          dim {
            size: 512
          }
          dim {
            size: 14
          }
          dim {
            size: 14
          }
        }
      }
    }
  }
  experimental_debug_info {
    original_node_names: "conv12/Relu"
  }
}
node {
  name: "mpool4/MaxPool"
  op: "MaxPool"
  input: "conv12/Relu"
  device: "/job:localhost/replica:0/task:0/device:GPU:0"
  attr {
    key: "T"
    value {
      type: DT_FLOAT
    }
  }
  attr {
    key: "_output_shapes"
    value {
      list {
        shape {
          dim {
            size: 64
          }
          dim {
            size: 512
          }
          dim {
            size: 7
          }
          dim {
            size: 7
          }
        }
      }
    }
  }
  attr {
    key: "data_format"
    value {
      s: "NCHW"
    }
  }
  attr {
    key: "ksize"
    value {
      list {
        i: 1
        i: 1
        i: 2
        i: 2
      }
    }
  }
  attr {
    key: "padding"
    value {
      s: "VALID"
    }
  }
  attr {
    key: "strides"
    value {
      list {
        i: 1
        i: 1
        i: 2
        i: 2
      }
    }
  }
  experimental_debug_info {
    original_node_names: "mpool4/MaxPool"
  }
}
node {
  name: "mpool4/MaxPool-0-0-TransposeNCHWToNHWC-LayoutOptimizer"
  op: "Transpose"
  input: "mpool4/MaxPool"
  input: "mpool4/MaxPool-0-0-PermConstNCHWToNHWC-LayoutOptimizer"
  device: "/job:localhost/replica:0/task:0/device:GPU:0"
  attr {
    key: "T"
    value {
      type: DT_FLOAT
    }
  }
  attr {
    key: "Tperm"
    value {
      type: DT_INT32
    }
  }
  attr {
    key: "_output_shapes"
    value {
      list {
        shape {
          dim {
            size: 64
          }
          dim {
            size: 7
          }
          dim {
            size: 7
          }
          dim {
            size: 512
          }
        }
      }
    }
  }
  experimental_debug_info {
    original_node_names: "mpool4/MaxPool-0-0-TransposeNCHWToNHWC-LayoutOptimizer"
  }
}
node {
  name: "Reshape"
  op: "Reshape"
  input: "mpool4/MaxPool-0-0-TransposeNCHWToNHWC-LayoutOptimizer"
  input: "Reshape/shape"
  device: "/job:localhost/replica:0/task:0/device:GPU:0"
  attr {
    key: "T"
    value {
      type: DT_FLOAT
    }
  }
  attr {
    key: "Tshape"
    value {
      type: DT_INT32
    }
  }
  attr {
    key: "_output_shapes"
    value {
      list {
        shape {
          dim {
            size: 64
          }
          dim {
            size: 25088
          }
        }
      }
    }
  }
  experimental_debug_info {
    original_node_names: "Reshape"
  }
}
node {
  name: "affine0/xw_plus_b/MatMul"
  op: "MatMul"
  input: "Reshape"
  input: "affine0/weights/read"
  device: "/job:localhost/replica:0/task:0/device:GPU:0"
  attr {
    key: "T"
    value {
      type: DT_FLOAT
    }
  }
  attr {
    key: "_output_shapes"
    value {
      list {
        shape {
          dim {
            size: 64
          }
          dim {
            size: 4096
          }
        }
      }
    }
  }
  attr {
    key: "transpose_a"
    value {
      b: false
    }
  }
  attr {
    key: "transpose_b"
    value {
      b: false
    }
  }
  experimental_debug_info {
    original_node_names: "affine0/xw_plus_b/MatMul"
  }
}
node {
  name: "affine0/xw_plus_b"
  op: "BiasAdd"
  input: "affine0/xw_plus_b/MatMul"
  input: "affine0/biases/read"
  device: "/job:localhost/replica:0/task:0/device:GPU:0"
  attr {
    key: "T"
    value {
      type: DT_FLOAT
    }
  }
  attr {
    key: "_output_shapes"
    value {
      list {
        shape {
          dim {
            size: 64
          }
          dim {
            size: 4096
          }
        }
      }
    }
  }
  attr {
    key: "data_format"
    value {
      s: "NHWC"
    }
  }
  experimental_debug_info {
    original_node_names: "affine0/xw_plus_b"
  }
}
node {
  name: "affine0/affine0"
  op: "Relu"
  input: "affine0/xw_plus_b"
  device: "/job:localhost/replica:0/task:0/device:GPU:0"
  attr {
    key: "T"
    value {
      type: DT_FLOAT
    }
  }
  attr {
    key: "_output_shapes"
    value {
      list {
        shape {
          dim {
            size: 64
          }
          dim {
            size: 4096
          }
        }
      }
    }
  }
  experimental_debug_info {
    original_node_names: "affine0/affine0"
  }
}
node {
  name: "affine1/xw_plus_b/MatMul"
  op: "MatMul"
  input: "affine0/affine0"
  input: "affine1/weights/read"
  device: "/job:localhost/replica:0/task:0/device:GPU:0"
  attr {
    key: "T"
    value {
      type: DT_FLOAT
    }
  }
  attr {
    key: "_output_shapes"
    value {
      list {
        shape {
          dim {
            size: 64
          }
          dim {
            size: 4096
          }
        }
      }
    }
  }
  attr {
    key: "transpose_a"
    value {
      b: false
    }
  }
  attr {
    key: "transpose_b"
    value {
      b: false
    }
  }
  experimental_debug_info {
    original_node_names: "affine1/xw_plus_b/MatMul"
  }
}
node {
  name: "affine1/xw_plus_b"
  op: "BiasAdd"
  input: "affine1/xw_plus_b/MatMul"
  input: "affine1/biases/read"
  device: "/job:localhost/replica:0/task:0/device:GPU:0"
  attr {
    key: "T"
    value {
      type: DT_FLOAT
    }
  }
  attr {
    key: "_output_shapes"
    value {
      list {
        shape {
          dim {
            size: 64
          }
          dim {
            size: 4096
          }
        }
      }
    }
  }
  attr {
    key: "data_format"
    value {
      s: "NHWC"
    }
  }
  experimental_debug_info {
    original_node_names: "affine1/xw_plus_b"
  }
}
node {
  name: "affine1/affine1"
  op: "Relu"
  input: "affine1/xw_plus_b"
  device: "/job:localhost/replica:0/task:0/device:GPU:0"
  attr {
    key: "T"
    value {
      type: DT_FLOAT
    }
  }
  attr {
    key: "_output_shapes"
    value {
      list {
        shape {
          dim {
            size: 64
          }
          dim {
            size: 4096
          }
        }
      }
    }
  }
  experimental_debug_info {
    original_node_names: "affine1/affine1"
  }
}
node {
  name: "affine2/xw_plus_b/MatMul"
  op: "MatMul"
  input: "affine1/affine1"
  input: "affine2/weights/read"
  device: "/job:localhost/replica:0/task:0/device:GPU:0"
  attr {
    key: "T"
    value {
      type: DT_FLOAT
    }
  }
  attr {
    key: "_output_shapes"
    value {
      list {
        shape {
          dim {
            size: 64
          }
          dim {
            size: 1000
          }
        }
      }
    }
  }
  attr {
    key: "transpose_a"
    value {
      b: false
    }
  }
  attr {
    key: "transpose_b"
    value {
      b: false
    }
  }
  experimental_debug_info {
    original_node_names: "affine2/xw_plus_b/MatMul"
  }
}
node {
  name: "affine2/xw_plus_b"
  op: "BiasAdd"
  input: "affine2/xw_plus_b/MatMul"
  input: "affine2/biases/read"
  device: "/job:localhost/replica:0/task:0/device:GPU:0"
  attr {
    key: "T"
    value {
      type: DT_FLOAT
    }
  }
  attr {
    key: "_output_shapes"
    value {
      list {
        shape {
          dim {
            size: 64
          }
          dim {
            size: 1000
          }
        }
      }
    }
  }
  attr {
    key: "data_format"
    value {
      s: "NHWC"
    }
  }
  experimental_debug_info {
    original_node_names: "affine2/xw_plus_b"
  }
}
node {
  name: "cross_entropy_per_example/cross_entropy_per_example"
  op: "SparseSoftmaxCrossEntropyWithLogits"
  input: "affine2/xw_plus_b"
  input: "labels_cast"
  device: "/job:localhost/replica:0/task:0/device:GPU:0"
  attr {
    key: "T"
    value {
      type: DT_FLOAT
    }
  }
  attr {
    key: "Tlabels"
    value {
      type: DT_INT64
    }
  }
  attr {
    key: "_output_shapes"
    value {
      list {
        shape {
          dim {
            size: 64
          }
        }
        shape {
          dim {
            size: 64
          }
          dim {
            size: 1000
          }
        }
      }
    }
  }
  experimental_debug_info {
    original_node_names: "cross_entropy_per_example/cross_entropy_per_example"
  }
}
node {
  name: "gradients/cross_entropy_per_example/cross_entropy_per_example_grad/mul"
  op: "Mul"
  input: "cross_entropy_per_example/cross_entropy_per_example:1"
  input: "gradients/cross_entropy_per_example/cross_entropy_per_example_grad/ExpandDims"
  device: "/job:localhost/replica:0/task:0/device:GPU:0"
  attr {
    key: "T"
    value {
      type: DT_FLOAT
    }
  }
  attr {
    key: "_output_shapes"
    value {
      list {
        shape {
          dim {
            size: 64
          }
          dim {
            size: 1000
          }
        }
      }
    }
  }
  experimental_debug_info {
    original_node_names: "gradients/cross_entropy_per_example/cross_entropy_per_example_grad/mul"
  }
}
node {
  name: "gradients/affine2/xw_plus_b_grad/BiasAddGrad"
  op: "BiasAddGrad"
  input: "gradients/cross_entropy_per_example/cross_entropy_per_example_grad/mul"
  device: "/job:localhost/replica:0/task:0/device:GPU:0"
  attr {
    key: "T"
    value {
      type: DT_FLOAT
    }
  }
  attr {
    key: "_output_shapes"
    value {
      list {
        shape {
          dim {
            size: 1000
          }
        }
      }
    }
  }
  attr {
    key: "data_format"
    value {
      s: "NHWC"
    }
  }
  experimental_debug_info {
    original_node_names: "gradients/affine2/xw_plus_b_grad/BiasAddGrad"
  }
}
node {
  name: "GradientDescent/update_affine2/biases/ApplyGradientDescent"
  op: "ApplyGradientDescent"
  input: "affine2/biases"
  input: "GradientDescent/learning_rate"
  input: "gradients/affine2/xw_plus_b_grad/BiasAddGrad"
  device: "/job:localhost/replica:0/task:0/device:GPU:0"
  attr {
    key: "T"
    value {
      type: DT_FLOAT
    }
  }
  attr {
    key: "_output_shapes"
    value {
      list {
        shape {
          dim {
            size: 1000
          }
        }
      }
    }
  }
  attr {
    key: "use_locking"
    value {
      b: false
    }
  }
  experimental_debug_info {
    original_node_names: "GradientDescent/update_affine2/biases/ApplyGradientDescent"
  }
}
node {
  name: "gradients/affine2/xw_plus_b/MatMul_grad/MatMul"
  op: "MatMul"
  input: "gradients/cross_entropy_per_example/cross_entropy_per_example_grad/mul"
  input: "affine2/weights/read"
  input: "^gradients/affine2/xw_plus_b_grad/BiasAddGrad"
  device: "/job:localhost/replica:0/task:0/device:GPU:0"
  attr {
    key: "T"
    value {
      type: DT_FLOAT
    }
  }
  attr {
    key: "_output_shapes"
    value {
      list {
        shape {
          dim {
            size: 64
          }
          dim {
            size: 4096
          }
        }
      }
    }
  }
  attr {
    key: "transpose_a"
    value {
      b: false
    }
  }
  attr {
    key: "transpose_b"
    value {
      b: true
    }
  }
  experimental_debug_info {
    original_node_names: "gradients/affine2/xw_plus_b/MatMul_grad/MatMul"
  }
}
node {
  name: "gradients/affine2/xw_plus_b/MatMul_grad/MatMul_1"
  op: "MatMul"
  input: "affine1/affine1"
  input: "gradients/cross_entropy_per_example/cross_entropy_per_example_grad/mul"
  input: "^gradients/affine2/xw_plus_b_grad/BiasAddGrad"
  device: "/job:localhost/replica:0/task:0/device:GPU:0"
  attr {
    key: "T"
    value {
      type: DT_FLOAT
    }
  }
  attr {
    key: "_output_shapes"
    value {
      list {
        shape {
          dim {
            size: 4096
          }
          dim {
            size: 1000
          }
        }
      }
    }
  }
  attr {
    key: "transpose_a"
    value {
      b: true
    }
  }
  attr {
    key: "transpose_b"
    value {
      b: false
    }
  }
  experimental_debug_info {
    original_node_names: "gradients/affine2/xw_plus_b/MatMul_grad/MatMul_1"
  }
}
node {
  name: "GradientDescent/update_affine2/weights/ApplyGradientDescent"
  op: "ApplyGradientDescent"
  input: "affine2/weights"
  input: "GradientDescent/learning_rate"
  input: "gradients/affine2/xw_plus_b/MatMul_grad/MatMul_1"
  input: "^gradients/affine2/xw_plus_b/MatMul_grad/MatMul"
  device: "/job:localhost/replica:0/task:0/device:GPU:0"
  attr {
    key: "T"
    value {
      type: DT_FLOAT
    }
  }
  attr {
    key: "_output_shapes"
    value {
      list {
        shape {
          dim {
            size: 4096
          }
          dim {
            size: 1000
          }
        }
      }
    }
  }
  attr {
    key: "use_locking"
    value {
      b: false
    }
  }
  experimental_debug_info {
    original_node_names: "GradientDescent/update_affine2/weights/ApplyGradientDescent"
  }
}
node {
  name: "gradients/affine1/affine1_grad/ReluGrad"
  op: "ReluGrad"
  input: "gradients/affine2/xw_plus_b/MatMul_grad/MatMul"
  input: "affine1/affine1"
  input: "^gradients/affine2/xw_plus_b/MatMul_grad/MatMul_1"
  device: "/job:localhost/replica:0/task:0/device:GPU:0"
  attr {
    key: "T"
    value {
      type: DT_FLOAT
    }
  }
  attr {
    key: "_output_shapes"
    value {
      list {
        shape {
          dim {
            size: 64
          }
          dim {
            size: 4096
          }
        }
      }
    }
  }
  experimental_debug_info {
    original_node_names: "gradients/affine1/affine1_grad/ReluGrad"
  }
}
node {
  name: "gradients/affine1/xw_plus_b_grad/BiasAddGrad"
  op: "BiasAddGrad"
  input: "gradients/affine1/affine1_grad/ReluGrad"
  device: "/job:localhost/replica:0/task:0/device:GPU:0"
  attr {
    key: "T"
    value {
      type: DT_FLOAT
    }
  }
  attr {
    key: "_output_shapes"
    value {
      list {
        shape {
          dim {
            size: 4096
          }
        }
      }
    }
  }
  attr {
    key: "data_format"
    value {
      s: "NHWC"
    }
  }
  experimental_debug_info {
    original_node_names: "gradients/affine1/xw_plus_b_grad/BiasAddGrad"
  }
}
node {
  name: "GradientDescent/update_affine1/biases/ApplyGradientDescent"
  op: "ApplyGradientDescent"
  input: "affine1/biases"
  input: "GradientDescent/learning_rate"
  input: "gradients/affine1/xw_plus_b_grad/BiasAddGrad"
  device: "/job:localhost/replica:0/task:0/device:GPU:0"
  attr {
    key: "T"
    value {
      type: DT_FLOAT
    }
  }
  attr {
    key: "_output_shapes"
    value {
      list {
        shape {
          dim {
            size: 4096
          }
        }
      }
    }
  }
  attr {
    key: "use_locking"
    value {
      b: false
    }
  }
  experimental_debug_info {
    original_node_names: "GradientDescent/update_affine1/biases/ApplyGradientDescent"
  }
}
node {
  name: "gradients/affine1/xw_plus_b/MatMul_grad/MatMul"
  op: "MatMul"
  input: "gradients/affine1/affine1_grad/ReluGrad"
  input: "affine1/weights/read"
  input: "^gradients/affine1/xw_plus_b_grad/BiasAddGrad"
  device: "/job:localhost/replica:0/task:0/device:GPU:0"
  attr {
    key: "T"
    value {
      type: DT_FLOAT
    }
  }
  attr {
    key: "_output_shapes"
    value {
      list {
        shape {
          dim {
            size: 64
          }
          dim {
            size: 4096
          }
        }
      }
    }
  }
  attr {
    key: "transpose_a"
    value {
      b: false
    }
  }
  attr {
    key: "transpose_b"
    value {
      b: true
    }
  }
  experimental_debug_info {
    original_node_names: "gradients/affine1/xw_plus_b/MatMul_grad/MatMul"
  }
}
node {
  name: "gradients/affine1/xw_plus_b/MatMul_grad/MatMul_1"
  op: "MatMul"
  input: "affine0/affine0"
  input: "gradients/affine1/affine1_grad/ReluGrad"
  input: "^gradients/affine1/xw_plus_b_grad/BiasAddGrad"
  device: "/job:localhost/replica:0/task:0/device:GPU:0"
  attr {
    key: "T"
    value {
      type: DT_FLOAT
    }
  }
  attr {
    key: "_output_shapes"
    value {
      list {
        shape {
          dim {
            size: 4096
          }
          dim {
            size: 4096
          }
        }
      }
    }
  }
  attr {
    key: "transpose_a"
    value {
      b: true
    }
  }
  attr {
    key: "transpose_b"
    value {
      b: false
    }
  }
  experimental_debug_info {
    original_node_names: "gradients/affine1/xw_plus_b/MatMul_grad/MatMul_1"
  }
}
node {
  name: "GradientDescent/update_affine1/weights/ApplyGradientDescent"
  op: "ApplyGradientDescent"
  input: "affine1/weights"
  input: "GradientDescent/learning_rate"
  input: "gradients/affine1/xw_plus_b/MatMul_grad/MatMul_1"
  input: "^gradients/affine1/xw_plus_b/MatMul_grad/MatMul"
  device: "/job:localhost/replica:0/task:0/device:GPU:0"
  attr {
    key: "T"
    value {
      type: DT_FLOAT
    }
  }
  attr {
    key: "_output_shapes"
    value {
      list {
        shape {
          dim {
            size: 4096
          }
          dim {
            size: 4096
          }
        }
      }
    }
  }
  attr {
    key: "use_locking"
    value {
      b: false
    }
  }
  experimental_debug_info {
    original_node_names: "GradientDescent/update_affine1/weights/ApplyGradientDescent"
  }
}
node {
  name: "gradients/affine0/affine0_grad/ReluGrad"
  op: "ReluGrad"
  input: "gradients/affine1/xw_plus_b/MatMul_grad/MatMul"
  input: "affine0/affine0"
  input: "^gradients/affine1/xw_plus_b/MatMul_grad/MatMul_1"
  device: "/job:localhost/replica:0/task:0/device:GPU:0"
  attr {
    key: "T"
    value {
      type: DT_FLOAT
    }
  }
  attr {
    key: "_output_shapes"
    value {
      list {
        shape {
          dim {
            size: 64
          }
          dim {
            size: 4096
          }
        }
      }
    }
  }
  experimental_debug_info {
    original_node_names: "gradients/affine0/affine0_grad/ReluGrad"
  }
}
node {
  name: "gradients/affine0/xw_plus_b_grad/BiasAddGrad"
  op: "BiasAddGrad"
  input: "gradients/affine0/affine0_grad/ReluGrad"
  device: "/job:localhost/replica:0/task:0/device:GPU:0"
  attr {
    key: "T"
    value {
      type: DT_FLOAT
    }
  }
  attr {
    key: "_output_shapes"
    value {
      list {
        shape {
          dim {
            size: 4096
          }
        }
      }
    }
  }
  attr {
    key: "data_format"
    value {
      s: "NHWC"
    }
  }
  experimental_debug_info {
    original_node_names: "gradients/affine0/xw_plus_b_grad/BiasAddGrad"
  }
}
node {
  name: "GradientDescent/update_affine0/biases/ApplyGradientDescent"
  op: "ApplyGradientDescent"
  input: "affine0/biases"
  input: "GradientDescent/learning_rate"
  input: "gradients/affine0/xw_plus_b_grad/BiasAddGrad"
  device: "/job:localhost/replica:0/task:0/device:GPU:0"
  attr {
    key: "T"
    value {
      type: DT_FLOAT
    }
  }
  attr {
    key: "_output_shapes"
    value {
      list {
        shape {
          dim {
            size: 4096
          }
        }
      }
    }
  }
  attr {
    key: "use_locking"
    value {
      b: false
    }
  }
  experimental_debug_info {
    original_node_names: "GradientDescent/update_affine0/biases/ApplyGradientDescent"
  }
}
node {
  name: "gradients/affine0/xw_plus_b/MatMul_grad/MatMul"
  op: "MatMul"
  input: "gradients/affine0/affine0_grad/ReluGrad"
  input: "affine0/weights/read"
  input: "^gradients/affine0/xw_plus_b_grad/BiasAddGrad"
  device: "/job:localhost/replica:0/task:0/device:GPU:0"
  attr {
    key: "T"
    value {
      type: DT_FLOAT
    }
  }
  attr {
    key: "_output_shapes"
    value {
      list {
        shape {
          dim {
            size: 64
          }
          dim {
            size: 25088
          }
        }
      }
    }
  }
  attr {
    key: "transpose_a"
    value {
      b: false
    }
  }
  attr {
    key: "transpose_b"
    value {
      b: true
    }
  }
  experimental_debug_info {
    original_node_names: "gradients/affine0/xw_plus_b/MatMul_grad/MatMul"
  }
}
node {
  name: "gradients/affine0/xw_plus_b/MatMul_grad/MatMul_1"
  op: "MatMul"
  input: "Reshape"
  input: "gradients/affine0/affine0_grad/ReluGrad"
  input: "^gradients/affine0/xw_plus_b_grad/BiasAddGrad"
  device: "/job:localhost/replica:0/task:0/device:GPU:0"
  attr {
    key: "T"
    value {
      type: DT_FLOAT
    }
  }
  attr {
    key: "_output_shapes"
    value {
      list {
        shape {
          dim {
            size: 25088
          }
          dim {
            size: 4096
          }
        }
      }
    }
  }
  attr {
    key: "transpose_a"
    value {
      b: true
    }
  }
  attr {
    key: "transpose_b"
    value {
      b: false
    }
  }
  experimental_debug_info {
    original_node_names: "gradients/affine0/xw_plus_b/MatMul_grad/MatMul_1"
  }
}
node {
  name: "GradientDescent/update_affine0/weights/ApplyGradientDescent"
  op: "ApplyGradientDescent"
  input: "affine0/weights"
  input: "GradientDescent/learning_rate"
  input: "gradients/affine0/xw_plus_b/MatMul_grad/MatMul_1"
  input: "^gradients/affine0/xw_plus_b/MatMul_grad/MatMul"
  device: "/job:localhost/replica:0/task:0/device:GPU:0"
  attr {
    key: "T"
    value {
      type: DT_FLOAT
    }
  }
  attr {
    key: "_output_shapes"
    value {
      list {
        shape {
          dim {
            size: 25088
          }
          dim {
            size: 4096
          }
        }
      }
    }
  }
  attr {
    key: "use_locking"
    value {
      b: false
    }
  }
  experimental_debug_info {
    original_node_names: "GradientDescent/update_affine0/weights/ApplyGradientDescent"
  }
}
node {
  name: "gradients/Reshape_grad/Reshape"
  op: "Reshape"
  input: "gradients/affine0/xw_plus_b/MatMul_grad/MatMul"
  input: "gradients/Reshape_grad/Shape"
  input: "^gradients/affine0/xw_plus_b/MatMul_grad/MatMul_1"
  device: "/job:localhost/replica:0/task:0/device:GPU:0"
  attr {
    key: "T"
    value {
      type: DT_FLOAT
    }
  }
  attr {
    key: "Tshape"
    value {
      type: DT_INT32
    }
  }
  attr {
    key: "_output_shapes"
    value {
      list {
        shape {
          dim {
            size: 64
          }
          dim {
            size: 7
          }
          dim {
            size: 7
          }
          dim {
            size: 512
          }
        }
      }
    }
  }
  experimental_debug_info {
    original_node_names: "gradients/Reshape_grad/Reshape"
  }
}
node {
  name: "gradients/mpool4/MaxPool_grad/MaxPoolGrad-2-TransposeNHWCToNCHW-LayoutOptimizer"
  op: "Transpose"
  input: "gradients/Reshape_grad/Reshape"
  input: "gradients/mpool4/MaxPool_grad/MaxPoolGrad-2-PermConstNHWCToNCHW-LayoutOptimizer"
  device: "/job:localhost/replica:0/task:0/device:GPU:0"
  attr {
    key: "T"
    value {
      type: DT_FLOAT
    }
  }
  attr {
    key: "Tperm"
    value {
      type: DT_INT32
    }
  }
  attr {
    key: "_output_shapes"
    value {
      list {
        shape {
          dim {
            size: 64
          }
          dim {
            size: 512
          }
          dim {
            size: 7
          }
          dim {
            size: 7
          }
        }
      }
    }
  }
  experimental_debug_info {
    original_node_names: "gradients/mpool4/MaxPool_grad/MaxPoolGrad-2-TransposeNHWCToNCHW-LayoutOptimizer"
  }
}
node {
  name: "gradients/mpool4/MaxPool_grad/MaxPoolGrad"
  op: "MaxPoolGrad"
  input: "conv12/Relu"
  input: "mpool4/MaxPool"
  input: "gradients/mpool4/MaxPool_grad/MaxPoolGrad-2-TransposeNHWCToNCHW-LayoutOptimizer"
  device: "/job:localhost/replica:0/task:0/device:GPU:0"
  attr {
    key: "T"
    value {
      type: DT_FLOAT
    }
  }
  attr {
    key: "_output_shapes"
    value {
      list {
        shape {
          dim {
            size: 64
          }
          dim {
            size: 512
          }
          dim {
            size: 14
          }
          dim {
            size: 14
          }
        }
      }
    }
  }
  attr {
    key: "data_format"
    value {
      s: "NCHW"
    }
  }
  attr {
    key: "ksize"
    value {
      list {
        i: 1
        i: 1
        i: 2
        i: 2
      }
    }
  }
  attr {
    key: "padding"
    value {
      s: "VALID"
    }
  }
  attr {
    key: "strides"
    value {
      list {
        i: 1
        i: 1
        i: 2
        i: 2
      }
    }
  }
  experimental_debug_info {
    original_node_names: "gradients/mpool4/MaxPool_grad/MaxPoolGrad"
  }
}
node {
  name: "gradients/conv12/Relu_grad/ReluGrad"
  op: "ReluGrad"
  input: "gradients/mpool4/MaxPool_grad/MaxPoolGrad"
  input: "conv12/Relu"
  device: "/job:localhost/replica:0/task:0/device:GPU:0"
  attr {
    key: "T"
    value {
      type: DT_FLOAT
    }
  }
  attr {
    key: "_output_shapes"
    value {
      list {
        shape {
          dim {
            size: 64
          }
          dim {
            size: 512
          }
          dim {
            size: 14
          }
          dim {
            size: 14
          }
        }
      }
    }
  }
  experimental_debug_info {
    original_node_names: "gradients/conv12/Relu_grad/ReluGrad"
  }
}
node {
  name: "gradients/conv12/BiasAdd_grad/BiasAddGrad"
  op: "BiasAddGrad"
  input: "gradients/conv12/Relu_grad/ReluGrad"
  device: "/job:localhost/replica:0/task:0/device:GPU:0"
  attr {
    key: "T"
    value {
      type: DT_FLOAT
    }
  }
  attr {
    key: "_output_shapes"
    value {
      list {
        shape {
          dim {
            size: 512
          }
        }
      }
    }
  }
  attr {
    key: "data_format"
    value {
      s: "NCHW"
    }
  }
  experimental_debug_info {
    original_node_names: "gradients/conv12/BiasAdd_grad/BiasAddGrad"
  }
}
node {
  name: "GradientDescent/update_conv12/biases/ApplyGradientDescent"
  op: "ApplyGradientDescent"
  input: "conv12/biases"
  input: "GradientDescent/learning_rate"
  input: "gradients/conv12/BiasAdd_grad/BiasAddGrad"
  device: "/job:localhost/replica:0/task:0/device:GPU:0"
  attr {
    key: "T"
    value {
      type: DT_FLOAT
    }
  }
  attr {
    key: "_output_shapes"
    value {
      list {
        shape {
          dim {
            size: 512
          }
        }
      }
    }
  }
  attr {
    key: "use_locking"
    value {
      b: false
    }
  }
  experimental_debug_info {
    original_node_names: "GradientDescent/update_conv12/biases/ApplyGradientDescent"
  }
}
node {
  name: "gradients/conv12/conv2d/Conv2D_grad/Conv2DBackpropInput"
  op: "Conv2DBackpropInput"
  input: "gradients/conv12/conv2d/Conv2D_grad/Conv2DBackpropInput-0-DataFormatVecPermuteNHWCToNCHW-LayoutOptimizer"
  input: "conv12/conv2d/kernel/read"
  input: "gradients/conv12/Relu_grad/ReluGrad"
  input: "^gradients/conv12/BiasAdd_grad/BiasAddGrad"
  device: "/job:localhost/replica:0/task:0/device:GPU:0"
  attr {
    key: "T"
    value {
      type: DT_FLOAT
    }
  }
  attr {
    key: "_output_shapes"
    value {
      list {
        shape {
          dim {
            size: 64
          }
          dim {
            size: 512
          }
          dim {
            size: 14
          }
          dim {
            size: 14
          }
        }
      }
    }
  }
  attr {
    key: "data_format"
    value {
      s: "NCHW"
    }
  }
  attr {
    key: "dilations"
    value {
      list {
        i: 1
        i: 1
        i: 1
        i: 1
      }
    }
  }
  attr {
    key: "explicit_paddings"
    value {
      list {
      }
    }
  }
  attr {
    key: "padding"
    value {
      s: "SAME"
    }
  }
  attr {
    key: "strides"
    value {
      list {
        i: 1
        i: 1
        i: 1
        i: 1
      }
    }
  }
  attr {
    key: "use_cudnn_on_gpu"
    value {
      b: true
    }
  }
  experimental_debug_info {
    original_node_names: "gradients/conv12/conv2d/Conv2D_grad/Conv2DBackpropInput"
  }
}
node {
  name: "gradients/conv12/conv2d/Conv2D_grad/Conv2DBackpropFilter"
  op: "Conv2DBackpropFilter"
  input: "conv11/Relu"
  input: "ConstantFolding/gradients/conv12/conv2d/Conv2D_grad/ShapeN-matshapes-1"
  input: "gradients/conv12/Relu_grad/ReluGrad"
  input: "^gradients/conv12/BiasAdd_grad/BiasAddGrad"
  device: "/job:localhost/replica:0/task:0/device:GPU:0"
  attr {
    key: "T"
    value {
      type: DT_FLOAT
    }
  }
  attr {
    key: "_output_shapes"
    value {
      list {
        shape {
          dim {
            size: 3
          }
          dim {
            size: 3
          }
          dim {
            size: 512
          }
          dim {
            size: 512
          }
        }
      }
    }
  }
  attr {
    key: "data_format"
    value {
      s: "NCHW"
    }
  }
  attr {
    key: "dilations"
    value {
      list {
        i: 1
        i: 1
        i: 1
        i: 1
      }
    }
  }
  attr {
    key: "explicit_paddings"
    value {
      list {
      }
    }
  }
  attr {
    key: "padding"
    value {
      s: "SAME"
    }
  }
  attr {
    key: "strides"
    value {
      list {
        i: 1
        i: 1
        i: 1
        i: 1
      }
    }
  }
  attr {
    key: "use_cudnn_on_gpu"
    value {
      b: true
    }
  }
  experimental_debug_info {
    original_node_names: "gradients/conv12/conv2d/Conv2D_grad/Conv2DBackpropFilter"
  }
}
node {
  name: "GradientDescent/update_conv12/conv2d/kernel/ApplyGradientDescent"
  op: "ApplyGradientDescent"
  input: "conv12/conv2d/kernel"
  input: "GradientDescent/learning_rate"
  input: "gradients/conv12/conv2d/Conv2D_grad/Conv2DBackpropFilter"
  input: "^gradients/conv12/conv2d/Conv2D_grad/Conv2DBackpropInput"
  device: "/job:localhost/replica:0/task:0/device:GPU:0"
  attr {
    key: "T"
    value {
      type: DT_FLOAT
    }
  }
  attr {
    key: "_output_shapes"
    value {
      list {
        shape {
          dim {
            size: 3
          }
          dim {
            size: 3
          }
          dim {
            size: 512
          }
          dim {
            size: 512
          }
        }
      }
    }
  }
  attr {
    key: "use_locking"
    value {
      b: false
    }
  }
  experimental_debug_info {
    original_node_names: "GradientDescent/update_conv12/conv2d/kernel/ApplyGradientDescent"
  }
}
node {
  name: "gradients/conv11/Relu_grad/ReluGrad"
  op: "ReluGrad"
  input: "gradients/conv12/conv2d/Conv2D_grad/Conv2DBackpropInput"
  input: "conv11/Relu"
  input: "^gradients/conv12/conv2d/Conv2D_grad/Conv2DBackpropFilter"
  device: "/job:localhost/replica:0/task:0/device:GPU:0"
  attr {
    key: "T"
    value {
      type: DT_FLOAT
    }
  }
  attr {
    key: "_output_shapes"
    value {
      list {
        shape {
          dim {
            size: 64
          }
          dim {
            size: 512
          }
          dim {
            size: 14
          }
          dim {
            size: 14
          }
        }
      }
    }
  }
  experimental_debug_info {
    original_node_names: "gradients/conv11/Relu_grad/ReluGrad"
  }
}
node {
  name: "gradients/conv11/BiasAdd_grad/BiasAddGrad"
  op: "BiasAddGrad"
  input: "gradients/conv11/Relu_grad/ReluGrad"
  device: "/job:localhost/replica:0/task:0/device:GPU:0"
  attr {
    key: "T"
    value {
      type: DT_FLOAT
    }
  }
  attr {
    key: "_output_shapes"
    value {
      list {
        shape {
          dim {
            size: 512
          }
        }
      }
    }
  }
  attr {
    key: "data_format"
    value {
      s: "NCHW"
    }
  }
  experimental_debug_info {
    original_node_names: "gradients/conv11/BiasAdd_grad/BiasAddGrad"
  }
}
node {
  name: "GradientDescent/update_conv11/biases/ApplyGradientDescent"
  op: "ApplyGradientDescent"
  input: "conv11/biases"
  input: "GradientDescent/learning_rate"
  input: "gradients/conv11/BiasAdd_grad/BiasAddGrad"
  device: "/job:localhost/replica:0/task:0/device:GPU:0"
  attr {
    key: "T"
    value {
      type: DT_FLOAT
    }
  }
  attr {
    key: "_output_shapes"
    value {
      list {
        shape {
          dim {
            size: 512
          }
        }
      }
    }
  }
  attr {
    key: "use_locking"
    value {
      b: false
    }
  }
  experimental_debug_info {
    original_node_names: "GradientDescent/update_conv11/biases/ApplyGradientDescent"
  }
}
node {
  name: "gradients/conv11/conv2d/Conv2D_grad/Conv2DBackpropInput"
  op: "Conv2DBackpropInput"
  input: "gradients/conv11/conv2d/Conv2D_grad/Conv2DBackpropInput-0-DataFormatVecPermuteNHWCToNCHW-LayoutOptimizer"
  input: "conv11/conv2d/kernel/read"
  input: "gradients/conv11/Relu_grad/ReluGrad"
  input: "^gradients/conv11/BiasAdd_grad/BiasAddGrad"
  device: "/job:localhost/replica:0/task:0/device:GPU:0"
  attr {
    key: "T"
    value {
      type: DT_FLOAT
    }
  }
  attr {
    key: "_output_shapes"
    value {
      list {
        shape {
          dim {
            size: 64
          }
          dim {
            size: 512
          }
          dim {
            size: 14
          }
          dim {
            size: 14
          }
        }
      }
    }
  }
  attr {
    key: "data_format"
    value {
      s: "NCHW"
    }
  }
  attr {
    key: "dilations"
    value {
      list {
        i: 1
        i: 1
        i: 1
        i: 1
      }
    }
  }
  attr {
    key: "explicit_paddings"
    value {
      list {
      }
    }
  }
  attr {
    key: "padding"
    value {
      s: "SAME"
    }
  }
  attr {
    key: "strides"
    value {
      list {
        i: 1
        i: 1
        i: 1
        i: 1
      }
    }
  }
  attr {
    key: "use_cudnn_on_gpu"
    value {
      b: true
    }
  }
  experimental_debug_info {
    original_node_names: "gradients/conv11/conv2d/Conv2D_grad/Conv2DBackpropInput"
  }
}
node {
  name: "gradients/conv11/conv2d/Conv2D_grad/Conv2DBackpropFilter"
  op: "Conv2DBackpropFilter"
  input: "conv10/Relu"
  input: "ConstantFolding/gradients/conv11/conv2d/Conv2D_grad/ShapeN-matshapes-1"
  input: "gradients/conv11/Relu_grad/ReluGrad"
  input: "^gradients/conv11/BiasAdd_grad/BiasAddGrad"
  device: "/job:localhost/replica:0/task:0/device:GPU:0"
  attr {
    key: "T"
    value {
      type: DT_FLOAT
    }
  }
  attr {
    key: "_output_shapes"
    value {
      list {
        shape {
          dim {
            size: 3
          }
          dim {
            size: 3
          }
          dim {
            size: 512
          }
          dim {
            size: 512
          }
        }
      }
    }
  }
  attr {
    key: "data_format"
    value {
      s: "NCHW"
    }
  }
  attr {
    key: "dilations"
    value {
      list {
        i: 1
        i: 1
        i: 1
        i: 1
      }
    }
  }
  attr {
    key: "explicit_paddings"
    value {
      list {
      }
    }
  }
  attr {
    key: "padding"
    value {
      s: "SAME"
    }
  }
  attr {
    key: "strides"
    value {
      list {
        i: 1
        i: 1
        i: 1
        i: 1
      }
    }
  }
  attr {
    key: "use_cudnn_on_gpu"
    value {
      b: true
    }
  }
  experimental_debug_info {
    original_node_names: "gradients/conv11/conv2d/Conv2D_grad/Conv2DBackpropFilter"
  }
}
node {
  name: "GradientDescent/update_conv11/conv2d/kernel/ApplyGradientDescent"
  op: "ApplyGradientDescent"
  input: "conv11/conv2d/kernel"
  input: "GradientDescent/learning_rate"
  input: "gradients/conv11/conv2d/Conv2D_grad/Conv2DBackpropFilter"
  input: "^gradients/conv11/conv2d/Conv2D_grad/Conv2DBackpropInput"
  device: "/job:localhost/replica:0/task:0/device:GPU:0"
  attr {
    key: "T"
    value {
      type: DT_FLOAT
    }
  }
  attr {
    key: "_output_shapes"
    value {
      list {
        shape {
          dim {
            size: 3
          }
          dim {
            size: 3
          }
          dim {
            size: 512
          }
          dim {
            size: 512
          }
        }
      }
    }
  }
  attr {
    key: "use_locking"
    value {
      b: false
    }
  }
  experimental_debug_info {
    original_node_names: "GradientDescent/update_conv11/conv2d/kernel/ApplyGradientDescent"
  }
}
node {
  name: "gradients/conv10/Relu_grad/ReluGrad"
  op: "ReluGrad"
  input: "gradients/conv11/conv2d/Conv2D_grad/Conv2DBackpropInput"
  input: "conv10/Relu"
  input: "^gradients/conv11/conv2d/Conv2D_grad/Conv2DBackpropFilter"
  device: "/job:localhost/replica:0/task:0/device:GPU:0"
  attr {
    key: "T"
    value {
      type: DT_FLOAT
    }
  }
  attr {
    key: "_output_shapes"
    value {
      list {
        shape {
          dim {
            size: 64
          }
          dim {
            size: 512
          }
          dim {
            size: 14
          }
          dim {
            size: 14
          }
        }
      }
    }
  }
  experimental_debug_info {
    original_node_names: "gradients/conv10/Relu_grad/ReluGrad"
  }
}
node {
  name: "gradients/conv10/BiasAdd_grad/BiasAddGrad"
  op: "BiasAddGrad"
  input: "gradients/conv10/Relu_grad/ReluGrad"
  device: "/job:localhost/replica:0/task:0/device:GPU:0"
  attr {
    key: "T"
    value {
      type: DT_FLOAT
    }
  }
  attr {
    key: "_output_shapes"
    value {
      list {
        shape {
          dim {
            size: 512
          }
        }
      }
    }
  }
  attr {
    key: "data_format"
    value {
      s: "NCHW"
    }
  }
  experimental_debug_info {
    original_node_names: "gradients/conv10/BiasAdd_grad/BiasAddGrad"
  }
}
node {
  name: "GradientDescent/update_conv10/biases/ApplyGradientDescent"
  op: "ApplyGradientDescent"
  input: "conv10/biases"
  input: "GradientDescent/learning_rate"
  input: "gradients/conv10/BiasAdd_grad/BiasAddGrad"
  device: "/job:localhost/replica:0/task:0/device:GPU:0"
  attr {
    key: "T"
    value {
      type: DT_FLOAT
    }
  }
  attr {
    key: "_output_shapes"
    value {
      list {
        shape {
          dim {
            size: 512
          }
        }
      }
    }
  }
  attr {
    key: "use_locking"
    value {
      b: false
    }
  }
…
  device: "/job:localhost/replica:0/task:0/device:GPU:0"
  attr {
    key: "T"
    value {
      type: DT_FLOAT
    }
  }
  attr {
    key: "_output_shapes"
    value {
      list {
        shape {
          dim {
            size: 64
          }
          dim {
            size: 512
          }
          dim {
            size: 28
          }
          dim {
            size: 28
          }
        }
      }
    }
  }
  experimental_debug_info {
    original_node_names: "gradients/conv7/Relu_grad/ReluGrad"
  }
}
node {
  name: "gradients/conv7/BiasAdd_grad/BiasAddGrad"
  op: "BiasAddGrad"
  input: "gradients/conv7/Relu_grad/ReluGrad"
  device: "/job:localhost/replica:0/task:0/device:GPU:0"
  attr {
    key: "T"
    value {
      type: DT_FLOAT
    }
  }
  attr {
    key: "_output_shapes"
    value {
      list {
        shape {
          dim {
            size: 512
          }
        }
      }
    }
  }
  attr {
    key: "data_format"
    value {
      s: "NCHW"
    }
  }
  experimental_debug_info {
    original_node_names: "gradients/conv7/BiasAdd_grad/BiasAddGrad"
  }
}
node {
  name: "GradientDescent/update_conv7/biases/ApplyGradientDescent"
  op: "ApplyGradientDescent"
  input: "conv7/biases"
  input: "GradientDescent/learning_rate"
  input: "gradients/conv7/BiasAdd_grad/BiasAddGrad"
  device: "/job:localhost/replica:0/task:0/device:GPU:0"
  attr {
    key: "T"
    value {
      type: DT_FLOAT
    }
  }
  attr {
    key: "_output_shapes"
    value {
      list {
        shape {
          dim {
            size: 512
          }
        }
      }
    }
  }
  attr {
    key: "use_locking"
    value {
      b: false
    }
  }
  experimental_debug_info {
    original_node_names: "GradientDescent/update_conv7/biases/ApplyGradientDescent"
  }
}
node {
  name: "gradients/conv7/conv2d/Conv2D_grad/Conv2DBackpropInput"
  op: "Conv2DBackpropInput"
  input: "gradients/conv7/conv2d/Conv2D_grad/Conv2DBackpropInput-0-DataFormatVecPermuteNHWCToNCHW-LayoutOptimizer"
  input: "conv7/conv2d/kernel/read"
  input: "gradients/conv7/Relu_grad/ReluGrad"
  input: "^gradients/conv7/BiasAdd_grad/BiasAddGrad"
  device: "/job:localhost/replica:0/task:0/device:GPU:0"
  attr {
    key: "T"
    value {
      type: DT_FLOAT
    }
  }
  attr {
    key: "_output_shapes"
    value {
      list {
        shape {
          dim {
            size: 64
          }
          dim {
            size: 256
          }
          dim {
            size: 28
          }
          dim {
            size: 28
          }
        }
      }
    }
  }
  attr {
    key: "data_format"
    value {
      s: "NCHW"
    }
  }
  attr {
    key: "dilations"
    value {
      list {
        i: 1
        i: 1
        i: 1
        i: 1
      }
    }
  }
  attr {
    key: "explicit_paddings"
    value {
      list {
      }
    }
  }
  attr {
    key: "padding"
    value {
      s: "SAME"
    }
  }
  attr {
    key: "strides"
    value {
      list {
        i: 1
        i: 1
        i: 1
        i: 1
      }
    }
  }
  attr {
    key: "use_cudnn_on_gpu"
    value {
      b: true
    }
  }
  experimental_debug_info {
    original_node_names: "gradients/conv7/conv2d/Conv2D_grad/Conv2DBackpropInput"
  }
}
node {
  name: "gradients/conv7/conv2d/Conv2D_grad/Conv2DBackpropFilter"
  op: "Conv2DBackpropFilter"
  input: "mpool2/MaxPool"
  input: "ConstantFolding/gradients/conv7/conv2d/Conv2D_grad/ShapeN-matshapes-1"
  input: "gradients/conv7/Relu_grad/ReluGrad"
  input: "^gradients/conv7/BiasAdd_grad/BiasAddGrad"
  device: "/job:localhost/replica:0/task:0/device:GPU:0"
  attr {
    key: "T"
    value {
      type: DT_FLOAT
    }
  }
  attr {
    key: "_output_shapes"
    value {
      list {
        shape {
          dim {
            size: 3
          }
          dim {
            size: 3
          }
          dim {
            size: 256
          }
          dim {
            size: 512
          }
        }
      }
    }
  }
  attr {
    key: "data_format"
    value {
      s: "NCHW"
    }
  }
  attr {
    key: "dilations"
    value {
      list {
        i: 1
        i: 1
        i: 1
        i: 1
      }
    }
  }
  attr {
    key: "explicit_paddings"
    value {
      list {
      }
    }
  }
  attr {
    key: "padding"
    value {
      s: "SAME"
    }
  }
  attr {
    key: "strides"
    value {
      list {
        i: 1
        i: 1
        i: 1
        i: 1
      }
    }
  }
  attr {
    key: "use_cudnn_on_gpu"
    value {
      b: true
    }
  }
  experimental_debug_info {
    original_node_names: "gradients/conv7/conv2d/Conv2D_grad/Conv2DBackpropFilter"
  }
}
node {
  name: "GradientDescent/update_conv7/conv2d/kernel/ApplyGradientDescent"
  op: "ApplyGradientDescent"
  input: "conv7/conv2d/kernel"
  input: "GradientDescent/learning_rate"
  input: "gradients/conv7/conv2d/Conv2D_grad/Conv2DBackpropFilter"
  input: "^gradients/conv7/conv2d/Conv2D_grad/Conv2DBackpropInput"
  device: "/job:localhost/replica:0/task:0/device:GPU:0"
  attr {
    key: "T"
    value {
      type: DT_FLOAT
    }
  }
  attr {
    key: "_output_shapes"
    value {
      list {
        shape {
          dim {
            size: 3
          }
          dim {
            size: 3
          }
          dim {
            size: 256
          }
          dim {
            size: 512
          }
        }
      }
    }
  }
  attr {
    key: "use_locking"
    value {
      b: false
    }
  }
  experimental_debug_info {
    original_node_names: "GradientDescent/update_conv7/conv2d/kernel/ApplyGradientDescent"
  }
}
node {
  name: "gradients/mpool2/MaxPool_grad/MaxPoolGrad"
  op: "MaxPoolGrad"
  input: "conv6/Relu"
  input: "mpool2/MaxPool"
  input: "gradients/conv7/conv2d/Conv2D_grad/Conv2DBackpropInput"
  input: "^gradients/conv7/conv2d/Conv2D_grad/Conv2DBackpropFilter"
  device: "/job:localhost/replica:0/task:0/device:GPU:0"
  attr {
    key: "T"
    value {
      type: DT_FLOAT
    }
  }
  attr {
    key: "_output_shapes"
    value {
      list {
        shape {
          dim {
            size: 64
          }
          dim {
            size: 256
          }
          dim {
            size: 56
          }
          dim {
            size: 56
          }
        }
      }
    }
  }
  attr {
    key: "data_format"
    value {
      s: "NCHW"
    }
  }
  attr {
    key: "ksize"
    value {
      list {
        i: 1
        i: 1
        i: 2
        i: 2
      }
    }
  }
  attr {
    key: "padding"
    value {
      s: "VALID"
    }
  }
  attr {
    key: "strides"
    value {
      list {
        i: 1
        i: 1
        i: 2
        i: 2
      }
    }
  }
  experimental_debug_info {
    original_node_names: "gradients/mpool2/MaxPool_grad/MaxPoolGrad"
  }
}
node {
  name: "gradients/conv6/Relu_grad/ReluGrad"
  op: "ReluGrad"
  input: "gradients/mpool2/MaxPool_grad/MaxPoolGrad"
  input: "conv6/Relu"
  device: "/job:localhost/replica:0/task:0/device:GPU:0"
  attr {
    key: "T"
    value {
      type: DT_FLOAT
    }
  }
  attr {
    key: "_output_shapes"
    value {
      list {
        shape {
          dim {
            size: 64
          }
          dim {
            size: 256
          }
          dim {
            size: 56
          }
          dim {
            size: 56
          }
        }
      }
    }
  }
  experimental_debug_info {
    original_node_names: "gradients/conv6/Relu_grad/ReluGrad"
  }
}
node {
  name: "gradients/conv6/BiasAdd_grad/BiasAddGrad"
  op: "BiasAddGrad"
  input: "gradients/conv6/Relu_grad/ReluGrad"
  device: "/job:localhost/replica:0/task:0/device:GPU:0"
  attr {
    key: "T"
    value {
      type: DT_FLOAT
    }
  }
  attr {
    key: "_output_shapes"
    value {
      list {
        shape {
          dim {
            size: 256
          }
        }
      }
    }
  }
  attr {
    key: "data_format"
    value {
      s: "NCHW"
    }
  }
  experimental_debug_info {
    original_node_names: "gradients/conv6/BiasAdd_grad/BiasAddGrad"
  }
}
node {
  name: "GradientDescent/update_conv6/biases/ApplyGradientDescent"
  op: "ApplyGradientDescent"
  input: "conv6/biases"
  input: "GradientDescent/learning_rate"
  input: "gradients/conv6/BiasAdd_grad/BiasAddGrad"
  device: "/job:localhost/replica:0/task:0/device:GPU:0"
  attr {
    key: "T"
    value {
      type: DT_FLOAT
    }
  }
  attr {
    key: "_output_shapes"
    value {
      list {
        shape {
          dim {
            size: 256
          }
        }
      }
    }
  }
  attr {
    key: "use_locking"
    value {
      b: false
    }
  }
  experimental_debug_info {
    original_node_names: "GradientDescent/update_conv6/biases/ApplyGradientDescent"
  }
}
node {
  name: "gradients/conv6/conv2d/Conv2D_grad/Conv2DBackpropInput"
  op: "Conv2DBackpropInput"
  input: "gradients/conv6/conv2d/Conv2D_grad/Conv2DBackpropInput-0-DataFormatVecPermuteNHWCToNCHW-LayoutOptimizer"
  input: "conv6/conv2d/kernel/read"
  input: "gradients/conv6/Relu_grad/ReluGrad"
  input: "^gradients/conv6/BiasAdd_grad/BiasAddGrad"
  device: "/job:localhost/replica:0/task:0/device:GPU:0"
  attr {
    key: "T"
    value {
      type: DT_FLOAT
    }
  }
  attr {
    key: "_output_shapes"
    value {
      list {
        shape {
          dim {
            size: 64
          }
          dim {
            size: 256
          }
          dim {
            size: 56
          }
          dim {
            size: 56
          }
        }
      }
    }
  }
  attr {
    key: "data_format"
    value {
      s: "NCHW"
    }
  }
  attr {
    key: "dilations"
    value {
      list {
        i: 1
        i: 1
        i: 1
        i: 1
      }
    }
  }
  attr {
    key: "explicit_paddings"
    value {
      list {
      }
    }
  }
  attr {
    key: "padding"
    value {
      s: "SAME"
    }
  }
  attr {
    key: "strides"
    value {
      list {
        i: 1
        i: 1
        i: 1
        i: 1
      }
    }
  }
  attr {
    key: "use_cudnn_on_gpu"
    value {
      b: true
    }
  }
  experimental_debug_info {
    original_node_names: "gradients/conv6/conv2d/Conv2D_grad/Conv2DBackpropInput"
  }
}
node {
  name: "gradients/conv6/conv2d/Conv2D_grad/Conv2DBackpropFilter"
  op: "Conv2DBackpropFilter"
  input: "conv5/Relu"
  input: "ConstantFolding/gradients/conv6/conv2d/Conv2D_grad/ShapeN-matshapes-1"
  input: "gradients/conv6/Relu_grad/ReluGrad"
  input: "^gradients/conv6/BiasAdd_grad/BiasAddGrad"
  device: "/job:localhost/replica:0/task:0/device:GPU:0"
  attr {
    key: "T"
    value {
      type: DT_FLOAT
    }
  }
  attr {
    key: "_output_shapes"
    value {
      list {
        shape {
          dim {
            size: 3
          }
          dim {
            size: 3
          }
          dim {
            size: 256
          }
          dim {
            size: 256
          }
        }
      }
    }
  }
  attr {
    key: "data_format"
    value {
      s: "NCHW"
    }
  }
  attr {
    key: "dilations"
    value {
      list {
        i: 1
        i: 1
        i: 1
        i: 1
      }
    }
  }
  attr {
    key: "explicit_paddings"
    value {
      list {
      }
    }
  }
  attr {
    key: "padding"
    value {
      s: "SAME"
    }
  }
  attr {
    key: "strides"
    value {
      list {
        i: 1
        i: 1
        i: 1
        i: 1
      }
    }
  }
  attr {
    key: "use_cudnn_on_gpu"
    value {
      b: true
    }
  }
  experimental_debug_info {
    original_node_names: "gradients/conv6/conv2d/Conv2D_grad/Conv2DBackpropFilter"
  }
}
node {
  name: "GradientDescent/update_conv6/conv2d/kernel/ApplyGradientDescent"
  op: "ApplyGradientDescent"
  input: "conv6/conv2d/kernel"
  input: "GradientDescent/learning_rate"
  input: "gradients/conv6/conv2d/Conv2D_grad/Conv2DBackpropFilter"
  input: "^gradients/conv6/conv2d/Conv2D_grad/Conv2DBackpropInput"
  device: "/job:localhost/replica:0/task:0/device:GPU:0"
  attr {
    key: "T"
    value {
      type: DT_FLOAT
    }
  }
  attr {
    key: "_output_shapes"
    value {
      list {
        shape {
          dim {
            size: 3
          }
          dim {
            size: 3
          }
          dim {
            size: 256
          }
          dim {
            size: 256
          }
        }
      }
    }
  }
  attr {
    key: "use_locking"
    value {
      b: false
    }
  }
  experimental_debug_info {
    original_node_names: "GradientDescent/update_conv6/conv2d/kernel/ApplyGradientDescent"
  }
}
node {
  name: "gradients/conv5/Relu_grad/ReluGrad"
  op: "ReluGrad"
  input: "gradients/conv6/conv2d/Conv2D_grad/Conv2DBackpropInput"
  input: "conv5/Relu"
  input: "^gradients/conv6/conv2d/Conv2D_grad/Conv2DBackpropFilter"
  device: "/job:localhost/replica:0/task:0/device:GPU:0"
  attr {
    key: "T"
    value {
      type: DT_FLOAT
    }
  }
  attr {
    key: "_output_shapes"
    value {
      list {
        shape {
          dim {
            size: 64
          }
          dim {
            size: 256
          }
          dim {
            size: 56
          }
          dim {
            size: 56
          }
        }
      }
    }
  }
  experimental_debug_info {
    original_node_names: "gradients/conv5/Relu_grad/ReluGrad"
  }
}
node {
  name: "gradients/conv5/BiasAdd_grad/BiasAddGrad"
  op: "BiasAddGrad"
  input: "gradients/conv5/Relu_grad/ReluGrad"
  device: "/job:localhost/replica:0/task:0/device:GPU:0"
  attr {
    key: "T"
    value {
      type: DT_FLOAT
    }
  }
  attr {
    key: "_output_shapes"
    value {
      list {
        shape {
          dim {
            size: 256
          }
        }
      }
    }
  }
  attr {
    key: "data_format"
    value {
      s: "NCHW"
    }
  }
  experimental_debug_info {
    original_node_names: "gradients/conv5/BiasAdd_grad/BiasAddGrad"
  }
}
node {
  name: "GradientDescent/update_conv5/biases/ApplyGradientDescent"
  op: "ApplyGradientDescent"
  input: "conv5/biases"
  input: "GradientDescent/learning_rate"
  input: "gradients/conv5/BiasAdd_grad/BiasAddGrad"
  device: "/job:localhost/replica:0/task:0/device:GPU:0"
  attr {
    key: "T"
    value {
      type: DT_FLOAT
    }
  }
  attr {
    key: "_output_shapes"
    value {
      list {
        shape {
          dim {
            size: 256
          }
        }
      }
    }
  }
  attr {
    key: "use_locking"
    value {
      b: false
    }
  }
  experimental_debug_info {
    original_node_names: "GradientDescent/update_conv5/biases/ApplyGradientDescent"
  }
}
node {
  name: "gradients/conv5/conv2d/Conv2D_grad/Conv2DBackpropInput"
  op: "Conv2DBackpropInput"
  input: "gradients/conv5/conv2d/Conv2D_grad/Conv2DBackpropInput-0-DataFormatVecPermuteNHWCToNCHW-LayoutOptimizer"
  input: "conv5/conv2d/kernel/read"
  input: "gradients/conv5/Relu_grad/ReluGrad"
  input: "^gradients/conv5/BiasAdd_grad/BiasAddGrad"
  device: "/job:localhost/replica:0/task:0/device:GPU:0"
  attr {
    key: "T"
    value {
      type: DT_FLOAT
    }
  }
  attr {
    key: "_output_shapes"
    value {
      list {
        shape {
          dim {
            size: 64
          }
          dim {
            size: 256
          }
          dim {
            size: 56
          }
          dim {
            size: 56
          }
        }
      }
    }
  }
  attr {
    key: "data_format"
    value {
      s: "NCHW"
    }
  }
  attr {
    key: "dilations"
    value {
      list {
        i: 1
        i: 1
        i: 1
        i: 1
      }
    }
  }
  attr {
    key: "explicit_paddings"
    value {
      list {
      }
    }
  }
  attr {
    key: "padding"
    value {
      s: "SAME"
    }
  }
  attr {
    key: "strides"
    value {
      list {
        i: 1
        i: 1
        i: 1
        i: 1
      }
    }
  }
  attr {
    key: "use_cudnn_on_gpu"
    value {
      b: true
    }
  }
  experimental_debug_info {
    original_node_names: "gradients/conv5/conv2d/Conv2D_grad/Conv2DBackpropInput"
  }
}
node {
  name: "gradients/conv5/conv2d/Conv2D_grad/Conv2DBackpropFilter"
  op: "Conv2DBackpropFilter"
  input: "conv4/Relu"
  input: "ConstantFolding/gradients/conv5/conv2d/Conv2D_grad/ShapeN-matshapes-1"
  input: "gradients/conv5/Relu_grad/ReluGrad"
  input: "^gradients/conv5/BiasAdd_grad/BiasAddGrad"
  device: "/job:localhost/replica:0/task:0/device:GPU:0"
  attr {
    key: "T"
    value {
      type: DT_FLOAT
    }
  }
  attr {
    key: "_output_shapes"
    value {
      list {
        shape {
          dim {
            size: 3
          }
          dim {
            size: 3
          }
          dim {
            size: 256
          }
          dim {
            size: 256
          }
        }
      }
    }
  }
  attr {
    key: "data_format"
    value {
      s: "NCHW"
    }
  }
  attr {
    key: "dilations"
    value {
      list {
        i: 1
        i: 1
        i: 1
        i: 1
      }
    }
  }
  attr {
    key: "explicit_paddings"
    value {
      list {
      }
    }
  }
  attr {
    key: "padding"
    value {
      s: "SAME"
    }
  }
  attr {
    key: "strides"
    value {
      list {
        i: 1
        i: 1
        i: 1
        i: 1
      }
    }
  }
  attr {
    key: "use_cudnn_on_gpu"
    value {
      b: true
    }
  }
  experimental_debug_info {
    original_node_names: "gradients/conv5/conv2d/Conv2D_grad/Conv2DBackpropFilter"
  }
}
node {
  name: "GradientDescent/update_conv5/conv2d/kernel/ApplyGradientDescent"
  op: "ApplyGradientDescent"
  input: "conv5/conv2d/kernel"
  input: "GradientDescent/learning_rate"
  input: "gradients/conv5/conv2d/Conv2D_grad/Conv2DBackpropFilter"
  input: "^gradients/conv5/conv2d/Conv2D_grad/Conv2DBackpropInput"
  device: "/job:localhost/replica:0/task:0/device:GPU:0"
  attr {
    key: "T"
    value {
      type: DT_FLOAT
    }
  }
  attr {
    key: "_output_shapes"
    value {
      list {
        shape {
          dim {
            size: 3
          }
          dim {
            size: 3
          }
          dim {
            size: 256
          }
          dim {
            size: 256
          }
        }
      }
    }
  }
  attr {
    key: "use_locking"
    value {
      b: false
    }
  }
  experimental_debug_info {
    original_node_names: "GradientDescent/update_conv5/conv2d/kernel/ApplyGradientDescent"
  }
}
node {
  name: "gradients/conv4/Relu_grad/ReluGrad"
  op: "ReluGrad"
  input: "gradients/conv5/conv2d/Conv2D_grad/Conv2DBackpropInput"
  input: "conv4/Relu"
  input: "^gradients/conv5/conv2d/Conv2D_grad/Conv2DBackpropFilter"
  device: "/job:localhost/replica:0/task:0/device:GPU:0"
  attr {
    key: "T"
    value {
      type: DT_FLOAT
    }
  }
  attr {
    key: "_output_shapes"
    value {
      list {
        shape {
          dim {
            size: 64
          }
          dim {
            size: 256
          }
          dim {
            size: 56
          }
          dim {
            size: 56
          }
        }
      }
    }
  }
  experimental_debug_info {
    original_node_names: "gradients/conv4/Relu_grad/ReluGrad"
  }
}
node {
  name: "gradients/conv4/BiasAdd_grad/BiasAddGrad"
  op: "BiasAddGrad"
  input: "gradients/conv4/Relu_grad/ReluGrad"
  device: "/job:localhost/replica:0/task:0/device:GPU:0"
  attr {
    key: "T"
    value {
      type: DT_FLOAT
    }
  }
  attr {
    key: "_output_shapes"
    value {
      list {
        shape {
          dim {
            size: 256
          }
        }
      }
    }
  }
  attr {
    key: "data_format"
    value {
      s: "NCHW"
    }
  }
  experimental_debug_info {
    original_node_names: "gradients/conv4/BiasAdd_grad/BiasAddGrad"
  }
}
node {
  name: "GradientDescent/update_conv4/biases/ApplyGradientDescent"
  op: "ApplyGradientDescent"
  input: "conv4/biases"
  input: "GradientDescent/learning_rate"
  input: "gradients/conv4/BiasAdd_grad/BiasAddGrad"
  device: "/job:localhost/replica:0/task:0/device:GPU:0"
  attr {
    key: "T"
    value {
      type: DT_FLOAT
    }
  }
  attr {
    key: "_output_shapes"
    value {
      list {
        shape {
          dim {
            size: 256
          }
        }
      }
    }
  }
  attr {
    key: "use_locking"
    value {
      b: false
    }
  }
  experimental_debug_info {
    original_node_names: "GradientDescent/update_conv4/biases/ApplyGradientDescent"
  }
}
node {
  name: "gradients/conv4/conv2d/Conv2D_grad/Conv2DBackpropInput"
  op: "Conv2DBackpropInput"
  input: "gradients/conv4/conv2d/Conv2D_grad/Conv2DBackpropInput-0-DataFormatVecPermuteNHWCToNCHW-LayoutOptimizer"
  input: "conv4/conv2d/kernel/read"
  input: "gradients/conv4/Relu_grad/ReluGrad"
  input: "^gradients/conv4/BiasAdd_grad/BiasAddGrad"
  device: "/job:localhost/replica:0/task:0/device:GPU:0"
  attr {
    key: "T"
    value {
      type: DT_FLOAT
    }
  }
  attr {
    key: "_output_shapes"
    value {
      list {
        shape {
          dim {
            size: 64
          }
          dim {
            size: 128
          }
          dim {
            size: 56
          }
          dim {
            size: 56
          }
        }
      }
    }
  }
  attr {
    key: "data_format"
    value {
      s: "NCHW"
    }
  }
  attr {
    key: "dilations"
    value {
      list {
        i: 1
        i: 1
        i: 1
        i: 1
      }
    }
  }
  attr {
    key: "explicit_paddings"
    value {
      list {
      }
    }
  }
  attr {
    key: "padding"
    value {
      s: "SAME"
    }
  }
  attr {
    key: "strides"
    value {
      list {
        i: 1
        i: 1
        i: 1
        i: 1
      }
    }
  }
  attr {
    key: "use_cudnn_on_gpu"
    value {
      b: true
    }
  }
  experimental_debug_info {
    original_node_names: "gradients/conv4/conv2d/Conv2D_grad/Conv2DBackpropInput"
  }
}
node {
  name: "gradients/conv4/conv2d/Conv2D_grad/Conv2DBackpropFilter"
  op: "Conv2DBackpropFilter"
  input: "mpool1/MaxPool"
  input: "ConstantFolding/gradients/conv4/conv2d/Conv2D_grad/ShapeN-matshapes-1"
  input: "gradients/conv4/Relu_grad/ReluGrad"
  input: "^gradients/conv4/BiasAdd_grad/BiasAddGrad"
  device: "/job:localhost/replica:0/task:0/device:GPU:0"
  attr {
    key: "T"
    value {
      type: DT_FLOAT
    }
  }
  attr {
    key: "_output_shapes"
    value {
      list {
        shape {
          dim {
            size: 3
          }
          dim {
            size: 3
          }
          dim {
            size: 128
          }
          dim {
            size: 256
          }
        }
      }
    }
  }
  attr {
    key: "data_format"
    value {
      s: "NCHW"
    }
  }
  attr {
    key: "dilations"
    value {
      list {
        i: 1
        i: 1
        i: 1
        i: 1
      }
    }
  }
  attr {
    key: "explicit_paddings"
    value {
      list {
      }
    }
  }
  attr {
    key: "padding"
    value {
      s: "SAME"
    }
  }
  attr {
    key: "strides"
    value {
      list {
        i: 1
        i: 1
        i: 1
        i: 1
      }
    }
  }
  attr {
    key: "use_cudnn_on_gpu"
    value {
      b: true
    }
  }
  experimental_debug_info {
    original_node_names: "gradients/conv4/conv2d/Conv2D_grad/Conv2DBackpropFilter"
  }
}
node {
  name: "GradientDescent/update_conv4/conv2d/kernel/ApplyGradientDescent"
  op: "ApplyGradientDescent"
  input: "conv4/conv2d/kernel"
  input: "GradientDescent/learning_rate"
  input: "gradients/conv4/conv2d/Conv2D_grad/Conv2DBackpropFilter"
  input: "^gradients/conv4/conv2d/Conv2D_grad/Conv2DBackpropInput"
  device: "/job:localhost/replica:0/task:0/device:GPU:0"
  attr {
    key: "T"
    value {
      type: DT_FLOAT
    }
  }
  attr {
    key: "_output_shapes"
    value {
      list {
        shape {
          dim {
            size: 3
          }
          dim {
            size: 3
          }
          dim {
            size: 128
          }
          dim {
            size: 256
          }
        }
      }
    }
  }
  attr {
    key: "use_locking"
    value {
      b: false
    }
  }
  experimental_debug_info {
    original_node_names: "GradientDescent/update_conv4/conv2d/kernel/ApplyGradientDescent"
  }
}
node {
  name: "gradients/mpool1/MaxPool_grad/MaxPoolGrad"
  op: "MaxPoolGrad"
  input: "conv3/Relu"
  input: "mpool1/MaxPool"
  input: "gradients/conv4/conv2d/Conv2D_grad/Conv2DBackpropInput"
  input: "^gradients/conv4/conv2d/Conv2D_grad/Conv2DBackpropFilter"
  device: "/job:localhost/replica:0/task:0/device:GPU:0"
  attr {
    key: "T"
    value {
      type: DT_FLOAT
    }
  }
  attr {
    key: "_output_shapes"
    value {
      list {
        shape {
          dim {
            size: 64
          }
          dim {
            size: 128
          }
          dim {
            size: 112
          }
          dim {
            size: 112
          }
        }
      }
    }
  }
  attr {
    key: "data_format"
    value {
      s: "NCHW"
    }
  }
  attr {
    key: "ksize"
    value {
      list {
        i: 1
        i: 1
        i: 2
        i: 2
      }
    }
  }
  attr {
    key: "padding"
    value {
      s: "VALID"
    }
  }
  attr {
    key: "strides"
    value {
      list {
        i: 1
        i: 1
        i: 2
        i: 2
      }
    }
  }
  experimental_debug_info {
    original_node_names: "gradients/mpool1/MaxPool_grad/MaxPoolGrad"
  }
}
node {
  name: "gradients/conv3/Relu_grad/ReluGrad"
  op: "ReluGrad"
  input: "gradients/mpool1/MaxPool_grad/MaxPoolGrad"
  input: "conv3/Relu"
  device: "/job:localhost/replica:0/task:0/device:GPU:0"
  attr {
    key: "T"
    value {
      type: DT_FLOAT
    }
  }
  attr {
    key: "_output_shapes"
    value {
      list {
        shape {
          dim {
            size: 64
          }
          dim {
            size: 128
          }
          dim {
            size: 112
          }
          dim {
            size: 112
          }
        }
      }
    }
  }
  experimental_debug_info {
    original_node_names: "gradients/conv3/Relu_grad/ReluGrad"
  }
}
node {
  name: "gradients/conv3/BiasAdd_grad/BiasAddGrad"
  op: "BiasAddGrad"
  input: "gradients/conv3/Relu_grad/ReluGrad"
  device: "/job:localhost/replica:0/task:0/device:GPU:0"
  attr {
    key: "T"
    value {
      type: DT_FLOAT
    }
  }
  attr {
    key: "_output_shapes"
    value {
      list {
        shape {
          dim {
            size: 128
          }
        }
      }
    }
  }
  attr {
    key: "data_format"
    value {
      s: "NCHW"
    }
  }
  experimental_debug_info {
    original_node_names: "gradients/conv3/BiasAdd_grad/BiasAddGrad"
  }
}
node {
  name: "GradientDescent/update_conv3/biases/ApplyGradientDescent"
  op: "ApplyGradientDescent"
  input: "conv3/biases"
  input: "GradientDescent/learning_rate"
  input: "gradients/conv3/BiasAdd_grad/BiasAddGrad"
  device: "/job:localhost/replica:0/task:0/device:GPU:0"
  attr {
    key: "T"
    value {
      type: DT_FLOAT
    }
  }
  attr {
    key: "_output_shapes"
    value {
      list {
        shape {
          dim {
            size: 128
          }
        }
      }
    }
  }
  attr {
    key: "use_locking"
    value {
      b: false
    }
  }
  experimental_debug_info {
    original_node_names: "GradientDescent/update_conv3/biases/ApplyGradientDescent"
  }
}
node {
  name: "gradients/conv3/conv2d/Conv2D_grad/Conv2DBackpropInput"
  op: "Conv2DBackpropInput"
  input: "gradients/conv3/conv2d/Conv2D_grad/Conv2DBackpropInput-0-DataFormatVecPermuteNHWCToNCHW-LayoutOptimizer"
  input: "conv3/conv2d/kernel/read"
  input: "gradients/conv3/Relu_grad/ReluGrad"
  input: "^gradients/conv3/BiasAdd_grad/BiasAddGrad"
  device: "/job:localhost/replica:0/task:0/device:GPU:0"
  attr {
    key: "T"
    value {
      type: DT_FLOAT
    }
  }
  attr {
    key: "_output_shapes"
    value {
      list {
        shape {
          dim {
            size: 64
          }
          dim {
            size: 128
          }
          dim {
            size: 112
          }
          dim {
            size: 112
          }
        }
      }
    }
  }
  attr {
    key: "data_format"
    value {
      s: "NCHW"
    }
  }
  attr {
    key: "dilations"
    value {
      list {
        i: 1
        i: 1
        i: 1
        i: 1
      }
    }
  }
  attr {
    key: "explicit_paddings"
    value {
      list {
      }
    }
  }
  attr {
    key: "padding"
    value {
      s: "SAME"
    }
  }
  attr {
    key: "strides"
    value {
      list {
        i: 1
        i: 1
        i: 1
        i: 1
      }
    }
  }
  attr {
    key: "use_cudnn_on_gpu"
    value {
      b: true
    }
  }
  experimental_debug_info {
    original_node_names: "gradients/conv3/conv2d/Conv2D_grad/Conv2DBackpropInput"
  }
}
node {
  name: "gradients/conv3/conv2d/Conv2D_grad/Conv2DBackpropFilter"
  op: "Conv2DBackpropFilter"
  input: "conv2/Relu"
  input: "ConstantFolding/gradients/conv3/conv2d/Conv2D_grad/ShapeN-matshapes-1"
  input: "gradients/conv3/Relu_grad/ReluGrad"
  input: "^gradients/conv3/BiasAdd_grad/BiasAddGrad"
  device: "/job:localhost/replica:0/task:0/device:GPU:0"
  attr {
    key: "T"
    value {
      type: DT_FLOAT
    }
  }
  attr {
    key: "_output_shapes"
    value {
      list {
        shape {
          dim {
            size: 3
          }
          dim {
            size: 3
          }
          dim {
            size: 128
          }
          dim {
            size: 128
          }
        }
      }
    }
  }
  attr {
    key: "data_format"
    value {
      s: "NCHW"
    }
  }
  attr {
    key: "dilations"
    value {
      list {
        i: 1
        i: 1
        i: 1
        i: 1
      }
    }
  }
  attr {
    key: "explicit_paddings"
    value {
      list {
      }
    }
  }
  attr {
    key: "padding"
    value {
      s: "SAME"
    }
  }
  attr {
    key: "strides"
    value {
      list {
        i: 1
        i: 1
        i: 1
        i: 1
      }
    }
  }
  attr {
    key: "use_cudnn_on_gpu"
    value {
      b: true
    }
  }
  experimental_debug_info {
    original_node_names: "gradients/conv3/conv2d/Conv2D_grad/Conv2DBackpropFilter"
  }
}
node {
  name: "GradientDescent/update_conv3/conv2d/kernel/ApplyGradientDescent"
  op: "ApplyGradientDescent"
  input: "conv3/conv2d/kernel"
  input: "GradientDescent/learning_rate"
  input: "gradients/conv3/conv2d/Conv2D_grad/Conv2DBackpropFilter"
  input: "^gradients/conv3/conv2d/Conv2D_grad/Conv2DBackpropInput"
  device: "/job:localhost/replica:0/task:0/device:GPU:0"
  attr {
    key: "T"
    value {
      type: DT_FLOAT
    }
  }
  attr {
    key: "_output_shapes"
    value {
      list {
        shape {
          dim {
            size: 3
          }
          dim {
            size: 3
          }
          dim {
            size: 128
          }
          dim {
            size: 128
          }
        }
      }
    }
  }
  attr {
    key: "use_locking"
    value {
      b: false
    }
  }
  experimental_debug_info {
    original_node_names: "GradientDescent/update_conv3/conv2d/kernel/ApplyGradientDescent"
  }
}
node {
  name: "gradients/conv2/Relu_grad/ReluGrad"
  op: "ReluGrad"
  input: "gradients/conv3/conv2d/Conv2D_grad/Conv2DBackpropInput"
  input: "conv2/Relu"
  input: "^gradients/conv3/conv2d/Conv2D_grad/Conv2DBackpropFilter"
  device: "/job:localhost/replica:0/task:0/device:GPU:0"
  attr {
    key: "T"
    value {
      type: DT_FLOAT
    }
  }
  attr {
    key: "_output_shapes"
    value {
      list {
        shape {
          dim {
            size: 64
          }
          dim {
            size: 128
          }
          dim {
            size: 112
          }
          dim {
            size: 112
          }
        }
      }
    }
  }
  experimental_debug_info {
    original_node_names: "gradients/conv2/Relu_grad/ReluGrad"
  }
}
node {
  name: "gradients/conv2/BiasAdd_grad/BiasAddGrad"
  op: "BiasAddGrad"
  input: "gradients/conv2/Relu_grad/ReluGrad"
  device: "/job:localhost/replica:0/task:0/device:GPU:0"
  attr {
    key: "T"
    value {
      type: DT_FLOAT
    }
  }
  attr {
    key: "_output_shapes"
    value {
      list {
        shape {
          dim {
            size: 128
          }
        }
      }
    }
  }
  attr {
    key: "data_format"
    value {
      s: "NCHW"
    }
  }
  experimental_debug_info {
    original_node_names: "gradients/conv2/BiasAdd_grad/BiasAddGrad"
  }
}
node {
  name: "GradientDescent/update_conv2/biases/ApplyGradientDescent"
  op: "ApplyGradientDescent"
  input: "conv2/biases"
  input: "GradientDescent/learning_rate"
  input: "gradients/conv2/BiasAdd_grad/BiasAddGrad"
  device: "/job:localhost/replica:0/task:0/device:GPU:0"
  attr {
    key: "T"
    value {
      type: DT_FLOAT
    }
  }
  attr {
    key: "_output_shapes"
    value {
      list {
        shape {
          dim {
            size: 128
          }
        }
      }
    }
  }
  attr {
    key: "use_locking"
    value {
      b: false
    }
  }
  experimental_debug_info {
    original_node_names: "GradientDescent/update_conv2/biases/ApplyGradientDescent"
  }
}
node {
  name: "gradients/conv2/conv2d/Conv2D_grad/Conv2DBackpropInput"
  op: "Conv2DBackpropInput"
  input: "gradients/conv2/conv2d/Conv2D_grad/Conv2DBackpropInput-0-DataFormatVecPermuteNHWCToNCHW-LayoutOptimizer"
  input: "conv2/conv2d/kernel/read"
  input: "gradients/conv2/Relu_grad/ReluGrad"
  input: "^gradients/conv2/BiasAdd_grad/BiasAddGrad"
  device: "/job:localhost/replica:0/task:0/device:GPU:0"
  attr {
    key: "T"
    value {
      type: DT_FLOAT
    }
  }
  attr {
    key: "_output_shapes"
    value {
      list {
        shape {
          dim {
            size: 64
          }
          dim {
            size: 64
          }
          dim {
            size: 112
          }
          dim {
            size: 112
          }
        }
      }
    }
  }
  attr {
    key: "data_format"
    value {
      s: "NCHW"
    }
  }
  attr {
    key: "dilations"
    value {
      list {
        i: 1
        i: 1
        i: 1
        i: 1
      }
    }
  }
  attr {
    key: "explicit_paddings"
    value {
      list {
      }
    }
  }
  attr {
    key: "padding"
    value {
      s: "SAME"
    }
  }
  attr {
    key: "strides"
    value {
      list {
        i: 1
        i: 1
        i: 1
        i: 1
      }
    }
  }
  attr {
    key: "use_cudnn_on_gpu"
    value {
      b: true
    }
  }
  experimental_debug_info {
    original_node_names: "gradients/conv2/conv2d/Conv2D_grad/Conv2DBackpropInput"
  }
}
node {
  name: "gradients/conv2/conv2d/Conv2D_grad/Conv2DBackpropFilter"
  op: "Conv2DBackpropFilter"
  input: "mpool0/MaxPool"
  input: "ConstantFolding/gradients/conv2/conv2d/Conv2D_grad/ShapeN-matshapes-1"
  input: "gradients/conv2/Relu_grad/ReluGrad"
  input: "^gradients/conv2/BiasAdd_grad/BiasAddGrad"
  device: "/job:localhost/replica:0/task:0/device:GPU:0"
  attr {
    key: "T"
    value {
      type: DT_FLOAT
    }
  }
  attr {
    key: "_output_shapes"
    value {
      list {
        shape {
          dim {
            size: 3
          }
          dim {
            size: 3
          }
          dim {
            size: 64
          }
          dim {
            size: 128
          }
        }
      }
    }
  }
  attr {
    key: "data_format"
    value {
      s: "NCHW"
    }
  }
  attr {
    key: "dilations"
    value {
      list {
        i: 1
        i: 1
        i: 1
        i: 1
      }
    }
  }
  attr {
    key: "explicit_paddings"
    value {
      list {
      }
    }
  }
  attr {
    key: "padding"
    value {
      s: "SAME"
    }
  }
  attr {
    key: "strides"
    value {
      list {
        i: 1
        i: 1
        i: 1
        i: 1
      }
    }
  }
  attr {
    key: "use_cudnn_on_gpu"
    value {
      b: true
    }
  }
  experimental_debug_info {
    original_node_names: "gradients/conv2/conv2d/Conv2D_grad/Conv2DBackpropFilter"
  }
}
node {
  name: "GradientDescent/update_conv2/conv2d/kernel/ApplyGradientDescent"
  op: "ApplyGradientDescent"
  input: "conv2/conv2d/kernel"
  input: "GradientDescent/learning_rate"
  input: "gradients/conv2/conv2d/Conv2D_grad/Conv2DBackpropFilter"
  input: "^gradients/conv2/conv2d/Conv2D_grad/Conv2DBackpropInput"
  device: "/job:localhost/replica:0/task:0/device:GPU:0"
  attr {
    key: "T"
    value {
      type: DT_FLOAT
    }
  }
  attr {
    key: "_output_shapes"
    value {
      list {
        shape {
          dim {
            size: 3
          }
          dim {
            size: 3
          }
          dim {
            size: 64
          }
          dim {
            size: 128
          }
        }
      }
    }
  }
  attr {
    key: "use_locking"
    value {
      b: false
    }
  }
  experimental_debug_info {
    original_node_names: "GradientDescent/update_conv2/conv2d/kernel/ApplyGradientDescent"
  }
}
node {
  name: "gradients/mpool0/MaxPool_grad/MaxPoolGrad"
  op: "MaxPoolGrad"
  input: "conv1/Relu"
  input: "mpool0/MaxPool"
  input: "gradients/conv2/conv2d/Conv2D_grad/Conv2DBackpropInput"
  input: "^gradients/conv2/conv2d/Conv2D_grad/Conv2DBackpropFilter"
  device: "/job:localhost/replica:0/task:0/device:GPU:0"
  attr {
    key: "T"
    value {
      type: DT_FLOAT
    }
  }
  attr {
    key: "_output_shapes"
    value {
      list {
        shape {
          dim {
            size: 64
          }
          dim {
            size: 64
          }
          dim {
            size: 224
          }
          dim {
            size: 224
          }
        }
      }
    }
  }
  attr {
    key: "data_format"
    value {
      s: "NCHW"
    }
  }
  attr {
    key: "ksize"
    value {
      list {
        i: 1
        i: 1
        i: 2
        i: 2
      }
    }
  }
  attr {
    key: "padding"
    value {
      s: "VALID"
    }
  }
  attr {
    key: "strides"
    value {
      list {
        i: 1
        i: 1
        i: 2
        i: 2
      }
    }
  }
  experimental_debug_info {
    original_node_names: "gradients/mpool0/MaxPool_grad/MaxPoolGrad"
  }
}
node {
  name: "gradients/conv1/Relu_grad/ReluGrad"
  op: "ReluGrad"
  input: "gradients/mpool0/MaxPool_grad/MaxPoolGrad"
  input: "conv1/Relu"
  device: "/job:localhost/replica:0/task:0/device:GPU:0"
  attr {
    key: "T"
    value {
      type: DT_FLOAT
    }
  }
  attr {
    key: "_output_shapes"
    value {
      list {
        shape {
          dim {
            size: 64
          }
          dim {
            size: 64
          }
          dim {
            size: 224
          }
          dim {
            size: 224
          }
        }
      }
    }
  }
  experimental_debug_info {
    original_node_names: "gradients/conv1/Relu_grad/ReluGrad"
  }
}
node {
  name: "gradients/conv1/BiasAdd_grad/BiasAddGrad"
  op: "BiasAddGrad"
  input: "gradients/conv1/Relu_grad/ReluGrad"
  device: "/job:localhost/replica:0/task:0/device:GPU:0"
  attr {
    key: "T"
    value {
      type: DT_FLOAT
    }
  }
  attr {
    key: "_output_shapes"
    value {
      list {
        shape {
          dim {
            size: 64
          }
        }
      }
    }
  }
  attr {
    key: "data_format"
    value {
      s: "NCHW"
    }
  }
  experimental_debug_info {
    original_node_names: "gradients/conv1/BiasAdd_grad/BiasAddGrad"
  }
}
node {
  name: "GradientDescent/update_conv1/biases/ApplyGradientDescent"
  op: "ApplyGradientDescent"
  input: "conv1/biases"
  input: "GradientDescent/learning_rate"
  input: "gradients/conv1/BiasAdd_grad/BiasAddGrad"
  device: "/job:localhost/replica:0/task:0/device:GPU:0"
  attr {
    key: "T"
    value {
      type: DT_FLOAT
    }
  }
  attr {
    key: "_output_shapes"
    value {
      list {
        shape {
          dim {
            size: 64
          }
        }
      }
    }
  }
  attr {
    key: "use_locking"
    value {
      b: false
    }
  }
  experimental_debug_info {
    original_node_names: "GradientDescent/update_conv1/biases/ApplyGradientDescent"
  }
}
node {
  name: "gradients/conv1/conv2d/Conv2D_grad/Conv2DBackpropInput"
  op: "Conv2DBackpropInput"
  input: "gradients/conv1/conv2d/Conv2D_grad/Conv2DBackpropInput-0-DataFormatVecPermuteNHWCToNCHW-LayoutOptimizer"
  input: "conv1/conv2d/kernel/read"
  input: "gradients/conv1/Relu_grad/ReluGrad"
  input: "^gradients/conv1/BiasAdd_grad/BiasAddGrad"
  device: "/job:localhost/replica:0/task:0/device:GPU:0"
  attr {
    key: "T"
    value {
      type: DT_FLOAT
    }
  }
  attr {
    key: "_output_shapes"
    value {
      list {
        shape {
          dim {
            size: 64
          }
          dim {
            size: 64
          }
          dim {
            size: 224
          }
          dim {
            size: 224
          }
        }
      }
    }
  }
  attr {
    key: "data_format"
    value {
      s: "NCHW"
    }
  }
  attr {
    key: "dilations"
    value {
      list {
        i: 1
        i: 1
        i: 1
        i: 1
      }
    }
  }
  attr {
    key: "explicit_paddings"
    value {
      list {
      }
    }
  }
  attr {
    key: "padding"
    value {
      s: "SAME"
    }
  }
  attr {
    key: "strides"
    value {
      list {
        i: 1
        i: 1
        i: 1
        i: 1
      }
    }
  }
  attr {
    key: "use_cudnn_on_gpu"
    value {
      b: true
    }
  }
  experimental_debug_info {
    original_node_names: "gradients/conv1/conv2d/Conv2D_grad/Conv2DBackpropInput"
  }
}
node {
  name: "gradients/conv1/conv2d/Conv2D_grad/Conv2DBackpropFilter"
  op: "Conv2DBackpropFilter"
  input: "conv0/Relu"
  input: "ConstantFolding/gradients/conv1/conv2d/Conv2D_grad/ShapeN-matshapes-1"
  input: "gradients/conv1/Relu_grad/ReluGrad"
  input: "^gradients/conv1/BiasAdd_grad/BiasAddGrad"
  device: "/job:localhost/replica:0/task:0/device:GPU:0"
  attr {
    key: "T"
    value {
      type: DT_FLOAT
    }
  }
  attr {
    key: "_output_shapes"
    value {
      list {
        shape {
          dim {
            size: 3
          }
          dim {
            size: 3
          }
          dim {
            size: 64
          }
          dim {
            size: 64
          }
        }
      }
    }
  }
  attr {
    key: "data_format"
    value {
      s: "NCHW"
    }
  }
  attr {
    key: "dilations"
    value {
      list {
        i: 1
        i: 1
        i: 1
        i: 1
      }
    }
  }
  attr {
    key: "explicit_paddings"
    value {
      list {
      }
    }
  }
  attr {
    key: "padding"
    value {
      s: "SAME"
    }
  }
  attr {
    key: "strides"
    value {
      list {
        i: 1
        i: 1
        i: 1
        i: 1
      }
    }
  }
  attr {
    key: "use_cudnn_on_gpu"
    value {
      b: true
    }
  }
  experimental_debug_info {
    original_node_names: "gradients/conv1/conv2d/Conv2D_grad/Conv2DBackpropFilter"
  }
}
node {
  name: "GradientDescent/update_conv1/conv2d/kernel/ApplyGradientDescent"
  op: "ApplyGradientDescent"
  input: "conv1/conv2d/kernel"
  input: "GradientDescent/learning_rate"
  input: "gradients/conv1/conv2d/Conv2D_grad/Conv2DBackpropFilter"
  input: "^gradients/conv1/conv2d/Conv2D_grad/Conv2DBackpropInput"
  device: "/job:localhost/replica:0/task:0/device:GPU:0"
  attr {
    key: "T"
    value {
      type: DT_FLOAT
    }
  }
  attr {
    key: "_output_shapes"
    value {
      list {
        shape {
          dim {
            size: 3
          }
          dim {
            size: 3
          }
          dim {
            size: 64
          }
          dim {
            size: 64
          }
        }
      }
    }
  }
  attr {
    key: "use_locking"
    value {
      b: false
    }
  }
  experimental_debug_info {
    original_node_names: "GradientDescent/update_conv1/conv2d/kernel/ApplyGradientDescent"
  }
}
node {
  name: "gradients/conv0/Relu_grad/ReluGrad"
  op: "ReluGrad"
  input: "gradients/conv1/conv2d/Conv2D_grad/Conv2DBackpropInput"
  input: "conv0/Relu"
  input: "^gradients/conv1/conv2d/Conv2D_grad/Conv2DBackpropFilter"
  device: "/job:localhost/replica:0/task:0/device:GPU:0"
  attr {
    key: "T"
    value {
      type: DT_FLOAT
    }
  }
  attr {
    key: "_output_shapes"
    value {
      list {
        shape {
          dim {
            size: 64
          }
          dim {
            size: 64
          }
          dim {
            size: 224
          }
          dim {
            size: 224
          }
        }
      }
    }
  }
  experimental_debug_info {
    original_node_names: "gradients/conv0/Relu_grad/ReluGrad"
  }
}
node {
  name: "gradients/conv0/BiasAdd_grad/BiasAddGrad"
  op: "BiasAddGrad"
  input: "gradients/conv0/Relu_grad/ReluGrad"
  device: "/job:localhost/replica:0/task:0/device:GPU:0"
  attr {
    key: "T"
    value {
      type: DT_FLOAT
    }
  }
  attr {
    key: "_output_shapes"
    value {
      list {
        shape {
          dim {
            size: 64
          }
        }
      }
    }
  }
  attr {
    key: "data_format"
    value {
      s: "NCHW"
    }
  }
  experimental_debug_info {
    original_node_names: "gradients/conv0/BiasAdd_grad/BiasAddGrad"
  }
}
node {
  name: "GradientDescent/update_conv0/biases/ApplyGradientDescent"
  op: "ApplyGradientDescent"
  input: "conv0/biases"
  input: "GradientDescent/learning_rate"
  input: "gradients/conv0/BiasAdd_grad/BiasAddGrad"
  device: "/job:localhost/replica:0/task:0/device:GPU:0"
  attr {
    key: "T"
    value {
      type: DT_FLOAT
    }
  }
  attr {
    key: "_output_shapes"
    value {
      list {
        shape {
          dim {
            size: 64
          }
        }
      }
    }
  }
  attr {
    key: "use_locking"
    value {
      b: false
    }
  }
  experimental_debug_info {
    original_node_names: "GradientDescent/update_conv0/biases/ApplyGradientDescent"
  }
}
node {
  name: "gradients/conv0/conv2d/Conv2D_grad/Conv2DBackpropFilter"
  op: "Conv2DBackpropFilter"
  input: "conv0/conv2d/Conv2D-0-TransposeNHWCToNCHW-LayoutOptimizer"
  input: "ConstantFolding/gradients/conv0/conv2d/Conv2D_grad/ShapeN-matshapes-1"
  input: "gradients/conv0/Relu_grad/ReluGrad"
  input: "^gradients/conv0/BiasAdd_grad/BiasAddGrad"
  device: "/job:localhost/replica:0/task:0/device:GPU:0"
  attr {
    key: "T"
    value {
      type: DT_FLOAT
    }
  }
  attr {
    key: "_output_shapes"
    value {
      list {
        shape {
          dim {
            size: 3
          }
          dim {
            size: 3
          }
          dim {
            size: 3
          }
          dim {
            size: 64
          }
        }
      }
    }
  }
  attr {
    key: "data_format"
    value {
      s: "NCHW"
    }
  }
  attr {
    key: "dilations"
    value {
      list {
        i: 1
        i: 1
        i: 1
        i: 1
      }
    }
  }
  attr {
    key: "explicit_paddings"
    value {
      list {
      }
    }
  }
  attr {
    key: "padding"
    value {
      s: "SAME"
    }
  }
  attr {
    key: "strides"
    value {
      list {
        i: 1
        i: 1
        i: 1
        i: 1
      }
    }
  }
  attr {
    key: "use_cudnn_on_gpu"
    value {
      b: true
    }
  }
  experimental_debug_info {
    original_node_names: "gradients/conv0/conv2d/Conv2D_grad/Conv2DBackpropFilter"
  }
}
node {
  name: "GradientDescent/update_conv0/conv2d/kernel/ApplyGradientDescent"
  op: "ApplyGradientDescent"
  input: "conv0/conv2d/kernel"
  input: "GradientDescent/learning_rate"
  input: "gradients/conv0/conv2d/Conv2D_grad/Conv2DBackpropFilter"
  device: "/job:localhost/replica:0/task:0/device:GPU:0"
  attr {
    key: "T"
    value {
      type: DT_FLOAT
    }
  }
  attr {
    key: "_output_shapes"
    value {
      list {
        shape {
          dim {
            size: 3
          }
          dim {
            size: 3
          }
          dim {
            size: 3
          }
          dim {
            size: 64
          }
        }
      }
    }
  }
  attr {
    key: "use_locking"
    value {
      b: false
    }
  }
  experimental_debug_info {
    original_node_names: "GradientDescent/update_conv0/conv2d/kernel/ApplyGradientDescent"
  }
}
node {
  name: "GradientDescent"
  op: "NoOp"
  input: "^GradientDescent/update_affine0/biases/ApplyGradientDescent"
  input: "^GradientDescent/update_affine0/weights/ApplyGradientDescent"
  input: "^GradientDescent/update_affine1/biases/ApplyGradientDescent"
  input: "^GradientDescent/update_affine1/weights/ApplyGradientDescent"
  input: "^GradientDescent/update_affine2/biases/ApplyGradientDescent"
  input: "^GradientDescent/update_affine2/weights/ApplyGradientDescent"
  input: "^GradientDescent/update_conv0/biases/ApplyGradientDescent"
  input: "^GradientDescent/update_conv0/conv2d/kernel/ApplyGradientDescent"
  input: "^GradientDescent/update_conv1/biases/ApplyGradientDescent"
  input: "^GradientDescent/update_conv1/conv2d/kernel/ApplyGradientDescent"
  input: "^GradientDescent/update_conv10/biases/ApplyGradientDescent"
  input: "^GradientDescent/update_conv10/conv2d/kernel/ApplyGradientDescent"
  input: "^GradientDescent/update_conv11/biases/ApplyGradientDescent"
  input: "^GradientDescent/update_conv11/conv2d/kernel/ApplyGradientDescent"
  input: "^GradientDescent/update_conv12/biases/ApplyGradientDescent"
  input: "^GradientDescent/update_conv12/conv2d/kernel/ApplyGradientDescent"
  input: "^GradientDescent/update_conv2/biases/ApplyGradientDescent"
  input: "^GradientDescent/update_conv2/conv2d/kernel/ApplyGradientDescent"
  input: "^GradientDescent/update_conv3/biases/ApplyGradientDescent"
  input: "^GradientDescent/update_conv3/conv2d/kernel/ApplyGradientDescent"
  input: "^GradientDescent/update_conv4/biases/ApplyGradientDescent"
  input: "^GradientDescent/update_conv4/conv2d/kernel/ApplyGradientDescent"
  input: "^GradientDescent/update_conv5/biases/ApplyGradientDescent"
  input: "^GradientDescent/update_conv5/conv2d/kernel/ApplyGradientDescent"
  input: "^GradientDescent/update_conv6/biases/ApplyGradientDescent"
  input: "^GradientDescent/update_conv6/conv2d/kernel/ApplyGradientDescent"
  input: "^GradientDescent/update_conv7/biases/ApplyGradientDescent"
  input: "^GradientDescent/update_conv7/conv2d/kernel/ApplyGradientDescent"
  input: "^GradientDescent/update_conv8/biases/ApplyGradientDescent"
  input: "^GradientDescent/update_conv8/conv2d/kernel/ApplyGradientDescent"
  input: "^GradientDescent/update_conv9/biases/ApplyGradientDescent"
  input: "^GradientDescent/update_conv9/conv2d/kernel/ApplyGradientDescent"
  device: "/job:localhost/replica:0/task:0/device:GPU:0"
  experimental_debug_info {
    original_node_names: "GradientDescent"
  }
}
versions {
  producer: 134
}
